PER_BAYESIAN_DDQN_ATTACKS/logs/no_concatenate/model/no_concatenate0.pth (torch_old, 540845 bytes, 34 tensors)

square_avg f4 [16, 4, 5, 5]
00000000: 8c9f 8f38 dd3d 6638 0aaa d138 6fc0 e238
00000010: 0ea9 2a38 1fc6 dc38 d48e 9e38 cac7 e938
00000020: ac20 d738 459d ba38 be33 0339 536a 1639
00000030: 63b6 4c39 7595 3b39 85e9 8138 8022 6d38
00000040: 58e0 7c38 5085 9938 09e0 0938 f4d9 b438
00000050: 6bae 4d38 cb9f 8a38 4e53 d038 d33c 3539
00000060: db16 e238 91f5 8f38 9f1a 6838 9ed2 d338
00000070: 3df7 e438 8ef6 2a38 47ed de38 8aba a038
00000080: 551b eb38 9d85 d438 675a bd38 aa6d 0339
00000090: 41e9 1639 c96c 4d39 dd61 3c39 c83d 8238
000000a0: 7bf2 6e38 4ad6 7e38 df37 a038 3e8d 0f38
000000b0: 2bcd b638 7ea2 5138 8aea 8838 ce9f ca38
000000c0: 99b6 3339 2f0f e438 25f6 8f38 4220 6838
000000d0: b2b9 d338 95fd e438 d7cb 2a38 f4ee de38
000000e0: 8cbe a038 4225 eb38 5d8d d438 945f bd38
000000f0: e673 0339 f3f9 1639 7a6a 4d39 6b65 3c39
00000100: cf44 8238 5b00 6f38 f8db 7e38 ce25 a038
00000110: d198 0f38 6dd2 b638 b1b9 5138 f7d5 8838
00000120: da6c ca38 50b4 3339 0b1c e438 a17c 602f
00000130: 907b 602f e47b 602f a27b 602f a17c 602f
00000140: 907b 602f eb7b 602f b87b 602f 967c 602f
00000150: 907b 602f eb7b 602f b87b 602f 967c 602f
00000160: 907b 602f eb7b 602f b87b 602f 967c 602f
00000170: 907b 602f eb7b 602f b87b 602f 967c 602f
00000180: 8f7a 602f af7c 602f 4b7b 602f 637b 602f
00000190: ac6d ae37 e4ce 0738 4e93 5d38 65b9 8738
000001a0: 5620 5b38 397d 5638 e414 9038 a6e5 3a38
000001b0: 1c63 0a39 4165 6238 ae42 2138 94b9 8238
000001c0: 5eec 9c38 97ae a738 e0e2 7138 07b3 4038
000001d0: 2019 4538 275d 1e38 71a8 5938 acb5 8738
000001e0: 8a92 3c38 271e 3238 597d c838 bb10 fd38
000001f0: f1a2 c138 b0ca ab37 b669 0838 e07e 5d38
00000200: aca7 8438 b4d9 5938 458d 5338 b0d2 8e38
00000210: b07a 3a38 b793 0939 7a75 6338 d481 2138
00000220: c749 8238 5257 9c38 3344 a838 a6c1 7338
00000230: c7e4 4038 dcef 4638 318d 1f38 d099 5b38
00000240: 2d79 8838 1728 3c38 7f4a 3238 afe2 c938
00000250: 6f4d ff38 4826 c038 a9ad ab37 eb6c 0838
00000260: 3f84 5d38 24ab 8438 7ee4 5938 4979 5338
00000270: 70cf 8e38 0580 3a38 6298 0939 2d7d 6338
00000280: d96c 2138 8846 8238 be5e 9c38 064e a838
00000290: c3c7 7338 09c9 4038 6ff2 4638 5d92 1f38
000002a0: fe9f 5b38 467c 8838 bc4c 3c38 ba5f 3238
000002b0: 773a ca38 3f9d ff38 5e42 c038 459e f52e
000002c0: 309d f52e 369e f52e 8e9c f52e 459e f52e
000002d0: 2c9d f52e 4f9e f52e b29c f52e 489e f52e
000002e0: 2c9d f52e 4f9e f52e b29c f52e 489e f52e
000002f0: 2c9d f52e 4f9e f52e b29c f52e 489e f52e
00000300: 729d f52e 389e f52e 869c f52e 4a9e f52e
00000310: 2aa0 f52e d3a1 f52e cea1 f52e 4c9d f52e
00000320: 3bb8 f138 5641 9738 0ac3 c338 fa2a bb38
00000330: 0650 8938 8242 c138 25ba ab38 1d72 c238
00000340: b429 0539 257b b038 84d7 d738 a83b c138
00000350: 4340 9838 ea75 9a38 4d2e 7a39 0075 d939
00000360: 09a9 043a 1a93 ab39 a202 df39 638c 2839
00000370: 0017 3c39 b390 0539 ab15 0b39 f6bb a938
00000380: df97 fd38 7130 9639 07e6 2839 641c 0d39
00000390: 93c6 fe38 041e a238 6837 0f39 b98b b138
000003a0: f2fa a838 a347 9d38 7766 6838 b9de ea38
000003b0: 92b4 1439 4ab5 d039 a128 c539 2bc1 693a
000003c0: 5e81 ab39 8731 cb39 a6e4 743a 207f 753a
000003d0: 3914 ce3a 693c 2e3a 6955 313a 6ba9 c23a
000003e0: 662a c33a f8ea 0a3b 122b 9639 a9ba 2839
000003f0: e7f5 0a39 e547 f238 b552 9638 bc91 1139
6.848489e-05 5.4893888e-05 9.997569e-05 0.00010812363 4.0688603e-05 0.000105273204 7.560631e-05 0.000111475194
0.000102580845 8.898465e-05 0.00012512409 0.00014344724 0.000195229 0.00017889387 6.194696e-05 5.6537334e-05
6.029042e-05 7.32044e-05 3.2871994e-05 8.623666e-05 4.9038248e-05 6.6101165e-05 9.9337296e-05 0.00017284164
0.00010780777 6.864512e-05 5.5337903e-05 0.000101004945 0.00010917939 4.076078e-05 0.00010629981 7.66414e-05
0.00011210764 0.00010133835 9.029061e-05 0.00012533987 0.00014392009 0.00019590849 0.00017965534 6.210391e-05
5.696945e-05 6.075789e-05 7.639801e-05 3.42254e-05 8.716652e-05 4.9980816e-05 6.528672e-05 9.6618765e-05
0.00017138793 0.000108747154 6.864619e-05 5.5343153e-05 0.000100958525 0.000109191205 4.0721e-05 0.000106302934
7.664887e-05 0.00011212613 0.00010135279 9.030025e-05 0.00012536309 0.00014398228 0.00019589989 0.00017966858
6.2117e-05 5.698237e-05 6.076318e-05 7.636436e-05 3.4236178e-05 8.717631e-05 5.000242e-05 6.5248394e-05
9.652386e-05 0.00017137942 0.000108771106 2.0416958e-10 2.041658e-10 2.0416696e-10 2.0416605e-10 2.0416958e-10
2.041658e-10 2.0416706e-10 2.0416635e-10 2.0416943e-10 2.041658e-10 2.0416706e-10 2.0416635e-10 2.0416943e-10
2.041658e-10 2.0416706e-10 2.0416635e-10 2.0416943e-10 2.041658e-10 2.0416706e-10 2.0416635e-10 2.0416943e-10
2.0416223e-10 2.0416978e-10 2.0416484e-10 2.0416517e-10 2.0793486e-05 3.237919e-05 5.2827694e-05 6.471834e-05
5.2243784e-05 5.11382e-05 6.870346e-05 4.4559732e-05 0.00013197627 5.39769e-05 3.844749e-05 6.23345e-05
7.4826865e-05 7.9957004e-05 5.767017e-05 4.59431e-05 4.699186e-05 3.775689e-05 5.1893705e-05 6.471141e-05
4.4959168e-05 4.246659e-05 9.560091e-05 0.000120670964 9.233307e-05 2.0479172e-05 3.2523378e-05 5.2808668e-05
6.325482e-05 5.1939583e-05 5.0437888e-05 6.810331e-05 4.4460117e-05 0.00013120366 5.4230426e-05 3.8506303e-05
6.212625e-05 7.454924e-05 8.023567e-05 5.8116064e-05 4.5989433e-05 4.7430265e-05 3.804005e-05 5.2356918e-05
6.507556e-05 4.486003e-05 4.2507887e-05 9.62665e-05 0.00012173771 9.162404e-05 2.0465655e-05 3.2526365e-05
5.281367e-05 6.326128e-05 5.194963e-05 5.0419276e-05 6.809726e-05 4.4465083e-05 0.00013122105 5.4237596e-05
3.8486764e-05 6.2120205e-05 7.456307e-05 8.025397e-05 5.8121757e-05 4.5963596e-05 4.7432663e-05 3.8044866e-05
5.2362673e-05 6.508133e-05 4.4894157e-05 4.252766e-05 9.6430005e-05 0.00012188637 9.167635e-05 1.11694244e-10
1.1169232e-10 1.1169414e-10 1.116912e-10 1.11694244e-10 1.11692294e-10 1.11694314e-10 1.1169145e-10 1.11694265e-10
1.11692294e-10 1.11694314e-10 1.1169145e-10 1.11694265e-10 1.11692294e-10 1.11694314e-10 1.1169145e-10 1.11694265e-10
1.1169278e-10 1.11694154e-10 1.1169114e-10 1.1169428e-10 1.1169761e-10 1.1170056e-10 1.11700524e-10 1.11692516e-10
0.00011526091 7.212411e-05 9.3346534e-05 8.92486e-05 6.5475746e-05 9.215345e-05 8.1885875e-05 9.271896e-05
0.00012699404 8.4152714e-05 0.00010292142 9.214069e-05 7.2598945e-05 7.3652554e-05 0.00023859106 0.00041476637
0.00050605886 0.0003272526 0.00042535836 0.00016074027 0.00017937645 0.00012737773 0.00013264145 8.0935584e-05
0.00012092268 0.0002864632 0.0001610742 0.00013457384 0.00012148651 7.730353e-05 0.00013658183 8.466043e-05
8.0576065e-05 7.499687e-05 5.5408538e-05 0.00011199475 0.00014181648 0.00039807922 0.0003760504 0.0008917029
0.00032712048 0.00038756078 0.00093419326 0.00093649514 0.001572258 0.0006646575 0.0006764741 0.0014851516
0.0014889955 0.0021197181 0.0002864232 0.00016091265 0.00013252311 0.000115528506 7.167963e-05 0.00013882568

square_avg f4 [32, 16, 5, 5]
00000000: da8f 0038 38aa c537 9a24 6837 3e99 8e36
00000010: 8aa3 b736 f612 ec37 4adf 9137 6bf2 d135
00000020: 408f 9336 39c4 e637 bc0f 1136 3385 4d35
00000030: e004 5f35 d16d c336 7816 b437 a13f 5c37
00000040: 8091 7737 c217 6c35 955e 9e36 2103 e737
00000050: 4935 d337 2b8f 5836 5d0a 4635 b4cb 4836
00000060: 354d b637 f090 8737 fa94 f737 082d 3137
00000070: c929 3437 0368 bf35 8e76 8736 ed2d 4538
00000080: f3a0 f436 739c db36 88f3 ed36 3aac 9037
00000090: 8c5e 5d38 c4c3 0235 6194 b436 39d4 a236
000000a0: 9e1a 2236 ffc9 1f38 918a 6335 b302 b336
000000b0: 882e 1936 cbcd f236 1b6b 3c38 0aa6 1e35
000000c0: 7d45 a836 73b4 ef37 1ea4 9538 c3ac f836
000000d0: b7a5 7437 78d0 5e38 1b34 b338 ff9c 4738
000000e0: 016e 9037 00f8 3737 bd9e 2a38 2d4a 5e38
000000f0: 5ef1 d738 d9b9 4438 e2f9 3d39 8861 d738
00000100: dc50 4639 e471 3938 cdd1 0b38 0674 1137
00000110: 278d c038 27bd 6a38 39d8 0b39 b311 cc37
00000120: b767 3b38 cda1 e338 dffb a138 3200 0000
00000130: 3200 0000 3200 0000 3200 0000 3200 0000
00000140: 3200 0000 3200 0000 3200 0000 3200 0000
00000150: 3200 0000 3200 0000 3200 0000 3200 0000
00000160: 3200 0000 3200 0000 3200 0000 3200 0000
00000170: 3200 0000 3200 0000 3200 0000 3200 0000
00000180: 3200 0000 3200 0000 3200 0000 3200 0000
00000190: 7922 7438 42ab 3b39 e24c f037 cb4f 0838
000001a0: fc73 db38 802d 0638 1530 bb38 19b1 2538
000001b0: 480a 1838 c793 8938 601e 8438 47e2 fa38
000001c0: d330 0539 c3d2 8839 ba7d 1939 6973 0938
000001d0: 3d66 0239 19e1 ba37 3e11 fe37 ef12 8238
000001e0: dd0e 9a38 48be 4a39 8cca 4938 5e17 1538
000001f0: 698a ad38 5358 6837 fbee d538 bad5 7438
00000200: bede 1738 b9d6 d637 b5d0 3138 f209 f538
00000210: 1211 1039 7a39 1439 e79a 1639 28ed 1438
00000220: 1bf4 0239 a943 0439 0d3c 1738 d9ba b637
00000230: 0a83 1e38 150f 1e39 b85b 4739 2802 3238
00000240: d5ab d237 cc41 3938 75ca ce38 0d01 ae38
00000250: 9e65 f637 82a1 fb37 29e4 0937 dcee 1b37
00000260: 7712 1138 629d 0038 3098 ce36 4970 8837
00000270: 4b34 a937 f0aa 7f38 1623 0d38 40bd f437
00000280: f712 6037 a21a 0738 f343 7238 a110 6838
00000290: 7a17 6538 928e 9537 b030 7137 eddc 8638
000002a0: 6a7f ee37 54c4 2637 73f0 9d36 eb02 5a37
000002b0: 56b9 5538 6c77 d637 4545 d936 86b2 9237
000002c0: d1c0 d037 2ac5 1537 8d9e 8c37 0d6e f136
000002d0: ca95 1e37 7b12 9938 a645 a436 2117 e737
000002e0: e18e a636 6a9a cb37 544e 2038 ff2d 8936
000002f0: a2b7 4f36 a770 2137 3187 2d37 ee9f ea37
00000300: c664 f336 596b 3237 ab27 9537 94fb 0437
00000310: 78b3 d037 ac2a 9235 7c9d e836 eaba a637
00000320: 771b 0e38 c793 e136 2e7d 5b37 6427 8537
00000330: 29c9 ee38 4203 ad37 cfca df34 7882 cf36
00000340: eb3b 2335 ef4a 9638 7091 2938 7f0a 9836
00000350: 4200 af36 1446 2f35 9404 9a38 cf64 aa37
00000360: 1522 9b35 96ea ea36 fb4e 0a36 26a5 0438
00000370: 38f3 1f39 69cc 1237 ca42 de36 919c e537
00000380: d040 1e38 c538 6038 d835 0037 bd98 a536
00000390: b3b3 8636 a0f4 9738 db01 e837 ca3b 6035
000003a0: 6018 2037 618c 3437 ecdc ae38 b292 0337
000003b0: a797 8036 cdc8 5536 c046 8737 bea5 1138
000003c0: a87d ed37 012f 3837 455f b836 febd b536
000003d0: 73a0 0638 06bd 3a37 6ee6 4d37 3889 8d36
000003e0: 502a 4737 1cdf 0d38 ed85 4438 3ab4 4c37
000003f0: ab75 bb37 822a 7038 b13c 1b38 0867 7938
3.065155e-05 2.3563494e-05 1.38368e-05 4.2497695e-06 5.4728634e-06 2.8142222e-05 1.7389324e-05 1.5642266e-06
4.397618e-06 2.750951e-05 2.1615842e-06 7.656228e-07 8.308107e-07 5.824237e-06 2.1468135e-05 1.3127837e-05
1.4756224e-05 8.7951423e-07 4.7197777e-06 2.7538803e-05 2.5177973e-05 3.2269843e-06 7.377583e-07 2.9920893e-06
2.1732043e-05 1.6160746e-05 2.9514067e-05 1.0560507e-05 1.0738565e-05 1.426088e-06 4.037115e-06 4.701123e-05
7.2905036e-06 6.5449217e-06 7.091501e-06 1.7246337e-05 5.277856e-05 4.871365e-07 5.3816916e-06 4.852682e-06
2.4155374e-06 3.8096678e-05 8.476573e-07 5.33493e-06 2.2825861e-06 7.2361195e-06 4.4922443e-05 5.9101205e-07
5.0148797e-06 2.8575048e-05 7.135443e-05 7.411088e-06 1.4582117e-05 5.3123076e-05 8.5450905e-05 4.759151e-05
1.7217362e-05 1.0965392e-05 4.0678995e-05 5.2998006e-05 0.00010296957 4.6903126e-05 0.00018117533 0.000102701655
0.00018912874 4.4213506e-05 3.3335575e-05 8.669687e-06 9.181565e-05 5.596611e-05 0.00013336622 2.4326937e-05
4.4680866e-05 0.00010854341 7.723993e-05 7e-44 7e-44 7e-44 7e-44 7e-44
7e-44 7e-44 7e-44 7e-44 7e-44 7e-44 7e-44 7e-44
7e-44 7e-44 7e-44 7e-44 7e-44 7e-44 7e-44 7e-44
7e-44 7e-44 7e-44 7e-44 5.820624e-05 0.00017897508 2.864603e-05 3.249924e-05
0.000104643375 3.1990465e-05 8.925811e-05 3.9504e-05 3.62492e-05 6.560195e-05 6.299908e-05 0.000119630764
0.00012702057 0.0002609697 0.00014638054 3.277083e-05 0.00012435853 2.2277747e-05 3.0287189e-05 6.20241e-05
7.346061e-05 0.00019335106 4.811077e-05 3.554613e-05 8.275064e-05 1.3848842e-05 0.00010201145 5.837318e-05
3.620865e-05 2.5610776e-05 4.2394462e-05 0.00011684363 0.0001373927 0.00014135792 0.0001436282 3.550682e-05
0.00012488702 0.00012613706 3.6057132e-05 2.1783098e-05 3.7792175e-05 0.00015073673 0.00019012287 4.2440515e-05
2.5113966e-05 4.4168715e-05 9.860556e-05 8.297162e-05 2.9372804e-05 2.999674e-05 8.218959e-06 9.294334e-06
3.458789e-05 3.0664152e-05 6.1569954e-06 1.626475e-05 2.017072e-05 6.0955936e-05 3.3649696e-05 2.9175193e-05
1.3355856e-05 3.2211312e-05 5.776058e-05 5.5328597e-05 5.461972e-05 1.7828574e-05 1.4376055e-05 6.4307686e-05
2.8431143e-05 9.940082e-06 4.7069566e-06 1.2994492e-05 5.0955765e-05 2.5566398e-05 6.475168e-06 1.7487688e-05
2.488532e-05 8.926998e-06 1.6763131e-05 7.1951713e-06 9.452409e-06 7.299051e-05 4.895689e-06 2.7548116e-05
4.963819e-06 2.427139e-05 3.821992e-05 4.088273e-06 3.0952292e-06 9.622577e-06 1.034308e-05 2.7969447e-05
7.253696e-06 1.0634621e-05 1.7780656e-05 7.926388e-06 2.4879104e-05 1.0890267e-06 6.9324724e-06 1.987578e-05
3.3881017e-05 6.722726e-06 1.3082563e-05 1.5873178e-05 0.000113861934 2.0624724e-05 4.168455e-07 6.1842693e-06
6.0809424e-07 7.166515e-05 4.042819e-05 4.531175e-06 5.2154364e-06 6.529456e-07 7.344145e-05 2.0312522e-05
1.1558319e-06 7.001053e-06 2.0609575e-06 3.162506e-05 0.00015254028 8.749871e-06 6.623891e-06 2.7371834e-05
3.7730497e-05 5.3458632e-05 7.641931e-06 4.9351643e-06 4.014431e-06 7.245806e-05 2.765742e-05 8.353351e-07
9.542418e-06 1.0761521e-05 8.3381165e-05 7.842364e-06 3.832352e-06 3.1856355e-06 1.61262e-05 3.4725053e-05
2.8311115e-05 1.0978199e-05 5.494718e-06 5.4163384e-06 3.209752e-05 1.1130474e-05 1.2272603e-05 4.218102e-06
1.1871176e-05 3.3824806e-05 4.685477e-05 1.220131e-05 2.234693e-05 5.7260047e-05 3.7011403e-05 5.946218e-05

square_avg f4 [32, 32, 5, 5]
00000000: 3200 0000 3200 0000 3200 0000 3200 0000
00000010: 3200 0000 3200 0000 3200 0000 3200 0000
00000020: 3200 0000 3200 0000 3200 0000 3200 0000
00000030: 3200 0000 3200 0000 3200 0000 3200 0000
00000040: 3200 0000 3200 0000 3200 0000 3200 0000
00000050: 3200 0000 3200 0000 3200 0000 3200 0000
00000060: 3200 0000 3200 0000 3200 0000 3200 0000
00000070: 3200 0000 3200 0000 3200 0000 3200 0000
00000080: 3200 0000 3200 0000 3200 0000 3200 0000
00000090: 3200 0000 3200 0000 3200 0000 3200 0000
000000a0: 3200 0000 3200 0000 3200 0000 3200 0000
000000b0: 3200 0000 3200 0000 3200 0000 3200 0000
000000c0: 3200 0000 3200 0000 3200 0000 3200 0000
000000d0: 3200 0000 3200 0000 3200 0000 3200 0000
000000e0: 3200 0000 3200 0000 3200 0000 3200 0000
000000f0: 3200 0000 3200 0000 3200 0000 3200 0000
00000100: 3200 0000 3200 0000 3200 0000 3200 0000
00000110: 3200 0000 3200 0000 3200 0000 3200 0000
00000120: 3200 0000 3200 0000 3200 0000 3200 0000
00000130: 3200 0000 3200 0000 3200 0000 3200 0000
00000140: 3200 0000 3200 0000 3200 0000 3200 0000
00000150: 3200 0000 3200 0000 3200 0000 3200 0000
00000160: 3200 0000 3200 0000 3200 0000 3200 0000
00000170: 3200 0000 3200 0000 3200 0000 3200 0000
00000180: 3200 0000 3200 0000 3200 0000 3200 0000
00000190: 3200 0000 3200 0000 3200 0000 3200 0000
000001a0: 3200 0000 3200 0000 3200 0000 3200 0000
000001b0: 3200 0000 3200 0000 3200 0000 3200 0000
000001c0: 3200 0000 3200 0000 3200 0000 3200 0000
000001d0: 3200 0000 3200 0000 3200 0000 3200 0000
000001e0: 3200 0000 3200 0000 3200 0000 3200 0000
000001f0: 3200 0000 3200 0000 3200 0000 3200 0000
00000200: 3200 0000 3200 0000 3200 0000 3200 0000
00000210: 3200 0000 3200 0000 3200 0000 3200 0000
00000220: 3200 0000 3200 0000 3200 0000 3200 0000
00000230: 3200 0000 3200 0000 3200 0000 3200 0000
00000240: 3200 0000 3200 0000 3200 0000 3200 0000
00000250: 3200 0000 3200 0000 3200 0000 3200 0000
00000260: 3200 0000 3200 0000 3200 0000 3200 0000
00000270: 3200 0000 3200 0000 3200 0000 3200 0000
00000280: 3200 0000 3200 0000 3200 0000 3200 0000
00000290: 3200 0000 3200 0000 3200 0000 3200 0000
000002a0: 3200 0000 3200 0000 3200 0000 3200 0000
000002b0: 3200 0000 3200 0000 3200 0000 3200 0000
000002c0: 3200 0000 3200 0000 3200 0000 3200 0000
000002d0: 3200 0000 3200 0000 3200 0000 3200 0000
000002e0: 3200 0000 3200 0000 3200 0000 3200 0000
000002f0: 3200 0000 3200 0000 3200 0000 3200 0000
00000300: 3200 0000 3200 0000 3200 0000 3200 0000
00000310: 3200 0000 3200 0000 3200 0000 3200 0000
00000320: 3200 0000 3200 0000 3200 0000 3200 0000
00000330: 3200 0000 3200 0000 3200 0000 3200 0000
00000340: 3200 0000 3200 0000 3200 0000 3200 0000
00000350: 3200 0000 3200 0000 3200 0000 3200 0000
00000360: 3200 0000 3200 0000 3200 0000 3200 0000
00000370: 3200 0000 3200 0000 3200 0000 3200 0000
00000380: 3200 0000 3200 0000 3200 0000 3200 0000
00000390: 3200 0000 3200 0000 3200 0000 3200 0000
000003a0: 3200 0000 3200 0000 3200 0000 3200 0000
000003b0: 3200 0000 3200 0000 3200 0000 3200 0000
000003c0: 3200 0000 3200 0000 3200 0000 3200 0000
000003d0: 3200 0000 3200 0000 3200 0000 3200 0000
000003e0: 3200 0000 3200 0000 3200 0000 3200 0000
000003f0: 3200 0000 3200 0000 3200 0000 3200 0000
7e-44 7e-44 7e-44 7e-44 7e-44 7e-44 7e-44 7e-44
7e-44 7e-44 7e-44 7e-44 7e-44 7e-44 7e-44 7e-44
7e-44 7e-44 7e-44 7e-44 7e-44 7e-44 7e-44 7e-44
7e-44 7e-44 7e-44 7e-44 7e-44 7e-44 7e-44 7e-44
7e-44 7e-44 7e-44 7e-44 7e-44 7e-44 7e-44 7e-44
7e-44 7e-44 7e-44 7e-44 7e-44 7e-44 7e-44 7e-44
7e-44 7e-44 7e-44 7e-44 7e-44 7e-44 7e-44 7e-44
7e-44 7e-44 7e-44 7e-44 7e-44 7e-44 7e-44 7e-44
7e-44 7e-44 7e-44 7e-44 7e-44 7e-44 7e-44 7e-44
7e-44 7e-44 7e-44 7e-44 7e-44 7e-44 7e-44 7e-44
7e-44 7e-44 7e-44 7e-44 7e-44 7e-44 7e-44 7e-44
7e-44 7e-44 7e-44 7e-44 7e-44 7e-44 7e-44 7e-44
7e-44 7e-44 7e-44 7e-44 7e-44 7e-44 7e-44 7e-44
7e-44 7e-44 7e-44 7e-44 7e-44 7e-44 7e-44 7e-44
7e-44 7e-44 7e-44 7e-44 7e-44 7e-44 7e-44 7e-44
7e-44 7e-44 7e-44 7e-44 7e-44 7e-44 7e-44 7e-44
7e-44 7e-44 7e-44 7e-44 7e-44 7e-44 7e-44 7e-44
7e-44 7e-44 7e-44 7e-44 7e-44 7e-44 7e-44 7e-44
7e-44 7e-44 7e-44 7e-44 7e-44 7e-44 7e-44 7e-44
7e-44 7e-44 7e-44 7e-44 7e-44 7e-44 7e-44 7e-44
7e-44 7e-44 7e-44 7e-44 7e-44 7e-44 7e-44 7e-44
7e-44 7e-44 7e-44 7e-44 7e-44 7e-44 7e-44 7e-44
7e-44 7e-44 7e-44 7e-44 7e-44 7e-44 7e-44 7e-44
7e-44 7e-44 7e-44 7e-44 7e-44 7e-44 7e-44 7e-44
7e-44 7e-44 7e-44 7e-44 7e-44 7e-44 7e-44 7e-44
7e-44 7e-44 7e-44 7e-44 7e-44 7e-44 7e-44 7e-44
7e-44 7e-44 7e-44 7e-44 7e-44 7e-44 7e-44 7e-44
7e-44 7e-44 7e-44 7e-44 7e-44 7e-44 7e-44 7e-44
7e-44 7e-44 7e-44 7e-44 7e-44 7e-44 7e-44 7e-44
7e-44 7e-44 7e-44 7e-44 7e-44 7e-44 7e-44 7e-44
7e-44 7e-44 7e-44 7e-44 7e-44 7e-44 7e-44 7e-44
7e-44 7e-44 7e-44 7e-44 7e-44 7e-44 7e-44 7e-44

square_avg f4 [32]
00000000: b63d 2027 3200 0000 2c93 0128 f88f 0927
00000010: f859 3f26 0004 4d26 3200 0000 3200 0000
00000020: a281 9c27 8cf3 1f27 7191 8525 3c7e 2a28
00000030: 60f0 a326 a7ad 2926 3200 0000 3200 0000
00000040: 3200 0000 0a14 5525 3200 0000 eeb4 ba26
00000050: ba01 3125 6a62 0427 3200 0000 3200 0000
00000060: 2f2e 2328 7e61 3226 a024 8b26 988d 3f26
00000070: 86fd 7e26 d0dc 8e25 f208 3127 11b3 a026
2.2237914e-15 7e-44 7.192851e-15 1.9090615e-15 6.6388367e-16 7.1129084e-16 7e-44 7e-44
4.3439246e-15 2.219771e-15 2.3170377e-16 9.4642684e-15 1.1375551e-15 5.8868996e-16 7e-44 7e-44
7e-44 1.8481595e-16 7e-44 1.2955384e-15 1.5352888e-16 1.837203e-15 7e-44 7e-44
9.058332e-15 6.188828e-16 9.65499e-16 6.645833e-16 8.846754e-16 2.4782702e-16 2.4568534e-15 1.1150766e-15

square_avg f4 [16]
00000000: 188e df3a b8ab 713b 3d77 403c 3200 0000
00000010: f3ec 803c 92c0 d23b 78d5 3c3c af4e a53a
00000020: d15c b63a c69e 973a 3479 f83c 4b7c 673a
00000030: 25c1 973b b370 d83a 98c9 df3c 1806 3a3b
0.0017055897 0.0036876034 0.011747179 7e-44 0.015737986 0.0064316476 0.011525504 0.001261195
0.001391316 0.0011567704 0.030331232 0.0008830472 0.004631179 0.0016513079 0.027317807 0.002838498

square_avg f4 [32]
00000000: ba80 443c 3200 0000 2d2c 323a a045 603b
00000010: 0097 d43d 6df8 633c 3200 0000 3200 0000
00000020: 5749 1b3c 6cd7 153b 2127 273e 18cd 863a
00000030: 7082 013b 1d7b cd3a 3200 0000 3200 0000
00000040: 3200 0000 3891 5a3e 3200 0000 24e7 b73c
00000050: 1a72 473e df96 333b 3200 0000 3200 0000
00000060: 3085 af3a b08d 203c d211 e13d 5097 1c3c
00000070: 9f62 c83b 4b8d 8b3e faea ea3a 6cea a23a
0.011993581 7e-44 0.0006796744 0.0034221187 0.103803635 0.01391421 7e-44 7e-44
0.009477935 0.0022863997 0.1632352 0.0010284511 0.0019761585 0.0015676949 7e-44 7e-44
7e-44 0.21344459 7e-44 0.022449084 0.1947712 0.0027403159 7e-44 7e-44
0.0013391133 0.009799406 0.10989727 0.00955756 0.006115272 0.27256235 0.0017922812 0.0012429482

square_avg f4 [32]
00000000: b4b0 a53d 3200 0000 9e37 853a f136 483a
00000010: 48f0 6c3c eb93 3a3b 3200 0000 3200 0000
00000020: 9812 f13a b439 233d 72c3 643c 6b4c a03a
00000030: 335a cd3d 99d5 ca3d 3200 0000 3200 0000
00000040: 3200 0000 da2f 803c 3200 0000 9741 983d
00000050: 5c51 1a3c 81c7 843d 3200 0000 3200 0000
00000060: 49d7 2e3b 40e0 563d ac1f 723c a6fb 903a
00000070: 97a0 893d e8f4 303d 32d4 c73d 0da1 3d3d
0.08090344 7e-44 0.001016367 0.00076375814 0.014461584 0.0028469514 7e-44 7e-44
0.0018392382 0.039849952 0.013962613 0.0012229806 0.1002697 0.09904022 7e-44 7e-44
7e-44 0.015647817 7e-44 0.07434385 0.009418812 0.06483365 7e-44 7e-44
0.0026678613 0.052459955 0.014778059 0.0011061325 0.06720083 0.04320231 0.0975727 0.046296168

square_avg f4 [16]
00000000: c0f7 6427 9636 0127 d5c2 3d26 3200 0000
00000010: a828 7c28 6708 8427 4454 3327 21b3 b826
00000020: 8f23 5727 44dd 2f27 009b 0227 3ca2 3f27
00000030: b28c 3427 0b28 bc26 51c8 ad27 bd59 0327
3.1775662e-15 1.7931937e-15 6.5836594e-16 7e-44 1.3997626e-14 3.664647e-15 2.488692e-15 1.2816118e-15
2.985652e-15 2.4406077e-15 1.812515e-15 2.6594522e-15 2.505629e-15 1.3055974e-15 4.823433e-15 1.822855e-15

square_avg f4 [2, 13312]
00000000: 3200 0000 3200 0000 3200 0000 3200 0000
00000010: 3200 0000 3200 0000 3200 0000 3200 0000
00000020: 3200 0000 3200 0000 3200 0000 3200 0000
00000030: 3200 0000 3200 0000 3200 0000 3200 0000
00000040: 3200 0000 3200 0000 3200 0000 3200 0000
00000050: 3200 0000 3200 0000 3200 0000 3200 0000
00000060: 3200 0000 3200 0000 3200 0000 3200 0000
00000070: 3200 0000 3200 0000 3200 0000 3200 0000
00000080: 3200 0000 3200 0000 3200 0000 3200 0000
00000090: 3200 0000 3200 0000 3200 0000 3200 0000
000000a0: 3200 0000 3200 0000 3200 0000 3200 0000
000000b0: 3200 0000 3200 0000 3200 0000 3200 0000
000000c0: 3200 0000 3200 0000 3200 0000 3200 0000
000000d0: 3200 0000 3200 0000 3200 0000 3200 0000
000000e0: 3200 0000 3200 0000 3200 0000 3200 0000
000000f0: 3200 0000 3200 0000 3200 0000 3200 0000
00000100: 3200 0000 3200 0000 3200 0000 3200 0000
00000110: 3200 0000 3200 0000 3200 0000 3200 0000
00000120: 3200 0000 3200 0000 3200 0000 3200 0000
00000130: 3200 0000 3200 0000 3200 0000 3200 0000
00000140: 3200 0000 3200 0000 3200 0000 3200 0000
00000150: 3200 0000 3200 0000 3200 0000 3200 0000
00000160: 3200 0000 3200 0000 3200 0000 3200 0000
00000170: 3200 0000 3200 0000 3200 0000 3200 0000
00000180: 3200 0000 3200 0000 3200 0000 3200 0000
00000190: 3200 0000 3200 0000 3200 0000 3200 0000
000001a0: 3200 0000 3200 0000 3200 0000 3200 0000
000001b0: 3200 0000 3200 0000 3200 0000 3200 0000
000001c0: 3200 0000 3200 0000 3200 0000 3200 0000
000001d0: 3200 0000 3200 0000 3200 0000 3200 0000
000001e0: 3200 0000 3200 0000 3200 0000 3200 0000
000001f0: 3200 0000 3200 0000 3200 0000 3200 0000
00000200: 3200 0000 3200 0000 3200 0000 3200 0000
00000210: 3200 0000 3200 0000 3200 0000 3200 0000
00000220: 3200 0000 3200 0000 3200 0000 3200 0000
00000230: 3200 0000 3200 0000 3200 0000 3200 0000
00000240: 3200 0000 3200 0000 3200 0000 3200 0000
00000250: 3200 0000 3200 0000 3200 0000 3200 0000
00000260: 3200 0000 3200 0000 3200 0000 3200 0000
00000270: 3200 0000 3200 0000 3200 0000 3200 0000
00000280: 3200 0000 3200 0000 3200 0000 3200 0000
00000290: 3200 0000 3200 0000 3200 0000 3200 0000
000002a0: 3200 0000 3200 0000 3200 0000 3200 0000
000002b0: 3200 0000 3200 0000 3200 0000 3200 0000
000002c0: 3200 0000 3200 0000 3200 0000 3200 0000
000002d0: 3200 0000 3200 0000 3200 0000 3200 0000
000002e0: 3200 0000 3200 0000 3200 0000 3200 0000
000002f0: 3200 0000 3200 0000 3200 0000 3200 0000
00000300: 3200 0000 3200 0000 3200 0000 3200 0000
00000310: 3200 0000 3200 0000 3200 0000 3200 0000
00000320: 3200 0000 3200 0000 3200 0000 3200 0000
00000330: 3200 0000 3200 0000 3200 0000 3200 0000
00000340: 3200 0000 3200 0000 3200 0000 3200 0000
00000350: 3200 0000 3200 0000 3200 0000 3200 0000
00000360: 3200 0000 3200 0000 3200 0000 3200 0000
00000370: 3200 0000 3200 0000 3200 0000 3200 0000
00000380: 3200 0000 3200 0000 3200 0000 3200 0000
00000390: 3200 0000 3200 0000 3200 0000 3200 0000
000003a0: 3200 0000 3200 0000 3200 0000 3200 0000
000003b0: 3200 0000 3200 0000 3200 0000 3200 0000
000003c0: 3200 0000 3200 0000 3200 0000 3200 0000
000003d0: 3200 0000 3200 0000 3200 0000 3200 0000
000003e0: 3200 0000 3200 0000 3200 0000 3200 0000
000003f0: 3200 0000 3200 0000 3200 0000 3200 0000
7e-44 7e-44 7e-44 7e-44 7e-44 7e-44 7e-44 7e-44
7e-44 7e-44 7e-44 7e-44 7e-44 7e-44 7e-44 7e-44
7e-44 7e-44 7e-44 7e-44 7e-44 7e-44 7e-44 7e-44
7e-44 7e-44 7e-44 7e-44 7e-44 7e-44 7e-44 7e-44
7e-44 7e-44 7e-44 7e-44 7e-44 7e-44 7e-44 7e-44
7e-44 7e-44 7e-44 7e-44 7e-44 7e-44 7e-44 7e-44
7e-44 7e-44 7e-44 7e-44 7e-44 7e-44 7e-44 7e-44
7e-44 7e-44 7e-44 7e-44 7e-44 7e-44 7e-44 7e-44
7e-44 7e-44 7e-44 7e-44 7e-44 7e-44 7e-44 7e-44
7e-44 7e-44 7e-44 7e-44 7e-44 7e-44 7e-44 7e-44
7e-44 7e-44 7e-44 7e-44 7e-44 7e-44 7e-44 7e-44
7e-44 7e-44 7e-44 7e-44 7e-44 7e-44 7e-44 7e-44
7e-44 7e-44 7e-44 7e-44 7e-44 7e-44 7e-44 7e-44
7e-44 7e-44 7e-44 7e-44 7e-44 7e-44 7e-44 7e-44
7e-44 7e-44 7e-44 7e-44 7e-44 7e-44 7e-44 7e-44
7e-44 7e-44 7e-44 7e-44 7e-44 7e-44 7e-44 7e-44
7e-44 7e-44 7e-44 7e-44 7e-44 7e-44 7e-44 7e-44
7e-44 7e-44 7e-44 7e-44 7e-44 7e-44 7e-44 7e-44
7e-44 7e-44 7e-44 7e-44 7e-44 7e-44 7e-44 7e-44
7e-44 7e-44 7e-44 7e-44 7e-44 7e-44 7e-44 7e-44
7e-44 7e-44 7e-44 7e-44 7e-44 7e-44 7e-44 7e-44
7e-44 7e-44 7e-44 7e-44 7e-44 7e-44 7e-44 7e-44
7e-44 7e-44 7e-44 7e-44 7e-44 7e-44 7e-44 7e-44
7e-44 7e-44 7e-44 7e-44 7e-44 7e-44 7e-44 7e-44
7e-44 7e-44 7e-44 7e-44 7e-44 7e-44 7e-44 7e-44
7e-44 7e-44 7e-44 7e-44 7e-44 7e-44 7e-44 7e-44
7e-44 7e-44 7e-44 7e-44 7e-44 7e-44 7e-44 7e-44
7e-44 7e-44 7e-44 7e-44 7e-44 7e-44 7e-44 7e-44
7e-44 7e-44 7e-44 7e-44 7e-44 7e-44 7e-44 7e-44
7e-44 7e-44 7e-44 7e-44 7e-44 7e-44 7e-44 7e-44
7e-44 7e-44 7e-44 7e-44 7e-44 7e-44 7e-44 7e-44
7e-44 7e-44 7e-44 7e-44 7e-44 7e-44 7e-44 7e-44

square_avg f4 [32]
00000000: 3200 0000 44f7 6d3e ff9e 053e b11a dd3b
00000010: 3200 0000 d257 2e3d 3200 0000 6d14 053e
00000020: 3200 0000 3200 0000 f91a ba3d 3200 0000
00000030: 3200 0000 2c6f 873d b098 433e c2d9 9d3d
00000040: 3200 0000 d096 093d e540 603d 8dd2 463d
00000050: 9c5d 923d 3200 0000 e0cf a33e 7bb4 f53d
00000060: cb62 323e 3200 0000 8e30 3a3e 6537 e63d
00000070: 3200 0000 a487 a13e 92ff 4a3e 4f1e 2a3e
7e-44 0.23238856 0.13048933 0.0067475666 7e-44 0.04256422 7e-44 0.12996073
7e-44 7e-44 0.09087176 7e-44 7e-44 0.06613001 0.19101214 0.0770755
7e-44 0.03359109 0.05474939 0.04854064 0.07146761 7e-44 0.31994534 0.119973145
0.17420499 7e-44 0.18182585 0.112410344 7e-44 0.31548798 0.19824055 0.16613124

square_avg f4 [16]
00000000: 30e6 b239 20a1 5d3a add8 433c 3200 0000
00000010: dd94 853b c887 0f3b 81c9 d33a f3a5 d739
00000020: 5c5c b939 bb17 333a c99b dc3b 1837 cd39
00000030: 2973 823b 2272 273a a8f9 823b 850d af39
0.0003412231 0.00084544905 0.011953515 7e-44 0.004076584 0.0021901 0.0016158075 0.00041131637
0.00035354763 0.0006831844 0.006732438 0.00039141695 0.0039810133 0.00063875515 0.0039970465 0.00033388674

square_avg f4 [2]
00000000: 54d4 013c 8201 973c
0.007924158 0.018433336

square_avg f4 [32]
00000000: 3200 0000 ceb8 7923 e12f 0923 a28c b024
00000010: 3200 0000 1e09 0822 3200 0000 db85 2823
00000020: 3200 0000 3200 0000 5878 1624 3200 0000
00000030: 3200 0000 db2f aa22 c1ef cb22 8c2f 4622
00000040: 3200 0000 a6f3 4b23 589e a522 b014 cb22
00000050: 7635 8022 3200 0000 5d4a 3f23 072b bc23
00000060: 511c 8423 3200 0000 9cff 0e23 1597 6722
00000070: 3200 0000 71d4 ad23 8814 4224 3685 4b23
7e-44 1.3537451e-17 7.436924e-18 7.6566074e-17 7e-44 1.8436264e-18 7e-44 9.135643e-18
7e-44 7e-44 3.2628e-17 7e-44 7e-44 4.612926e-18 5.527711e-18 2.6859175e-18
7e-44 1.1056247e-17 4.4890993e-18 5.5045164e-18 3.4751073e-18 7e-44 1.0369878e-17 2.0401224e-17
1.4323461e-17 7e-44 7.751963e-18 3.138632e-18 7e-44 1.884667e-17 4.2084435e-17 1.10328606e-17

square_avg f4 [32]
00000000: 3200 0000 9ff2 8c3d 1f05 203d 3999 e53a
00000010: 3200 0000 b525 023c 3200 0000 2594 873d
00000020: 3200 0000 3200 0000 5b9d 7a3d 3200 0000
00000030: 3200 0000 f7a3 913c 77de 303d ab13 863c
00000040: 3200 0000 d676 db3b e915 0b3d 7da1 093c
00000050: 3b64 483c 3200 0000 b950 c83d 9dbe 3b3d
00000060: db80 813d 3200 0000 60e6 363d 148b aa3c
00000070: 3200 0000 f822 c23d d105 c33d 88ce 2a3d
7e-44 0.06882214 0.039067384 0.0017516977 7e-44 0.00794356 7e-44 0.06620053
7e-44 7e-44 0.061185222 7e-44 7e-44 0.01777838 0.04318091 0.0163668
7e-44 0.006697516 0.033956442 0.008400318 0.012230928 7e-44 0.097810216 0.04583608
0.06323405 7e-44 0.044653296 0.02081827 7e-44 0.09479326 0.09522594 0.04170087

conv1.weight f4 [16, 4, 5, 5]
00000000: dbd1 acbf cb8b cd3e 3426 37bf 0f7a b3be
00000010: 36b9 abbf b5e2 a2bf ef15 333f eae2 01c0
00000020: f8b2 b0bf 37f9 1540 5b04 f63e 32b8 8d3f
00000030: b5c5 25bf 506e 42bf 6d43 06bf 6737 923f
00000040: 2ac8 4c3f 1f52 6440 da0a 0240 f629 7b3f
00000050: d990 5ebf 8126 163f b7bc 1bbf e0fd a4be
00000060: da72 06c0 8d47 60bf d015 973f 3808 a23d
00000070: 1196 833e 624b 26bf 93f6 99bf 9179 9d3f
00000080: c113 ebbf a807 87bf 7966 5240 77f5 123f
00000090: 86c6 513f bf68 3bbf 96b2 59bf 530b f6bd
000000a0: d617 2f3f 9455 493f c92b 9940 ca37 3840
000000b0: f804 a83f 4402 75bf 8583 123f cf3e 5e3e
000000c0: a5c9 8b3e 1d92 14c0 e7c3 61bf f72c b43f
000000d0: 52c0 643e 5895 943e a511 2cbf 198e 97bf
000000e0: 2565 983f 921d ecbf 2e85 94bf 2251 5840
000000f0: b447 263f 3a35 5d3f 5567 2cbf ebe9 57bf
00000100: 6fbe 14bc 4f9d 3c3f 4b3e 453f 8ba0 9a40
00000110: 1754 3a40 2804 ab3f 65b9 74bf da7d 443f
00000120: 5df0 453e 6a71 693e a145 19c0 cd52 2142
00000130: 0a33 2142 9c80 2142 8dbd 2042 ea30 2142
00000140: 6e8a 2142 273a 2142 d732 2142 8a7e 2142
00000150: d34e 2142 cd8f 2142 bf70 2142 f430 2142
00000160: ec00 2142 cef4 2042 3606 2142 4127 2142
00000170: 5a62 2142 58c7 2042 9f7b 2142 d00e 2142
00000180: 062c 2142 0d5c 2142 cf6c 2142 6c1d 2142
00000190: 3f4b 80bf ae56 1b3f fd66 b23e fa06 ffbe
000001a0: 725b 56be a5aa 16c0 0947 78bf f328 c6bf
000001b0: 79ad 21bf 84ea 36bf b6e0 5bbe eeca 823f
000001c0: b779 7fbf a40c 87bf c70a f53e cbc6 3f3e
000001d0: 4be5 0bbf 2198 3b40 c4de 0840 72fe 87bf
000001e0: 0932 e93e dea8 0e3f f606 b3bf b752 6abf
000001f0: 7497 8f3f 3af0 f1bf 34fb 173f 9863 0f3f
00000200: 02aa b43e 12fd 8a3f 1ade 65c0 ee32 03c0
00000210: ea03 21c0 eb6d 2d3d 6e33 ac3f c00f 17bf
00000220: 6aa2 3d3f 8fac bfbf eee4 8bbf 7c96 e13f
00000230: 87fc 2fbf cccd a9bf 327f 0540 0183 1340
00000240: 8ece fd3d 947f 28bd 1d6c 983e ff0c dbbf
00000250: 7366 8bbf 218c 873f 0b90 efbf ea81 1a3f
00000260: 36b4 fd3e 6965 6e3e ecdb a03f bf52 68c0
00000270: 85ec 03c0 f844 17c0 851e 043e bafe b03f
00000280: e4f6 efbe f102 283f c931 b9bf f070 91bf
00000290: 0d73 e03f 3a40 47bf 9241 adbf bd9a 0140
000002a0: 1048 1140 1703 813d fd41 a8bb b273 353e
000002b0: 830c dabf 8eb6 95bf 739b 883f 75e2 11c2
000002c0: e9a2 11c2 faf1 11c2 cb37 12c2 1af1 11c2
000002d0: a1e2 11c2 3428 12c2 2cc8 11c2 ba10 12c2
000002e0: e7ed 11c2 b7b3 11c2 b7a1 11c2 7cca 11c2
000002f0: 5cd7 11c2 aed4 11c2 1a58 12c2 0866 12c2
00000300: b212 12c2 f80a 12c2 eeec 11c2 2b53 12c2
00000310: 99e4 11c2 550c 12c2 a22a 12c2 8544 12c2
00000320: 79ae d1be a100 9cbf ef18 a23f d530 ee3f
00000330: c48a 853e ddcf 8ac0 e210 eabf 22e1 1bc0
00000340: 9147 57bf 6d10 2d3f d15d 4ec0 d9ea 20c0
00000350: a5da cabd 8a2e 093f 2010 5a3f c791 053f
00000360: 0095 aa3f 363d 1940 2249 3440 11dc 3340
00000370: 0058 c13e ea35 913f 98a0 3e3f f763 2f40
00000380: 3a23 8540 4b59 e13f 4ab7 803f b73d 2640
00000390: 9e44 3240 e70b 9bbf 9a33 d0bf 68b7 25bf
000003a0: c603 17c0 29bd 8abe 9684 87bf eb37 7ec0
000003b0: 8112 2bc0 b068 cdbd 9847 623f 1555 53bd
000003c0: abc2 b9be 970f 26bf 5b9c 543f 0cd2 773f
000003d0: edc0 c13e cde0 443f ee34 06be 8628 ba3d
000003e0: a89c fe3e 29ab 193f 5700 e43f 5eb6 883f
000003f0: 7ae1 1f40 dc3c 2e40 c3c8 82bf f961 eabf
-1.3501543 0.40145716 -0.7154267 -0.3505406 -1.3415897 -1.2725435 0.69955343 -2.0294747
-1.3804617 2.3433359 0.48050198 1.1071837 -0.647548 -0.75949574 -0.52446634 1.1423157
0.79992926 3.5675123 2.0319123 0.981109 -0.8693977 0.586525 -0.6083483 -0.3222494
-2.10076 -0.8760918 1.1803532 0.07911724 0.2570043 -0.64958775 -1.2028373 1.2302724
-1.8365403 -1.0549212 3.2875044 0.574058 0.8194355 -0.73206705 -0.85038126 -0.12013879
0.68395746 0.78646207 4.786595 2.878405 1.3126516 -0.9570658 0.5723193 0.21703647
0.2730228 -2.321418 -0.8818955 1.4076222 0.2233899 0.2902019 -0.67214423 -1.184024
1.1905867 -1.8446524 -1.1603143 3.379952 0.6495316 0.8640934 -0.6734517 -0.84341305
-0.009078606 0.73677534 0.77048177 4.8320975 2.9113824 1.3360643 -0.9559539 0.76754534
0.19329973 0.2279717 -2.3948748 40.33086 40.299843 40.375595 40.18511 40.297768
40.385185 40.30679 40.29965 40.373573 40.326977 40.39043 40.360104 40.297806
40.2509 40.239067 40.256065 40.288334 40.346046 40.19467 40.370724 40.264465
40.29299 40.339893 40.35626 40.278732 -1.0022963 0.6067914 0.348442 -0.4981001
-0.20933321 -2.3541653 -0.9698339 -1.5481247 -0.63155323 -0.7145159 -0.21472439 1.0218179
-0.997951 -1.0550733 0.47859785 0.18728177 -0.5464675 2.9311602 2.1385965 -1.0624526
0.45545986 0.5572642 -1.3986499 -0.9153246 1.1218095 -1.8901436 0.5936768 0.56011343
0.35285956 1.0858481 -3.591681 -2.0499835 -2.515864 0.042341154 1.3453195 -0.5900841
0.7407595 -1.4974536 -1.0929239 1.7624049 -0.687447 -1.3265929 2.0858884 2.3048708
0.12392913 -0.041137293 0.29769984 -1.7113341 -1.089064 1.0589639 -1.8715833 0.60354483
0.49551553 0.23280872 1.2567115 -3.6300504 -2.061311 -2.3635845 0.12902267 1.3827736
-0.4686805 0.6562949 -1.4468318 -1.1362591 1.7535111 -0.77832377 -1.3535635 2.0250695
2.2700233 0.062994175 -0.0051348195 0.17719916 -1.7035068 -1.1696336 1.0672439 -36.47115
-36.409092 -36.486305 -36.554485 -36.48545 -36.471317 -36.53926 -36.44548 -36.516335
-36.482327 -36.425503 -36.407925 -36.44774 -36.46031 -36.457695 -36.586037 -36.59964
-36.518257 -36.51071 -36.481377 -36.58122 -36.47324 -36.512043 -36.541634 -36.566914
-0.40953425 -1.2187692 1.2663859 1.8608652 0.26082432 -4.337874 -1.8286402 -2.435616
-0.84093577 0.6760319 -3.224476 -2.514334 -0.099049844 0.5358664 0.85180855 0.52175564
1.3326721 2.394361 2.8169637 2.8103068 0.3776245 1.1344578 0.74463797 2.7404764
4.16055 1.7605375 1.0055935 2.5975168 2.785438 -1.2113007 -1.6265748 -0.6473298
-2.3596053 -0.27097443 -1.0587337 -3.972163 -2.6730044 -0.10029733 0.88390493 -0.051594812
-0.36281332 -0.6486754 0.8305108 0.9680488 0.37842503 0.7690552 -0.13106129 0.090897605
0.49728894 0.60026795 1.7812604 1.0680654 2.498137 2.7224646 -1.0217518 -1.8311149

conv1.bias f4 [16]
00000000: 9188 dc41 4a49 c0c1 b21c 6541 7649 89bd
00000010: d227 6741 ba58 3741 7f5e 3d41 416d c241
00000020: 62ef fd41 5efc f6c1 f6f8 2e41 fffc 1342
00000030: b20d 5f41 5535 d541 96c2 4541 433b a741
27.566683 -24.035786 14.319506 -0.06703465 14.447222 11.459162 11.83557 24.303347
31.741886 -30.873226 10.9357815 36.997066 13.940844 26.651041 12.360006 20.903936

bn1.weight f4 [16]
00000000: 8699 1440 3cb0 cfbf ed88 503f 1bd1 fb3b
00000010: 2f21 7d3f c688 633f f31a 083f 9ab4 e53f
00000020: 311c 2340 bde1 29c0 07e4 243f 466c 7940
00000030: cc94 5a3f 9b0e ff3f 25d4 a23f 665c ae3f
2.3218703 -1.6225657 0.8145893 0.0076848394 0.9887876 0.88880575 0.5316612 1.794574
2.5485957 -2.654403 0.6441044 3.8972335 0.85383296 1.9926332 1.2720991 1.3621948

bn1.bias f4 [16]
00000000: 7fc2 4cc0 b90c 1dc0 9898 3b3f 0a00 16be
00000010: d431 20bf 5d3e 3b3c 64a3 21be 8687 9dbf
00000020: 2325 1dc0 be05 2dc0 1f96 863f 5919 40c0
00000030: b5f7 d8bd 3058 debf 21bb 53be 36e9 3bc0
-3.199371 -2.4539015 0.73279715 -0.14648452 -0.6257603 0.011428443 -0.15784985 -1.2306983
-2.4553916 -2.7034755 1.0514563 -3.001547 -0.10594121 -1.7370663 -0.20676853 -2.936109

bn1.running_mean f4 [16]
00000000: d491 7c48 c3ba 64c8 97c1 2848 248d 8bc4
00000010: f509 0148 f327 2c48 7bc2 0348 65b4 8148
00000020: aa0a 9548 842b 96c8 6a2c e747 d046 c748
00000030: 8c67 3c48 28c9 8b48 25d1 0f48 041f 3e48
258631.31 -234219.05 172806.36 -1116.4106 132135.83 176287.8 134921.92 265635.16
305237.3 -307548.12 118360.83 408118.5 192926.19 286281.25 147268.58 194684.06

bn1.running_var f4 [16]
00000000: 2123 e447 a345 0848 6b93 3648 1686 d444
00000010: 38b7 2047 b499 9b47 dc95 1f47 d233 0148
00000020: aff0 1a48 db01 2d48 5c9e 9c47 161e 9248
00000030: 5fab 9c47 604e 2448 9ee0 1f48 4098 cc47
116806.26 139542.55 186957.67 1700.1902 41143.22 79667.41 40853.86 132303.28
158658.73 177159.42 80188.72 299248.7 80214.74 168249.5 163714.47 104752.5

conv2.weight f4 [32, 16, 5, 5]
00000000: 72a1 313e 702f 333e f97f 8dbf dd8e 9d3f
00000010: 0ee3 c6be aeeb 233e 2c71 313f 8836 66c0
00000020: fb63 a3bf a488 8f3f 7e4c b9bf ad23 ffbf
00000030: 1457 e4bf fc63 97c0 2974 933f 3a43 d8bf
00000040: 111e 0c40 b207 66bf 86a6 04c0 0d96 3dbf
00000050: 8826 993d f667 ea3f 224d 57bf 90c7 59c0
00000060: 529a 25c0 4979 10bf 9349 aa3d 13cf d63e
00000070: 9395 a8bf 4eff 37bf 11af 403e 12e1 c6be
00000080: 19b2 aa3d f959 36bf 0137 9d3f 12a9 333f
00000090: 8148 053d deaf 8cbf ede1 45c0 4068 d03e
000000a0: 58db b73e 2ee7 aabe 1ec0 1c3e 685a 073f
000000b0: 8bdf 95bf 0ee9 75be 61ae e93f b441 eabf
000000c0: 55a5 26c0 5a51 253f b6a1 1d3d e836 02c0
000000d0: 52f9 07c0 47e8 02c0 49b8 76bf 6c2d 55be
000000e0: 5971 d23f a934 98bf 9060 903e e156 cfbe
000000f0: 8397 e4be 07e6 6b3e 199b 0f3f fb29 a13f
00000100: f669 8a3f 0b7a 183f 16ff ca3f 1138 f43e
00000110: e181 c83f b119 3f40 2351 f23e 205b 3bbe
00000120: d48f 683e 730e 38bd e07c a33d 5056 a03b
00000130: ca89 09bd ade9 813c 18b1 00bd b665 28bd
00000140: 4507 d2bc 7bcc b1bd c2f4 2ebd 9584 a5bd
00000150: 8641 cbbc 1dea fe3c 1559 17bd 7448 aebd
00000160: 9905 10bd 328c 80bd 7d9c dfbc 917a 64bc
00000170: 2ba1 bbbc eda6 21bd cfda 91bb 4e5e 57bd
00000180: 4bfb debc d7b7 41bd 84f7 c5bc 19b5 643b
00000190: 771b 9f3e 428b 98bd ed18 4cbf c406 2d3e
000001a0: 3552 e0be 6671 11c0 00f0 f7be 7b51 40bd
000001b0: 5828 33c0 0577 31bf 0cc0 213f 62db cc3f
000001c0: 9743 35be 6952 3dbf 74c6 803f e4c4 8f3f
000001d0: 35d5 fd3f 3f4f 243f 6265 f5bf ef71 26bf
000001e0: 78b6 eb3f 80b3 633f c00c b6be b6ab fcbf
000001f0: f5e9 37c0 b00d 48c0 0776 a63f 9765 31c0
00000200: b7bb e2bf 1d80 d9bf 295b 1340 1f34 d83f
00000210: 6ec0 0240 b7bd 5c3f ec85 05bd 56eb 883f
00000220: 9e7c aa3d a034 053f b970 96bf e6d3 89c0
00000230: b6b5 cabe c028 873b 5596 b73e baa7 74bf
00000240: 15b2 b9c0 6a27 3abf 1b44 373e aed3 3b40
00000250: 8b65 063f 9da3 1e3f 3b59 68c0 891c 393f
00000260: c11f a23e 6659 50bf b352 19c0 402f 0bbf
00000270: 000f 5b3f 9403 e4bd b9f9 7f3f c31d 4dc0
00000280: 67c2 9c3f cbfe 2f3f 35a8 f73f 7bb1 0b3f
00000290: 9506 e13f 8ec6 ee3e 5b0c a73f 4729 e33e
000002a0: 207b 443f 76e4 bcbf e272 2bc0 fbdd 19c0
000002b0: 8ab1 b03f 0b64 bc3f 9546 82c0 e236 aabf
000002c0: a180 063f b976 bb3e 5e1c 943b e4e3 c2bf
000002d0: 8ba7 64bf 2135 293f 2496 15c0 af68 b83e
000002e0: 5938 68be 24af 68be 6595 e6be 6d7f 9b3e
000002f0: d87c 3cc0 dd5b febf 64cc 85bf 5110 c43e
00000300: f593 b0bc db09 b33e 0723 ad3f eebe 01c0
00000310: aec8 a2be 2c00 9b3f bcac aabf f0ba 4e3f
00000320: 7d22 03c0 3493 5fbf c878 0ebf 547b 43bc
00000330: f845 423e 3dac 67bf 4991 1fc0 1060 cd3f
00000340: f174 ce3f 3064 66be 808a bd3f fddc 5c3f
00000350: d828 9dbe 42f9 54bf 658d 133f 8835 d63f
00000360: 57c4 6840 dc1a e4bf da00 debf 028c 893f
00000370: 59d2 923f 8ac3 a240 1c38 27c0 97a4 3f3f
00000380: 9b2b 0abc 09cd b73f 0b09 bd3e 26c7 39c0
00000390: 575f c1bf 993f e0bf 5b9c 0dc0 b761 e1bf
000003a0: 2e18 d13e 1c19 07bf 20b5 0c3f ea25 06c0
000003b0: 0def 52c0 c257 3f3f 5394 0fc0 1cd5 fc3f
000003c0: 7c89 2540 608a c8bf b979 88bf 3ddf 7ac0
000003d0: 6a71 fc3e f8cc 4740 d70d 1f40 3119 1bc0
000003e0: fa44 6fbf 0fe5 863e d2bd 333f bab8 5a3d
000003f0: 0eac 8b3f 45e6 9d3f 3ea1 043f 0266 80bf
0.17346743 0.17498565 -1.1054679 1.2309223 -0.38845104 0.16007873 0.6931331 -3.5970783
-1.2764887 1.1213574 -1.4476469 -1.9932762 -1.7839074 -4.730955 1.1519824 -1.6895516
2.189335 -0.8985549 -2.0726638 -0.74057084 0.074780524 1.8312976 -0.8410207 -3.4028053
-2.587544 -0.56435066 0.083148144 0.4195486 -1.3170646 -0.7187394 0.18816783 -0.3884359
0.08334751 -0.7123104 1.2282411 0.70179856 0.03253985 -1.099117 -3.0919144 0.40704536
0.35909534 -0.333795 0.15307662 0.52872324 -1.1708845 -0.24014685 1.8256341 -1.8301301
-2.603841 0.6457726 0.038484298 -2.0346012 -2.1245923 -2.045427 -0.96374947 -0.20818108
1.6440841 -1.1891071 0.2819867 -0.4049597 -0.44646844 0.23036967 0.56096035 1.2590936
1.0813587 0.5956122 1.5859096 0.47699025 1.5664636 2.985943 0.47327527 -0.1829648
0.22711116 -0.044935655 0.079828024 0.0048931018 -0.03357867 0.015858496 -0.03141889 -0.041112624
-0.025638232 -0.0868158 -0.042713888 -0.08081929 -0.024811517 0.031117493 -0.03695019 -0.08509913
-0.03516159 -0.0627674 -0.0272963 -0.013945238 -0.022904 -0.039465833 -0.004451133 -0.05258017
-0.027219435 -0.047294464 -0.024165876 0.0034897982 0.31075642 -0.07448436 -0.79725534 0.16897112
-0.4381272 -2.2725463 -0.48425293 -0.046952706 -2.7993374 -0.69322234 0.63183665 1.600445
-0.17701565 -0.7395387 1.0060563 1.1231961 1.9830691 0.6418342 -1.9171565 -0.650176
1.841506 0.8894577 -0.35556602 -1.9739902 -2.8736546 -3.1258354 1.3004769 -2.7718256
-1.7713536 -1.6992222 2.302439 1.6890906 2.042995 0.8622698 -0.03259842 1.0696819
0.0832455 0.52033424 -1.175315 -4.3071165 -0.3959176 0.004124731 0.35856882 -0.9556843
-5.8029885 -0.7271639 0.17897074 2.934795 0.5249869 0.61968404 -3.6304462 0.72309166
0.3166485 -0.8138641 -2.3956726 -0.5436897 0.85569763 -0.11133495 0.9999042 -3.2049415
1.2246827 0.6874816 1.9348208 0.5456769 1.7580134 0.4663586 1.3050646 0.4436743
0.76750374 -1.4757221 -2.678887 -2.4041736 1.3804181 1.4718031 -4.071116 -1.3297999
0.5254002 0.36614016 0.004519983 -1.5225797 -0.8931815 0.66096693 -2.3372889 0.36017367
-0.22677745 -0.22723061 -0.45035854 0.30370656 -2.9451199 -1.9871784 -1.0453 0.38293698
-0.021554926 0.34968457 1.3526314 -2.0272784 -0.3179373 1.2109427 -1.3333964 0.80753994
-2.04898 -0.8733399 -0.5565305 -0.011931259 0.18972003 -0.9049719 -2.4932425 1.6044941
1.6129438 -0.22499156 1.4807892 0.862747 -0.30695224 -0.8319284 0.57637626 1.6735086
3.6369836 -1.7820697 -1.734401 1.0745852 1.1470443 5.0863695 -2.6127996 0.7486052
-0.008433248 1.4359447 0.36920962 -2.90278 -1.510722 -1.7519408 -2.2126682 -1.7607945
0.4083876 -0.5277269 0.54963875 -2.096064 -3.2958405 0.7474328 -2.243428 1.9752536
2.5865164 -1.5667229 -1.0662147 -3.9198754 0.49305278 3.1218853 2.4852197 -2.4234126
-0.93464625 0.26346633 0.7021152 0.053398825 1.0911882 1.2335898 0.51808536 -1.003113

conv2.bias f4 [32]
00000000: 47db 5742 4bfd f23e dabc 1742 b428 7b42
00000010: 7210 1542 ccce a842 2002 3340 4bfa 13bc
00000020: 0ec9 2942 9726 7942 66ce 1f42 931d 1e42
00000030: 73a9 5342 18c9 6d42 7648 5e40 7c2b 923f
00000040: e260 e23c f036 1d42 3259 1a40 27e8 5e42
00000050: b5b0 3942 2ae5 6742 00cc 333e 699f d63f
00000060: 8d42 0642 0645 7042 1703 4642 6ae5 a742
00000070: a569 8942 b4ab e041 13cd 6242 08df 6242
53.964138 0.47458872 37.934425 62.78975 37.26606 84.4039 2.7970047 -0.009031842
42.446342 62.287685 39.95156 39.52888 52.915478 59.44638 3.4731727 1.141952
0.027634088 39.30365 2.411694 55.72671 46.422565 57.973793 0.17558289 1.6767398
33.56499 60.067406 49.503017 83.948074 68.70634 28.08384 56.700268 56.717804

bn2.weight f4 [32]
00000000: 74e3 1440 c661 9a3d 6b2e 0040 eb8e dd3f
00000010: ddb9 4e3f 49d9 0940 0b75 023e 8b5a 853b
00000020: f6db 0640 21db 3340 8e43 163f 58fb f53f
00000030: aeee fc3f 786d fd3f 7c2d 5c3e 0243 603c
00000040: 8890 5b3b cbd6 e83e 8529 273e b46a f13f
00000050: 1006 f83e d3c7 f13f f2c4 da3c d12d 2e3d
00000060: 4ffa e83f 1aa5 9c3f b765 233f cf98 e93f
00000070: b3a8 d73f 4370 d63e 7a96 1540 7467 d63f
2.3263826 0.0753818 2.0028331 1.730924 0.80752355 2.153887 0.12739961 0.0040696315
2.1071754 2.8102496 0.5869683 1.9217329 1.9760339 1.9799032 0.21501726 0.013687851
0.0033502895 0.45476374 0.16324432 1.8860688 0.48442125 1.8889107 0.026705239 0.042524163
1.8201388 1.2237885 0.6382708 1.8249758 1.6848358 0.41882524 2.3373094 1.6750321

bn2.bias f4 [32]
00000000: b580 183f 41bc 83be d498 5dbf f8c8 1abf
00000010: 983d 7abf db31 fbbf 8bf3 bcbe 3730 99bd
00000020: 7832 a7bf ddc9 793f 0b80 73bf 8e06 11bf
00000030: edca d13e b559 cb3e 2f84 debe 5cca e9bd
00000040: 77cc ccbc fc7f 6bbf a306 e8be 75ae 493f
00000050: 084c 96bf 5cd7 0a3f 770d 07be b931 82be
00000060: eb27 ecbe 3c0a 083f 7884 4cbf 2fa6 7abf
00000070: b17a fa3e 4154 18bf 93a7 023f c288 443f
0.5957139 -0.25729564 -0.8656132 -0.60462904 -0.97750235 -1.962459 -0.3690456 -0.074798994
-1.3062277 0.97573644 -0.95117253 -0.56650627 0.40975133 0.3971688 -0.43460223 -0.1141555
-0.02499984 -0.91992164 -0.45317563 0.78781825 -1.1741953 0.5423486 -0.1318873 -0.2542856
-0.46124205 0.53140616 -0.7988963 -0.97909826 0.4892173 -0.5950356 0.5103695 0.76771176

bn2.running_mean f4 [32]
00000000: a3b3 5842 08d6 e4c0 2413 11bf e79a 5542
00000010: 869b 3442 79f9 9b42 a62f 88c1 61fb 44bf
00000020: deb0 b141 68c7 1e42 8beb 5542 fcd5 a741
00000030: 89a6 5142 d04c 6642 2eb4 133f c36d 30c0
00000040: cc19 7ebf 50d7 5542 3c45 80c0 94f2 6f42
00000050: 6616 5a42 c4cf 4042 2e5d a9c0 a974 c2c0
00000060: 0f34 2a41 2ce5 7342 2da9 5642 2909 8c42
00000070: 4467 7642 ba31 5e42 a51b 5842 4e44 6342
54.175426 -7.151127 -0.5666983 53.40127 45.15188 77.98725 -17.023266 -0.76946074
22.21136 39.694733 53.480022 20.979485 52.412632 57.575012 0.5769681 -2.7566993
-0.9925811 53.460266 -4.0084515 59.986893 54.521873 48.202896 -5.2926245 -6.0767407
10.63771 60.9738 53.66521 70.01789 61.600845 55.54856 54.026997 56.816704

bn2.running_var f4 [32]
00000000: 7a79 a144 cd8c e541 c93c 3444 eacd ce43
00000010: 9854 2244 6b1c 1544 b5d1 0543 c01d 7740
00000020: 8a2d 8144 351f a444 f01e 3a44 d826 1044
00000030: 7b7f c144 5a3e d044 7bb9 b642 0da9 fd41
00000040: 2694 0640 3d4d b043 3bbb 5143 71e7 8e44
00000050: e93c 5943 aa75 2d44 f0ac 8d41 ba12 2242
00000060: 7bd4 3d44 6b22 2e44 a5de 8f43 af9c 4f44
00000070: 19d1 2a44 f035 7f44 32e5 6c44 dfed 8b44
1291.7961 28.69375 720.94977 413.6087 649.3218 596.44403 133.81917 3.8611908
1033.4231 1312.9752 744.4834 576.60693 1547.9838 1665.9485 91.36227 31.707544
2.1027923 352.60342 209.73137 1143.2325 217.23793 693.8385 17.709442 40.518288
759.32 696.5378 287.7394 830.4482 683.26715 1020.8428 947.5812 1119.4335
