PER_BAYESIAN_DDQN_ATTACKS/logs/no_concatenate/model/no_concatenate10101010.pth (torch_old, 540937 bytes, 34 tensors)

square_avg f4 [16, 4, 5, 5]
0.00017377928 0.00013824631 0.00016930193 0.00013874922 0.00011000164 0.00013036496 0.00012549806 0.00014338299
0.00016858333 0.0001245514 0.00011107074 0.0001314945 0.0001902666 0.0002061006 0.00017433632 4.279586e-05
3.0904364e-05 7.7830126e-05 8.7666536e-05 0.00010070943 2.8099024e-05 2.4948624e-05 5.417774e-05 0.00016496866
9.60806e-05 0.00018141668 0.00014139034 0.0001687848 0.00014402306 0.00011158631 0.00012897082 0.00012945186
0.0001424247 0.00016961094 0.00013335915 0.00011549674 0.00013269475 0.00019075045 0.00020794102 0.0001762334
4.4316555e-05 3.2846532e-05 7.8630605e-05 9.112104e-05 0.00010262143 2.8948869e-05 2.598895e-05 5.4583423e-05
0.00016802973 9.816642e-05 0.00018144917 0.00014158439 0.00016890143 0.00014417972 0.00011174643 0.00012949639
0.0001295151 0.00014222195 0.00016944295 0.0001333908 0.00011692265 0.0001326319 0.00019058371 0.00020782651
0.00017628081 4.4284167e-05 3.2861553e-05 7.8653866e-05 9.1149115e-05 0.00010264725 2.8974624e-05 2.604605e-05
5.4611366e-05 0.00016805097 9.820841e-05 1.5575062e-10 1.5575224e-10 1.5575348e-10 1.5575441e-10 1.5575062e-10
1.5575223e-10 1.5575383e-10 1.557538e-10 1.5575179e-10 1.5575223e-10 1.5575383e-10 1.557538e-10 1.5575179e-10
1.5575223e-10 1.5575383e-10 1.557538e-10 1.5575179e-10 1.5575223e-10 1.5575383e-10 1.557538e-10 1.5575179e-10
1.557634e-10 1.5575854e-10 1.5576182e-10 1.557615e-10 0.00024894852 0.00023552091 6.268679e-05 9.496976e-05
7.849554e-05 0.00016181442 0.00021912172 9.018954e-05 0.00012687022 6.9712696e-05 0.00013050466 4.970484e-05
0.00011953667 0.00017806693 7.383624e-05 0.00013200814 0.000118191776 0.00011836312 0.00013568657 0.00016437155
0.000102108635 6.980081e-05 0.00011699292 0.00014683072 6.0703736e-05 0.0002474193 0.0002342691 6.315043e-05
9.477686e-05 7.649667e-05 0.00016106924 0.00022014003 9.027155e-05 0.0001274537 7.146679e-05 0.00013013977
4.992215e-05 0.00011935975 0.00017857479 7.256918e-05 0.0001324686 0.0001182544 0.00011798033 0.0001370314
0.00016229172 0.00010270593 7.007965e-05 0.0001167576 0.00014812524 6.118496e-05 0.0002474363 0.00023428127
6.3297965e-05 9.477397e-05 7.6466196e-05 0.00016104506 0.00022015566 9.026253e-05 0.00012745816 7.147493e-05
0.00013010277 4.9933507e-05 0.00011939589 0.00017860266 7.252177e-05 0.0001324741 0.000118267395 0.00011799359
0.00013703342 0.00016228332 0.000102740196 7.0051305e-05 0.000116673655 0.00014810491 6.1137915e-05 1.1690758e-10
1.1690918e-10 1.169112e-10 1.1690936e-10 1.1690758e-10 1.1691122e-10 1.1690938e-10 1.1691088e-10 1.1690725e-10
1.1691122e-10 1.1690938e-10 1.1691088e-10 1.1690725e-10 1.1691122e-10 1.1690938e-10 1.1691088e-10 1.1690725e-10
1.1691101e-10 1.1691041e-10 1.1690968e-10 1.16907e-10 1.169142e-10 1.1691237e-10 1.1690902e-10 1.1691063e-10
1.2935347e-05 2.676862e-05 3.5839985e-05 3.0212346e-05 1.8602062e-05 1.8714964e-05 2.4427502e-05 3.132827e-05
2.7643388e-05 5.019083e-05 1.523936e-05 3.0520598e-05 2.8479679e-05 3.1584183e-05 3.5114914e-05 1.5842892e-05
4.9607774e-05 4.0880972e-05 4.5389555e-05 4.4652836e-05 4.531073e-05 8.294562e-05 7.830056e-05 6.992407e-05
7.182174e-05 1.334251e-05 2.7497366e-05 3.6170244e-05 3.0396226e-05 1.8570778e-05 1.9330686e-05 2.5762689e-05
3.0506468e-05 2.6843996e-05 5.1235842e-05 1.5361844e-05 3.214387e-05 2.8524055e-05 3.125859e-05 3.593366e-05
1.6500955e-05 5.244082e-05 4.201751e-05 4.5764038e-05 4.6189372e-05 4.6046367e-05 8.5064894e-05 7.9252946e-05
7.0229165e-05 7.322828e-05 1.3371647e-05 2.750218e-05 3.6162266e-05 3.0398232e-05 1.8578263e-05 1.9346402e-05
00000000: 8538 3639 36f6 1039 a486 3139 367d 1139
00000010: aeb0 e638 94b2 0839 2198 0339 1459 1639
00000020: bec5 3039 039a 0239 a6ee e838 c9e1 0939
00000030: 4d82 4739 b51c 5839 0dce 3639 b47f 3338
00000040: 4f9f 0138 bb38 a338 9dd9 b738 f733 d338
00000050: 32b6 eb37 c348 d137 e83c 6338 70fb 2c39
00000060: e17e c938 ab3a 3e39 2e42 1439 d3fb 3039
00000070: e504 1739 7203 ea38 573c 0739 78bd 0739
00000080: d757 1539 97d9 3139 53d6 0b39 d736 f238
00000090: fa23 0b39 2f04 4839 be0a 5a39 4bcb 3839
000000a0: 8ae0 3938 b2c4 0938 7ce6 a438 3c18 bf38
000000b0: 7636 d738 39d7 f237 d802 da37 81f0 6438
000000c0: 2331 3039 b2de cd38 6443 3e39 4576 1439
000000d0: 221b 3139 f32e 1739 6859 ea38 6cc9 0739
000000e0: 72ce 0739 6a21 1539 7fac 3139 d2de 0b39
000000f0: 5f34 f538 1b13 0b39 6dd7 4739 01ec 5939
00000100: 05d8 3839 c3bd 3938 d3d4 0938 f9f2 a438
00000110: 4f27 bf38 5344 d738 880e f337 777d da37
00000120: 820e 6538 d736 3039 3df5 cd38 e73f 2b2f
00000130: 5c40 2b2f b540 2b2f f840 2b2f e73f 2b2f
00000140: 5b40 2b2f ce40 2b2f cc40 2b2f 3b40 2b2f
00000150: 5b40 2b2f ce40 2b2f cc40 2b2f 3b40 2b2f
00000160: 5b40 2b2f ce40 2b2f cc40 2b2f 3b40 2b2f
00000170: 5b40 2b2f ce40 2b2f cc40 2b2f 3b40 2b2f
00000180: 8043 2b2f 2242 2b2f 0e43 2b2f f742 2b2f
00000190: 4e85 8239 2af6 7639 b776 8338 802a c738
000001a0: f99d a438 baac 2939 0ac4 6539 2424 bd38
000001b0: 7708 0539 b832 9238 14d8 0839 2a7a 5038
000001c0: c3af fa38 7ab7 3a39 88d8 9a38 aa6b 0a39
000001d0: badd f738 b739 f838 1647 0e39 275b 2c39
000001e0: 2823 d638 0662 9238 185a f538 92f6 1939
000001f0: 249c 7e38 0eb8 8139 22a6 7539 a16f 8438
00000200: f0c2 c638 d66c a038 b2e4 2839 64d5 6639
00000210: 2b50 bd38 18a5 0539 71e0 9538 2176 0839
00000220: 8063 5138 c750 fa38 ce3f 3b39 4830 9838
00000230: 45e7 0a39 59ff f738 356c f738 16b0 0f39
00000240: da2c 2a39 d463 d738 baf7 9238 c2db f438
00000250: 1152 1b39 6d50 8038 57ba 8139 66a9 7539
00000260: d6be 8438 63c1 c638 7a5c a038 34de 2839
00000270: 96d9 6639 544b bd38 4aa6 0539 d0e4 9538
00000280: 326c 0839 b26f 5138 2e64 fa38 4947 3b39
00000290: d416 9838 bfe8 0a39 5306 f838 5473 f738
000002a0: a1b0 0f39 992a 2a39 3976 d738 82e8 9238
000002b0: b1ae f438 9c4c 1b39 2b37 8038 8f8a 002f
000002c0: 028b 002f 948b 002f 0f8b 002f 8f8a 002f
000002d0: 958b 002f 118b 002f 7d8b 002f 778a 002f
000002e0: 958b 002f 118b 002f 7d8b 002f 778a 002f
000002f0: 958b 002f 118b 002f 7d8b 002f 778a 002f
00000300: 868b 002f 5b8b 002f 268b 002f 658a 002f
00000310: 6c8c 002f e88b 002f f78a 002f 6b8b 002f
00000320: e404 5937 2c8d e037 e452 1638 8570 fd37
00000330: a00b 9c37 14fe 9c37 a9e9 cc37 7966 0338
00000340: b9e3 e737 fe83 5238 8eac 7f37 3e03 0038
00000350: a5e7 ee37 4279 0438 5a48 1338 5ae6 8437
00000360: f111 5038 9c77 2b38 aa60 3e38 9e49 3b38
00000370: 070c 3e38 17f3 ad38 4b35 a438 33a4 9238
00000380: 019f 9638 a5d9 5f37 25aa e637 81b5 1738
00000390: 66fb fe37 71c8 9b37 5528 a237 f41c d837
000003a0: 24e8 ff37 0b2f e137 11e6 5638 4fdd 8037
000003b0: 38d2 0638 f146 ef37 a81b 0338 79b7 1638
000003c0: 886b 8a37 e7f3 5b38 f53b 3038 c3f2 3f38
000003d0: 76bb 4138 e921 4138 de64 b238 9a34 a638
000003e0: ff47 9338 2292 9938 c956 6037 7bb4 e637
000003f0: f0ac 1738 b5ff fe37 84d8 9b37 154a a237

square_avg f4 [32, 32, 5, 5]
7e-44 7e-44 7e-44 7e-44 7e-44 7e-44 7e-44 7e-44
7e-44 7e-44 7e-44 7e-44 7e-44 7e-44 7e-44 7e-44
7e-44 7e-44 7e-44 7e-44 7e-44 7e-44 7e-44 7e-44
7e-44 7e-44 7e-44 7e-44 7e-44 7e-44 7e-44 7e-44
7e-44 7e-44 7e-44 7e-44 7e-44 7e-44 7e-44 7e-44
7e-44 7e-44 7e-44 7e-44 7e-44 7e-44 7e-44 7e-44
7e-44 7e-44 7e-44 7e-44 7e-44 7e-44 7e-44 7e-44
7e-44 7e-44 7e-44 7e-44 7e-44 7e-44 7e-44 7e-44
7e-44 7e-44 7e-44 7e-44 7e-44 7e-44 7e-44 7e-44
7e-44 7e-44 7e-44 7e-44 7e-44 7e-44 7e-44 7e-44
7e-44 7e-44 7e-44 7e-44 7e-44 7e-44 7e-44 7e-44
7e-44 7e-44 7e-44 7e-44 7e-44 7e-44 7e-44 7e-44
7e-44 7e-44 7e-44 7e-44 7e-44 7e-44 7e-44 7e-44
7e-44 7e-44 7e-44 7e-44 7e-44 7e-44 7e-44 7e-44
7e-44 7e-44 7e-44 7e-44 7e-44 7e-44 7e-44 7e-44
7e-44 7e-44 7e-44 7e-44 7e-44 7e-44 7e-44 7e-44
7e-44 7e-44 7e-44 7e-44 7e-44 7e-44 7e-44 7e-44
7e-44 7e-44 7e-44 7e-44 7e-44 7e-44 7e-44 7e-44
7e-44 7e-44 7e-44 7e-44 7e-44 7e-44 7e-44 7e-44
7e-44 7e-44 7e-44 7e-44 7e-44 7e-44 7e-44 7e-44
7e-44 7e-44 7e-44 7e-44 7e-44 7e-44 7e-44 7e-44
7e-44 7e-44 7e-44 7e-44 7e-44 7e-44 7e-44 7e-44
7e-44 7e-44 7e-44 7e-44 7e-44 7e-44 7e-44 7e-44
7e-44 7e-44 7e-44 7e-44 7e-44 7e-44 7e-44 7e-44
7e-44 7e-44 7e-44 7e-44 7e-44 7e-44 7e-44 7e-44
7e-44 7e-44 7e-44 7e-44 7e-44 7e-44 7e-44 7e-44
7e-44 7e-44 7e-44 7e-44 7e-44 7e-44 7e-44 7e-44
7e-44 7e-44 7e-44 7e-44 7e-44 7e-44 7e-44 7e-44
7e-44 7e-44 7e-44 7e-44 7e-44 7e-44 7e-44 7e-44
7e-44 7e-44 7e-44 7e-44 7e-44 7e-44 7e-44 7e-44
7e-44 7e-44 7e-44 7e-44 7e-44 7e-44 7e-44 7e-44
7e-44 7e-44 7e-44 7e-44 7e-44 7e-44 7e-44 7e-44
00000000: 3200 0000 3200 0000 3200 0000 3200 0000
00000010: 3200 0000 3200 0000 3200 0000 3200 0000
00000020: 3200 0000 3200 0000 3200 0000 3200 0000
00000030: 3200 0000 3200 0000 3200 0000 3200 0000
00000040: 3200 0000 3200 0000 3200 0000 3200 0000
00000050: 3200 0000 3200 0000 3200 0000 3200 0000
00000060: 3200 0000 3200 0000 3200 0000 3200 0000
00000070: 3200 0000 3200 0000 3200 0000 3200 0000
00000080: 3200 0000 3200 0000 3200 0000 3200 0000
00000090: 3200 0000 3200 0000 3200 0000 3200 0000
000000a0: 3200 0000 3200 0000 3200 0000 3200 0000
000000b0: 3200 0000 3200 0000 3200 0000 3200 0000
000000c0: 3200 0000 3200 0000 3200 0000 3200 0000
000000d0: 3200 0000 3200 0000 3200 0000 3200 0000
000000e0: 3200 0000 3200 0000 3200 0000 3200 0000
000000f0: 3200 0000 3200 0000 3200 0000 3200 0000
00000100: 3200 0000 3200 0000 3200 0000 3200 0000
00000110: 3200 0000 3200 0000 3200 0000 3200 0000
00000120: 3200 0000 3200 0000 3200 0000 3200 0000
00000130: 3200 0000 3200 0000 3200 0000 3200 0000
00000140: 3200 0000 3200 0000 3200 0000 3200 0000
00000150: 3200 0000 3200 0000 3200 0000 3200 0000
00000160: 3200 0000 3200 0000 3200 0000 3200 0000
00000170: 3200 0000 3200 0000 3200 0000 3200 0000
00000180: 3200 0000 3200 0000 3200 0000 3200 0000
00000190: 3200 0000 3200 0000 3200 0000 3200 0000
000001a0: 3200 0000 3200 0000 3200 0000 3200 0000
000001b0: 3200 0000 3200 0000 3200 0000 3200 0000
000001c0: 3200 0000 3200 0000 3200 0000 3200 0000
000001d0: 3200 0000 3200 0000 3200 0000 3200 0000
000001e0: 3200 0000 3200 0000 3200 0000 3200 0000
000001f0: 3200 0000 3200 0000 3200 0000 3200 0000
00000200: 3200 0000 3200 0000 3200 0000 3200 0000
00000210: 3200 0000 3200 0000 3200 0000 3200 0000
00000220: 3200 0000 3200 0000 3200 0000 3200 0000
00000230: 3200 0000 3200 0000 3200 0000 3200 0000
00000240: 3200 0000 3200 0000 3200 0000 3200 0000
00000250: 3200 0000 3200 0000 3200 0000 3200 0000
00000260: 3200 0000 3200 0000 3200 0000 3200 0000
00000270: 3200 0000 3200 0000 3200 0000 3200 0000
00000280: 3200 0000 3200 0000 3200 0000 3200 0000
00000290: 3200 0000 3200 0000 3200 0000 3200 0000
000002a0: 3200 0000 3200 0000 3200 0000 3200 0000
000002b0: 3200 0000 3200 0000 3200 0000 3200 0000
000002c0: 3200 0000 3200 0000 3200 0000 3200 0000
000002d0: 3200 0000 3200 0000 3200 0000 3200 0000
000002e0: 3200 0000 3200 0000 3200 0000 3200 0000
000002f0: 3200 0000 3200 0000 3200 0000 3200 0000
00000300: 3200 0000 3200 0000 3200 0000 3200 0000
00000310: 3200 0000 3200 0000 3200 0000 3200 0000
00000320: 3200 0000 3200 0000 3200 0000 3200 0000
00000330: 3200 0000 3200 0000 3200 0000 3200 0000
00000340: 3200 0000 3200 0000 3200 0000 3200 0000
00000350: 3200 0000 3200 0000 3200 0000 3200 0000
00000360: 3200 0000 3200 0000 3200 0000 3200 0000
00000370: 3200 0000 3200 0000 3200 0000 3200 0000
00000380: 3200 0000 3200 0000 3200 0000 3200 0000
00000390: 3200 0000 3200 0000 3200 0000 3200 0000
000003a0: 3200 0000 3200 0000 3200 0000 3200 0000
000003b0: 3200 0000 3200 0000 3200 0000 3200 0000
000003c0: 3200 0000 3200 0000 3200 0000 3200 0000
000003d0: 3200 0000 3200 0000 3200 0000 3200 0000
000003e0: 3200 0000 3200 0000 3200 0000 3200 0000
000003f0: 3200 0000 3200 0000 3200 0000 3200 0000

square_avg f4 [32]
0.0020430104 0.0016733898 0.27695993 0.029940605 0.005362762 0.0010596167 0.0033179203 0.0006567241
0.00052323315 0.0009418509 0.0019076176 7e-44 0.006146095 0.0018402818 0.0012421386 0.0024065054
0.0025880772 0.12585448 0.31750476 0.0012302457 0.0015706625 0.0020414926 0.0021992566 0.4211919
0.0011010132 0.01807317 8.988803e-05 7e-44 0.0006770212 0.0050919456 0.2659237 0.0037075987
00000000: 07e4 053b a555 db3a b1cd 8d3e 0046 f53c
00000010: 1cba af3b d6e2 8a3a 7771 593b 0228 2c3a
00000020: 9529 093a 8be6 763a 0609 fa3a 3200 0000
00000030: 2f65 c93b 9c35 f13a 41cf a23a 76b6 1d3b
00000040: bb9c 293b ffdf 003e fc8f a23e 3240 a13a
00000050: b0de cd3a 90ca 053b 6721 103b 77a6 d73e
00000060: df4f 903a 2f0e 943c 4582 bc38 3200 0000
00000070: 207a 313a 56da a63b 2727 883e 2ffb 723b

square_avg f4 [16]
2.8002835e-15 1.9679258e-15 9.490795e-16 7.636957e-15 5.075191e-15 2.1922943e-15 2.0746372e-15 4.0063845e-15
1.1122011e-15 2.767398e-15 2.4963122e-15 6.959603e-16 1.9178363e-15 2.6447314e-15 1.4260213e-15 6.6695184e-15
00000000: 1dc8 4927 d3cd 0d27 dac6 8826 3f93 0928
00000010: 60da b627 b1f8 1d27 4d7e 1527 6058 9027
00000020: fa48 a026 7c69 4727 d5e0 3327 ce98 4826
00000030: d631 0a27 af92 3e27 e682 cd26 734b f027

square_avg f4 [32]
7e-44 7e-44 7e-44 0.017672256 7e-44 0.019182859 7e-44 0.00529322
0.012760773 7e-44 0.046047453 0.030593663 0.024729807 7e-44 7e-44 7e-44
0.044861898 7e-44 0.04889038 7e-44 0.0071670576 7e-44 0.047962345 7e-44
0.0020732859 0.017351745 0.028111126 7e-44 7e-44 0.018747877 0.02347255 0.025920559
00000000: 3200 0000 3200 0000 3200 0000 68c5 903c
00000010: 3200 0000 5f25 9d3c 3200 0000 bf72 ad3b
00000020: 9012 513c 3200 0000 419c 3c3d 909f fa3c
00000030: 2a96 ca3c 3200 0000 3200 0000 3200 0000
00000040: 1cc1 373d 3200 0000 4741 483d 3200 0000
00000050: a3d9 ea3b 3200 0000 2a74 443d 3200 0000
00000060: f7df 073b 3f25 8e3c 4e49 e63c 3200 0000
00000070: 3200 0000 2695 993c 8149 c03c 5a57 d43c

square_avg f4 [32]
7e-44 7e-44 7e-44 0.041614175 7e-44 0.14841574 7e-44 0.02557031
0.074903004 7e-44 0.44944993 0.07462378 0.08695651 7e-44 7e-44 7e-44
0.25684854 7e-44 0.12579662 7e-44 0.04867688 7e-44 0.41157424 7e-44
0.02246145 0.11389865 0.13316621 7e-44 7e-44 0.037675295 0.3065277 0.17181955
00000000: 3200 0000 3200 0000 3200 0000 a073 2a3d
00000010: 3200 0000 4cfa 173e 3200 0000 d478 d13c
00000020: bf66 993d 3200 0000 4d1e e63e 5ad4 983d
00000030: 4116 b23d 3200 0000 3200 0000 3200 0000
00000040: a781 833e 3200 0000 d4d0 003e 3200 0000
00000050: 6861 473d 3200 0000 dcb9 d23e 3200 0000
00000060: 1301 b83c b243 e93d b95c 083e 3200 0000
00000070: 3200 0000 6951 1a3d 33f1 9c3e 77f1 2f3e

square_avg f4 [16]
0.004872042 0.00087524747 0.0023844717 0.0016287615 0.002328405 0.0024243349 0.0050634234 0.0020938383
0.0070542684 0.013154308 0.007893832 0.0005041852 0.007367336 0.007046908 0.009978208 0.004756776
00000000: a7a5 9f3b dd70 653a cc44 1c3b 2b7c d53a
00000010: 2798 183b 97e1 1e3b 13eb a53b c738 093b
00000020: 7e27 e73b 2b85 573c 2255 013c 4c2b 043a
00000030: b269 f13b c0e9 e63b a37b 233c bbde 9b3b

square_avg f4 [32]
7e-44 7e-44 7e-44 4.0896954e-17 7e-44 1.3402164e-17 7e-44 2.8989233e-17
7.826299e-18 7e-44 6.6680837e-18 9.461325e-17 1.1122741e-17 7e-44 7e-44 7e-44
2.3323959e-17 7e-44 2.1624395e-17 7e-44 1.4594816e-17 7e-44 1.0855367e-17 7e-44
1.205946e-17 5.8060134e-18 1.5390481e-17 7e-44 7e-44 1.1893796e-16 1.6841824e-17 1.4505474e-17
00000000: 3200 0000 3200 0000 3200 0000 9a9a 3c24
00000010: 3200 0000 ee39 7723 3200 0000 72b0 0524
00000020: a75e 1023 3200 0000 4502 f622 ce29 da24
00000030: a92d 4d23 3200 0000 3200 0000 3200 0000
00000040: 2420 d723 3200 0000 2973 c723 3200 0000
00000050: 099d 8623 3200 0000 053f 4823 3200 0000
00000060: 3175 5e23 3f34 d622 bff3 8d23 3200 0000
00000070: 3200 0000 4a20 0925 a256 9b23 15ca 8523

square_avg f4 [16]
0.0014853486 0.00050141447 0.0004979626 0.00034092972 0.00090527564 0.0009426717 0.0012524041 0.0001821366
0.004801445 0.0013520252 0.005584585 0.00036025266 0.0015931976 0.007446645 0.0026742956 0.00059493806
00000000: 07b0 c23a 5b71 033a b489 023a d0be b239
00000010: 0550 6d3a a01d 773a b527 a43a ecfb 3e39
00000020: 7155 9d3b 7036 b13a e5fe b63b 4be0 bc39
00000030: d7d2 d03a fc02 f43b 3c43 2f3b 9ef5 1b3a

square_avg f4 [32]
8.6966726e-16 9.239739e-16 1.1883099e-16 5.549119e-16 6.360017e-16 7.138115e-16 7.484826e-16 3.0391358e-15
1.0552796e-15 2.6099015e-14 2.189714e-15 7e-44 4.889104e-15 9.523923e-15 7.184334e-16 1.5081711e-15
7.352109e-16 7.5358594e-16 3.3282847e-16 5.2887705e-16 6.4182196e-16 1.8604217e-15 7.980292e-16 2.6577366e-16
6.161977e-16 1.0884098e-15 1.024373e-15 7e-44 1.3966517e-15 1.2335541e-15 4.0943855e-16 4.53344e-16
00000000: 1eaa 7a26 9f28 8526 b800 0925 45f1 1f26
00000010: a450 3726 febd 4d26 45bc 5726 29fe 5a27
00000020: f214 9826 3b14 eb28 18c9 1d27 3200 0000
00000030: 0626 b027 5891 2b28 0713 4f26 b159 d926
00000040: fde8 5326 d434 5926 d0dc bf25 3d70 1826
00000050: 1afe 3826 b90e 0627 2904 6626 4535 9925
00000060: 5d9b 3126 3cdb 9c26 b1a0 9326 3200 0000
00000070: 5a47 c926 1dc6 b126 7706 ec25 e2aa 0226

square_avg f4 [2]
0.013021552 0.0067958613
00000000: 5958 553c d1af de3b

square_avg f4 [32, 16, 5, 5]
2.145769e-05 5.982409e-06 2.7936833e-06 1.2376288e-06 6.664102e-06 1.596876e-05 1.2764755e-05 3.1236302e-06
1.1858453e-06 1.0600732e-05 1.1643524e-05 1.7109252e-05 8.449633e-06 7.5749476e-06 9.534103e-06 1.1858128e-05
1.955723e-05 1.5779224e-05 1.7882678e-05 2.9756822e-05 8.150656e-06 9.955625e-06 1.6988432e-06 1.0838944e-06
5.304103e-06 1.84784e-05 2.3843063e-06 8.072038e-06 1.1589677e-06 1.3893935e-05 8.681289e-06 9.9045055e-06
1.761003e-06 2.6508856e-06 4.60179e-06 3.3460226e-05 4.2403863e-06 4.2455179e-07 3.2917403e-06 7.121652e-06
4.891676e-05 8.3001005e-06 3.3208798e-07 5.9344557e-06 1.2654964e-05 1.1796971e-05 3.320136e-06 1.6256755e-06
2.0147845e-06 1.3861295e-05 3.0227317e-05 2.253936e-07 2.914511e-06 2.8669815e-09 7.777181e-06 1.9197581e-05
1.2324317e-06 6.4395285e-06 9.678662e-07 1.0238039e-05 2.1994038e-05 1.1166161e-08 4.4453623e-07 1.4948334e-08
7.3138694e-06 2.0427311e-05 1.4448417e-06 6.1819884e-07 1.499785e-06 6.2509334e-06 3.630221e-05 2.247913e-08
1.5151276e-06 8.596047e-07 6.866579e-06 2.2389668e-05 1.8138128e-06 3.8186135e-07 1.58711e-05 3.8357266e-06
3.5411023e-05 1.3783494e-05 7.129452e-07 5.462923e-06 1.8819876e-05 5.9625995e-06 2.4206625e-05 2.5893223e-07
2.5499212e-06 5.972232e-06 5.700779e-06 8.9007705e-07 3.6406811e-07 5.3003682e-06 1.0303596e-05 1.3886134e-05
1.7305723e-06 4.2400208e-07 5.43385e-06 8.607323e-06 3.9084258e-05 4.585592e-06 9.049655e-07 4.9945726e-08
9.803591e-06 5.9367554e-05 9.223924e-06 6.0960497e-07 2.128011e-07 1.2862299e-05 9.450625e-06 5.6065204e-07
4.5646732e-07 8.0751896e-08 1.6074224e-05 3.5805192e-06 1.4099149e-07 6.0936145e-07 8.1065525e-07 1.38609885e-05
1.1435349e-05 2.0404427e-06 2.821472e-07 1.0689222e-06 1.0918627e-05 3.0371766e-05 8.6282525e-06 6.408359e-06
1.7058788e-06 1.5780689e-06 3.373444e-05 1.2011219e-05 1.9309068e-06 2.3784862e-07 6.7959663e-06 3.6726644e-05
1.4082405e-05 1.0256593e-06 2.864686e-07 1.1322864e-05 4.7280687e-06 2.1852044e-05 1.6955177e-07 2.8373438e-07
1.619273e-05 2.67645e-06 1.1663948e-05 3.4490606e-07 7.896193e-07 3.1991462e-06 9.523295e-06 1.9068719e-05
3.698365e-06 4.9276473e-06 9.463096e-07 1.6722352e-05 1.2779285e-05 6.583974e-06 2.397511e-06 3.8104117e-06
9.621372e-06 2.1872671e-05 1.9517718e-05 6.237951e-06 9.576933e-06 1.2968618e-05 3.2631153e-05 1.5579353e-05
1.3713079e-05 1.5369256e-05 8.240643e-06 3.5409e-05 4.738866e-06 2.1289702e-06 1.6182015e-06 3.7854743e-06
3.0195617e-06 4.5820445e-07 9.189837e-07 6.6784446e-06 7.255565e-06 9.296054e-06 1.0949416e-06 1.1694282e-06
7.453564e-06 3.096124e-05 1.0231186e-05 1.3747767e-07 9.846054e-07 4.425819e-06 5.209219e-06 1.3482056e-05
1.1400793e-06 3.843983e-07 4.5704064e-06 8.197571e-06 4.9642113e-06 3.329997e-07 1.0486043e-07 3.9178894e-06
1.7313821e-05 1.5054774e-06 4.2154493e-06 8.95427e-06 1.9137515e-05 1.11787285e-05 2.1752587e-07 1.1018567e-06
1.2356575e-05 7.1736067e-06 2.9775223e-05 8.77233e-06 9.784776e-06 1.5217349e-05 2.3553977e-05 2.0293508e-05
1.6723455e-06 1.3654578e-06 5.394872e-06 9.8650535e-06 8.985655e-06 3.547683e-06 5.038983e-06 1.0640021e-05
2.2356244e-05 5.2023347e-06 3.036143e-06 9.79776e-06 1.3905925e-06 9.386586e-06 5.0693693e-06 6.2655777e-06
1.758926e-05 5.441746e-06 7.535576e-06 6.454446e-06 5.441964e-06 1.5051287e-05 4.406968e-06 4.4120848e-06
4.748926e-06 3.123486e-06 1.6500004e-05 3.2802473e-06 3.6943743e-06 6.702981e-06 4.0008517e-06 1.56408e-05
4.3541263e-06 5.0480435e-06 1.7555909e-05 9.819564e-07 1.2856638e-06 9.555203e-06 2.036433e-05 8.637388e-06
00000000: 0a00 b437 81bc c836 1d7b 3b36 9a1c a635
00000010: 339c df36 a7f4 8537 3528 5637 8f9f 5136
00000020: 5629 9f35 ccd9 3137 8e58 4337 d785 8f37
00000030: e6c2 0d37 4e2c fe36 a9f4 1f37 46f2 4637
00000040: d50e a437 a05d 8437 c202 9637 4a9e f937
00000050: cdbe 0837 1507 2737 cf03 e435 547a 9135
00000060: e6f9 b136 1002 9b37 1202 2036 246d 0737
00000070: d48d 9b35 ff19 6937 daa5 1137 872b 2637
00000080: 9a5b ec35 dee5 3136 1369 9a36 a557 0c38
00000090: a448 8e36 f4ed e334 abe7 5c36 86f6 ee36
000000a0: f92b 4d38 a940 0b37 d349 b234 9620 c736
000000b0: a850 5437 9beb 4537 81cf 5e36 c931 da35
000000c0: bc35 0736 cf8d 6837 ab90 fd37 b903 7234
000000d0: eb96 4336 7904 4531 bd7a 0237 7e0a a137
000000e0: 086a a535 2113 d836 a1e7 8135 0bc4 2b37
000000f0: d67f b837 4cd5 3f32 98a8 ee34 bc67 8032
00000100: a969 f536 515b ab37 62ec c135 4df2 2535
00000110: 384c c935 1cbf d136 3443 1838 2118 c132
00000120: 635b cb35 96bf 6635 7767 e636 72d1 bb37
00000130: 2272 f335 a002 cd34 ed22 8537 a4b4 8036
00000140: 4c86 1438 a83f 6737 3961 3f35 274e b736
00000150: 60df 9d37 5712 c836 550f cb37 6003 8b34
00000160: 501f 2b36 1565 c836 5249 bf36 a1ed 6e35
00000170: 2475 c334 d1d9 b136 9cdd 2c37 7ef8 6837
00000180: 0346 e835 67a2 e334 6b54 b636 2c68 1037
00000190: 67ee 2338 efdd 9936 c1ec 7235 e883 5633
000001a0: 1a7a 2437 6d01 7938 74c0 1a37 bca3 2335
000001b0: 527e 6434 27cb 5737 208e 1e37 b77f 1635
000001c0: 6410 f534 d369 ad33 22d7 8637 da48 7036
000001d0: 7263 1734 0093 2335 ce9b 5935 7e8c 6837
000001e0: 73da 3f37 8aee 0836 047a 9734 e377 8f35
000001f0: 252f 3737 dfc6 fe37 10c2 1037 6207 d736
00000200: 8df5 e435 09ce d335 147e 0d38 cb83 4937
00000210: ba94 0136 5563 7f34 e808 e436 ef0a 1a38
00000220: 7843 6c37 63a9 8935 f2cb 9934 55f7 3d37
00000230: cda5 9e36 e84e b737 090e 3634 2854 9834
00000240: 9fd5 8737 109d 3336 46b0 4337 872b b934
00000250: 3af6 5335 eab0 5636 3ec6 1f37 c3f5 9f37
00000260: 6d31 7836 2b58 a536 e705 7e35 fa46 8c37
00000270: 9c66 5637 e8eb dc36 ede4 2036 60b6 7f36
00000280: 7a6b 2137 347b b737 fbb9 a337 974f d136
00000290: 9dac 2037 ca93 5937 6fdd 0838 68b0 8237
000002a0: 3a11 6637 3aed 8037 4b41 0a37 2084 1438
000002b0: 8d02 9f36 6edf 0e36 fb30 d935 f409 7e36
000002c0: ada3 4a36 24ff f534 14b0 7635 6717 e036
000002d0: d474 f336 3ff6 1b37 e8f5 9235 3ff5 9c35
000002e0: a119 fa36 61dc 0138 9ca6 2b37 939d 1334
000002f0: c926 8435 7f81 9436 daca ae36 fd30 6237
00000300: d404 9935 4d5f ce34 7e5b 9936 4d88 0937
00000310: 4092 a636 21c7 b234 a22f e133 6a76 8336
00000320: 263d 9137 cf0f ca35 6f72 8d36 4c3a 1637
00000330: 8089 a037 468c 3b37 0e91 6934 82e3 9335
00000340: 164f 4f37 d0b4 f036 cec5 f937 df2c 1337
00000350: 4b29 2437 044e 7f37 c895 c537 fa3b aa37
00000360: 5b75 e035 c644 b735 9905 b536 1582 2537
00000370: 18c1 1637 bb14 6e36 8914 a936 8b82 3237
00000380: ab89 bb37 b78f ae36 8ac0 4b36 0f61 2437
00000390: 65a4 ba35 147b 1d37 8d19 aa36 e73c d236
000003a0: a68c 9337 3e98 b636 1bda fc36 4593 d836
000003b0: 1d9a b636 c984 7c37 91df 9336 850b 9436
000003c0: f758 9f36 159d 5136 7d69 8a37 3822 5c36
000003d0: deec 7736 2bea e036 0e3f 8636 5d34 8337
000003e0: a919 9236 5d62 a936 0745 9337 c4cb 8335
000003f0: 128f ac35 494f 2037 11d4 aa37 4de9 1037

square_avg f4 [2, 13312]
7e-44 7e-44 7e-44 7e-44 7e-44 7e-44 7e-44 7e-44
7e-44 7e-44 7e-44 7e-44 7e-44 7e-44 7e-44 7e-44
7e-44 7e-44 7e-44 7e-44 7e-44 7e-44 7e-44 7e-44
7e-44 7e-44 7e-44 7e-44 7e-44 7e-44 7e-44 7e-44
7e-44 7e-44 7e-44 7e-44 7e-44 7e-44 7e-44 7e-44
7e-44 7e-44 7e-44 7e-44 7e-44 7e-44 7e-44 7e-44
7e-44 7e-44 7e-44 7e-44 7e-44 7e-44 7e-44 7e-44
7e-44 7e-44 7e-44 7e-44 7e-44 7e-44 7e-44 7e-44
7e-44 7e-44 7e-44 7e-44 7e-44 7e-44 7e-44 7e-44
7e-44 7e-44 7e-44 7e-44 7e-44 7e-44 7e-44 7e-44
7e-44 7e-44 7e-44 7e-44 7e-44 7e-44 7e-44 7e-44
7e-44 7e-44 7e-44 7e-44 7e-44 7e-44 7e-44 7e-44
7e-44 7e-44 7e-44 7e-44 7e-44 7e-44 7e-44 7e-44
7e-44 7e-44 7e-44 7e-44 7e-44 7e-44 7e-44 7e-44
7e-44 7e-44 7e-44 7e-44 7e-44 7e-44 7e-44 7e-44
7e-44 7e-44 7e-44 7e-44 7e-44 7e-44 7e-44 7e-44
7e-44 7e-44 7e-44 7e-44 7e-44 7e-44 7e-44 7e-44
7e-44 7e-44 7e-44 7e-44 7e-44 7e-44 7e-44 7e-44
7e-44 7e-44 7e-44 7e-44 7e-44 7e-44 7e-44 7e-44
7e-44 7e-44 7e-44 7e-44 7e-44 7e-44 7e-44 7e-44
7e-44 7e-44 7e-44 7e-44 7e-44 7e-44 7e-44 7e-44
7e-44 7e-44 7e-44 7e-44 7e-44 7e-44 7e-44 7e-44
7e-44 7e-44 7e-44 7e-44 7e-44 7e-44 7e-44 7e-44
7e-44 7e-44 7e-44 7e-44 7e-44 7e-44 7e-44 7e-44
7e-44 7e-44 7e-44 7e-44 7e-44 7e-44 7e-44 7e-44
7e-44 7e-44 7e-44 7e-44 7e-44 7e-44 7e-44 7e-44
7e-44 7e-44 7e-44 7e-44 7e-44 7e-44 7e-44 7e-44
7e-44 7e-44 7e-44 7e-44 7e-44 7e-44 7e-44 7e-44
7e-44 7e-44 7e-44 7e-44 7e-44 7e-44 7e-44 7e-44
7e-44 7e-44 7e-44 7e-44 7e-44 7e-44 7e-44 7e-44
7e-44 7e-44 7e-44 7e-44 7e-44 7e-44 7e-44 7e-44
7e-44 7e-44 7e-44 7e-44 7e-44 7e-44 7e-44 7e-44
00000000: 3200 0000 3200 0000 3200 0000 3200 0000
00000010: 3200 0000 3200 0000 3200 0000 3200 0000
00000020: 3200 0000 3200 0000 3200 0000 3200 0000
00000030: 3200 0000 3200 0000 3200 0000 3200 0000
00000040: 3200 0000 3200 0000 3200 0000 3200 0000
00000050: 3200 0000 3200 0000 3200 0000 3200 0000
00000060: 3200 0000 3200 0000 3200 0000 3200 0000
00000070: 3200 0000 3200 0000 3200 0000 3200 0000
00000080: 3200 0000 3200 0000 3200 0000 3200 0000
00000090: 3200 0000 3200 0000 3200 0000 3200 0000
000000a0: 3200 0000 3200 0000 3200 0000 3200 0000
000000b0: 3200 0000 3200 0000 3200 0000 3200 0000
000000c0: 3200 0000 3200 0000 3200 0000 3200 0000
000000d0: 3200 0000 3200 0000 3200 0000 3200 0000
000000e0: 3200 0000 3200 0000 3200 0000 3200 0000
000000f0: 3200 0000 3200 0000 3200 0000 3200 0000
00000100: 3200 0000 3200 0000 3200 0000 3200 0000
00000110: 3200 0000 3200 0000 3200 0000 3200 0000
00000120: 3200 0000 3200 0000 3200 0000 3200 0000
00000130: 3200 0000 3200 0000 3200 0000 3200 0000
00000140: 3200 0000 3200 0000 3200 0000 3200 0000
00000150: 3200 0000 3200 0000 3200 0000 3200 0000
00000160: 3200 0000 3200 0000 3200 0000 3200 0000
00000170: 3200 0000 3200 0000 3200 0000 3200 0000
00000180: 3200 0000 3200 0000 3200 0000 3200 0000
00000190: 3200 0000 3200 0000 3200 0000 3200 0000
000001a0: 3200 0000 3200 0000 3200 0000 3200 0000
000001b0: 3200 0000 3200 0000 3200 0000 3200 0000
000001c0: 3200 0000 3200 0000 3200 0000 3200 0000
000001d0: 3200 0000 3200 0000 3200 0000 3200 0000
000001e0: 3200 0000 3200 0000 3200 0000 3200 0000
000001f0: 3200 0000 3200 0000 3200 0000 3200 0000
00000200: 3200 0000 3200 0000 3200 0000 3200 0000
00000210: 3200 0000 3200 0000 3200 0000 3200 0000
00000220: 3200 0000 3200 0000 3200 0000 3200 0000
00000230: 3200 0000 3200 0000 3200 0000 3200 0000
00000240: 3200 0000 3200 0000 3200 0000 3200 0000
00000250: 3200 0000 3200 0000 3200 0000 3200 0000
00000260: 3200 0000 3200 0000 3200 0000 3200 0000
00000270: 3200 0000 3200 0000 3200 0000 3200 0000
00000280: 3200 0000 3200 0000 3200 0000 3200 0000
00000290: 3200 0000 3200 0000 3200 0000 3200 0000
000002a0: 3200 0000 3200 0000 3200 0000 3200 0000
000002b0: 3200 0000 3200 0000 3200 0000 3200 0000
000002c0: 3200 0000 3200 0000 3200 0000 3200 0000
000002d0: 3200 0000 3200 0000 3200 0000 3200 0000
000002e0: 3200 0000 3200 0000 3200 0000 3200 0000
000002f0: 3200 0000 3200 0000 3200 0000 3200 0000
00000300: 3200 0000 3200 0000 3200 0000 3200 0000
00000310: 3200 0000 3200 0000 3200 0000 3200 0000
00000320: 3200 0000 3200 0000 3200 0000 3200 0000
00000330: 3200 0000 3200 0000 3200 0000 3200 0000
00000340: 3200 0000 3200 0000 3200 0000 3200 0000
00000350: 3200 0000 3200 0000 3200 0000 3200 0000
00000360: 3200 0000 3200 0000 3200 0000 3200 0000
00000370: 3200 0000 3200 0000 3200 0000 3200 0000
00000380: 3200 0000 3200 0000 3200 0000 3200 0000
00000390: 3200 0000 3200 0000 3200 0000 3200 0000
000003a0: 3200 0000 3200 0000 3200 0000 3200 0000
000003b0: 3200 0000 3200 0000 3200 0000 3200 0000
000003c0: 3200 0000 3200 0000 3200 0000 3200 0000
000003d0: 3200 0000 3200 0000 3200 0000 3200 0000
000003e0: 3200 0000 3200 0000 3200 0000 3200 0000
000003f0: 3200 0000 3200 0000 3200 0000 3200 0000

square_avg f4 [32]
0.025260432 0.09226215 0.011862653 0.0018832728 0.0003581913 0.05551719 0.08971887 0.05792706
0.0004413057 0.001419146 0.047097165 7e-44 0.00244054 0.023145743 0.04074064 0.0006502503
0.00034547382 0.013407833 0.023451913 0.03322089 0.03172345 0.039106473 0.0004505049 0.043145396
0.08694445 0.008330255 5.1677533e-05 7e-44 0.028426636 0.0008188895 0.015269407 0.021096442
00000000: f7ee ce3c f0f3 bc3d 935b 423c 26d8 f63a
00000010: 9fcb bb39 fe65 633d 87be b73d ed44 6d3d
00000020: 0c5f e739 a302 ba3a f5e8 403d 3200 0000
00000030: 77f1 1f3b 249c bd3c a8df 263d 8f75 2a3a
00000040: b620 b539 87ac 5b3c 3a1e c03c a112 083d
00000050: 73f0 013d 1c2e 203d be31 ec39 3ab9 303d
00000060: ef0f b23d 9f7b 083c 54c0 5838 3200 0000
00000070: fade e83c beaa 563a 892c 7a3c 72d2 ac3c

conv1.weight f4 [16, 4, 5, 5]
-1.0898268 -1.2065521 -0.5825122 -0.09105951 -2.0433757 -1.8332913 -0.5514786 -1.1084888
-0.8231122 -1.7529725 -0.19255759 0.6066881 0.81912655 -0.18504757 -0.2502836 -1.6915663
-2.9780755 -1.1614606 -1.0090241 -1.3358867 0.017495928 0.9831241 1.8970541 1.532575
-0.0518299 0.468181 -0.44399709 -0.44556305 -0.0007538966 -0.86747885 0.83952606 0.71814287
-0.42595103 0.07679354 0.21730782 0.98824036 1.1969943 1.1065528 0.015096921 -0.3514502
-0.72486365 -1.6668861 -0.16117585 -0.7018938 -0.99456275 0.8191666 2.3836586 3.0673196
1.7889676 0.057959653 0.49881834 -0.5176876 -0.46892044 0.15757468 -0.8205357 0.8491168
0.8420463 -0.4849875 0.0002030974 0.19408321 1.1903538 1.2386879 1.1145179 0.04082065
-0.1431709 -0.733149 -1.5955536 -0.060785647 -0.63178825 -1.0453373 0.8993978 2.387152
3.1486754 1.8865366 -0.0026114425 25.122454 25.104239 24.940193 24.993479 24.978598
25.089394 25.031925 25.097624 24.959448 24.91665 25.05464 25.050053 24.973223
24.935566 25.017044 25.093182 25.007664 24.918543 25.039555 25.07475 25.091219
25.117796 24.917578 25.102856 25.04289 -1.3383625 -0.6423005 -0.5208318 0.66077536
-1.3003105 -0.19768372 0.95787096 2.6254752 1.0400472 -0.5932801 -1.1925273 -1.1026853
-0.040425252 0.43339232 0.50572896 0.112965494 2.0297062 -0.2815127 0.7267238 2.4722092
-0.69404346 1.0292463 -0.8463536 -0.6201339 -0.3323192 -1.1446626 -0.21951637 -0.3945562
1.1239281 -0.3215384 0.32585874 1.5145203 3.0230236 1.5995221 0.622548 -1.033339
-0.7711394 0.036248628 0.47709626 0.58761436 0.5366846 2.320674 -0.075298704 1.0189139
2.8295283 -0.58461916 0.95543104 -1.1165061 -0.94370717 -0.5411011 -0.9787748 -0.17883539
-0.61429787 1.1717552 -0.22733372 0.21595031 1.628539 2.8860092 1.5918243 0.6225763
-1.041209 -0.7643717 0.07551295 0.32004285 0.42450175 0.28815016 2.4156322 0.04458431
1.0861572 2.980996 -0.46621817 0.8484928 -1.1093694 -0.9961673 -0.69776607 45.55101
45.654316 45.619804 45.612057 45.640663 45.63967 45.537292 45.520706 45.60065
45.57934 45.525238 45.662914 45.478165 45.624424 45.630527 45.5017 45.4679
45.541298 45.39889 45.453037 45.642838 45.516266 45.523468 45.545547 45.692085
0.43740097 -0.13475436 -1.3350167 -0.20813736 -1.6554357 0.1140584 0.7517145 1.0976075
1.8571763 0.7517022 -0.8193472 0.73015285 0.60137254 0.8708997 -1.6665579 -1.8685101
-0.7814583 -0.4733253 0.0578188 -1.6279091 -0.975223 -0.8675582 -1.2641339 -1.3223207
-0.77481824 -0.071397506 -0.09517207 -0.96268594 0.12805377 -0.5554956 -0.13059719 0.80289555
2.222698 3.4305522 2.0477767 -0.8162396 1.3584958 1.3290797 1.5017278 -1.3671833
0.3365235 1.4372963 1.0269464 1.2514354 -0.87088233 0.56052446 0.6708819 -0.28267068
-0.66293067 -0.6042984 0.100083485 -0.16723065 -0.9643522 0.38406786 -0.6002884 -0.0053129345
00000000: 727f 8bbf 4d70 9abf 851f 15bf 697d babd
00000010: abc6 02c0 4aa9 eabf b42d 0dbf f6e2 8dbf
00000020: 7bb7 52bf 6761 e0bf d12d 45be e94f 1b3f
00000030: 47b2 513f 1c7d 3dbe 2c25 80be 3f85 d8bf
00000040: ca98 3ec0 beaa 94bf b427 81bf 56fe aabf
00000050: 9f53 8f3c 05ae 7b3f abd2 f23f 6b2b c43f
00000060: 974b 54bd 6cb5 ef3e 9653 e3be d720 e4be
00000070: 25a1 45ba 1813 5ebf 2eeb 563f 36d8 373f
00000080: 4116 dabe ee45 9d3d f185 5e3e 52fd 7c3f
00000090: 1c37 993f 86a3 8d3f 1359 773c 48f1 b3be
000000a0: aa90 39bf 865c d5bf 480b 25be 50af 33bf
000000b0: aa9b 7ebf e7b4 513f dd8d 1840 f74e 4440
000000c0: e4fc e43f 1a67 6d3d 1e65 ff3e 2d87 04bf
000000d0: 5716 f0be 425b 213e a10e 52bf b85f 593f
000000e0: 5990 573f 4850 f8be 8bf6 5439 c0bd 463e
000000f0: 835d 983f 538d 9e3f 86a8 8e3f 8e33 273d
00000100: 649b 12be a7af 3bbf 1a3b ccbf 5ffa 78bd
00000110: e0bc 21bf 9dcd 85bf ef3e 663f 19c7 1840
00000120: e683 4940 087a f13f bc24 2bbb c9fa c841
00000130: 7bd5 c841 8485 c741 a5f2 c741 2bd4 c741
00000140: 14b7 c841 6241 c841 efc7 c841 f3ac c741
00000150: 4d55 c741 e76f c841 8266 c841 29c9 c741
00000160: 0a7c c741 e822 c841 d6be c841 b20f c841
00000170: 2d59 c741 0251 c841 1799 c841 d1ba c841
00000180: 3ff1 c841 3357 c741 a6d2 c841 d757 c841
00000190: 764f abbf ce6d 24bf 3c55 05bf 9328 293f
000001a0: 9370 a6bf 9a6d 4abe 0837 753f c907 2840
000001b0: 4420 853f 34e1 17bf bca4 98bf cb24 8dbf
000001c0: f394 25bd 99e5 dd3e 7477 013f 745a e73d
000001d0: b5e6 0140 6f22 90be 920a 3a3f ad38 1e40
000001e0: d5ac 31bf 58be 833f a1aa 58bf 18c1 1ebf
000001f0: be25 aabe 4e84 92bf e6c8 60be 4503 cabe
00000200: e0dc 8f3f aea0 a4be f5d6 a63e cddb c13f
00000210: 3879 4140 24bd cc3f 4e5f 1f3f 7444 84bf
00000220: 6469 45bf 7179 143d f645 f43e e56d 163f
00000230: 2964 093f ec85 1440 3536 9abd c56b 823f
00000240: fe16 3540 9aa9 15bf 2197 743f ace9 8ebf
00000250: cb96 71bf 9a85 0abf fc90 7abf a020 37be
00000260: a042 1dbf 13fc 953f 2cca 68be 1422 5d3e
00000270: f773 d03f 60b4 3840 e6c0 cb3f 2961 1f3f
00000280: 5646 85bf ddad 43bf 89a6 9a3d a8dc a33e
00000290: 4b58 d93e 6b88 933e b899 1a40 0a9e 363d
000002a0: 3307 8b3f a3c8 3e40 26b4 eebe d336 593f
000002b0: d1ff 8dbf d204 7fbf cca0 32bf 3c34 3642
000002c0: 059e 3642 ae7a 3642 bf72 3642 0a90 3642
000002d0: 068f 3642 3026 3642 3415 3642 1167 3642
000002e0: 3f51 3642 d819 3642 d3a6 3642 a4e9 3542
000002f0: 697f 3642 a985 3642 be01 3642 21df 3542
00000300: 4a2a 3642 7798 3542 e9cf 3542 4492 3642
00000310: a810 3642 0818 3642 a42e 3642 b2c4 3642
00000320: 05f3 df3e 0cfd 09be d4e1 aabf f621 55be
00000330: 51e5 d3bf 7397 e93d 5d70 403f 677e 8c3f
00000340: f4b7 ed3f 8e6f 403f bdc0 51bf 4ceb 3a3f
00000350: 8df3 193f 48f3 5e3f c551 d5bf 572b efbf
00000360: a70d 48bf b257 f2be 68d3 6c3d 535f d0bf
00000370: 37a8 79bf 4b18 5ebf 24cf a1bf ce41 a9bf
00000380: 7d5a 46bf db38 92bd 93e9 c2bd 9672 76bf
00000390: 8720 033e f634 0ebf 45bb 05be 908a 4d3f
000003a0: af40 0e40 2b8e 5b40 c60e 0340 14f5 50bf
000003b0: 31e3 ad3f 491f aa3f 9e38 c03f ddff aebf
000003c0: cf4c ac3e 53f9 b73f fb72 833f 092f a03f
000003d0: 25f2 5ebf 887e 0f3f ebbe 2b3f 36ba 90be
000003e0: d3b5 29bf 4db3 1abf 92f8 cc3d 833e 2bbe
000003f0: c9df 76bf 8ba4 c43e 80ac 19bf 2018 aebb

conv1.bias f4 [16]
16.44837 29.341976 20.052801 27.31366 23.96428 27.566647 12.41147 21.60035
11.388475 9.596944 13.834841 35.407692 13.644485 12.576219 11.5810175 15.194741
00000000: 4396 8341 5ebc ea41 236c a041 6082 da41
00000010: d8b6 bf41 7e88 dc41 6295 4641 84cd ac41
00000020: 3237 3641 158d 1941 825b 5d41 7aa1 0d42
00000030: d04f 5a41 3138 4941 d94b 3941 a91d 7341

bn1.weight f4 [16]
0.937508 2.9059083 1.4427074 2.2514007 1.6421349 2.6904185 0.668451 1.6456646
0.57457864 0.63032484 0.6649462 3.6607475 0.8058594 0.68311346 0.6336056 1.0693488
00000000: 8600 703f 67fa 3940 a3aa b83f f316 1040
00000010: 7a31 d23f d12f 2c40 9b1f 2b3f 23a5 d23f
00000020: 9617 133f f85c 213f ea39 2a3f b049 6a40
00000030: cd4c 4e3f 86e0 2e3f fa33 223f 6ce0 883f

bn1.bias f4 [16]
-0.44847897 -2.140263 -1.4023606 -2.5612648 -2.053884 -3.1164014 -0.17433532 -4.2324095
-0.063032165 -1.1581378 -0.101402916 -2.7709875 -0.6728621 0.21128653 -0.19290496 -1.5422231
00000000: 099f e5be 12fa 08c0 8d80 b3bf c3eb 23c0
00000010: d672 03c0 1f73 47c0 f584 32be e66f 87c0
00000020: 0217 81bd dc3d 94bf 55ac cfbd dc57 31c0
00000030: b140 2cbf 7f5b 583e e188 45be 9167 c5bf

bn1.running_mean f4 [16]
159654.88 292668.9 223983.4 255075.3 207118.03 291005.0 147955.38 188449.47
122322.72 106576.734 157433.78 416826.47 135607.17 134712.92 141222.62 141377.47
00000000: b8e9 1b48 9de7 8e48 dabb 5a48 d318 7948
00000010: 8243 4a48 a017 8e48 d87c 1048 5e08 3848
00000020: 5ce9 ee47 5e28 d047 72be 1948 4f87 cb48
00000030: cb6d 0448 3b8e 0348 a8e9 0948 5e10 0a48

bn1.running_var f4 [16]
59518.49 148892.55 109649.58 70286.19 57899.73 241881.42 47514.246 65959.31
53857.027 45023.7 62883.07 338532.1 59067.285 40219.316 70122.43 39581.56
00000000: 7d7e 6847 2367 1148 ca28 d647 1847 8947
00000010: bb2b 6247 5b36 6c48 3f9a 3947 a8d3 8047
00000020: 0761 5247 b3df 2f47 12a3 7547 834c a548
00000030: 49bb 6647 511b 1d47 37f5 8847 8f9d 1a47

conv2.weight f4 [32, 16, 5, 5]
0.7070903 0.079309374 -1.3957461 -2.743213 -0.108491845 -0.6069241 0.41233176 -0.7581678
-3.5105371 -0.19998485 2.0742948 0.22051828 -0.5945229 1.8865967 0.11922987 -1.0401443
-0.3190821 -1.3436649 0.086811386 0.48242143 -0.55696166 0.7573737 -3.052681 -3.485793
0.6060149 -0.9120015 1.2102408 1.5515015 -2.307501 0.67844266 -0.05006018 0.17867598
0.069199145 -1.3004371 -0.41935077 0.6063912 -2.1724358 -4.1750083 -1.4301401 1.5400752
1.7333307 -1.1749307 -3.8119965 1.575438 0.9512213 0.1219384 -0.94741416 0.6053166
0.4803684 1.8699877 -1.0730183 -2.4189858 -1.5011266 -1.7324145 -0.84091264 1.5683744
0.649901 2.151668 -0.77152926 0.79854417 -0.19566154 -4.8978806 -3.9256482 -1.563044
0.07368619 0.72508985 0.5709618 -0.38821322 -0.4498385 0.48738337 0.29005146 -6.513749
1.1382861 -4.3443656 0.37134475 0.2202938 1.1127336 -1.8150152 -0.17376538 0.03801409
-0.7220625 -0.09652641 -0.3046125 0.28419775 2.5117786 -1.8010653 0.34432003 0.43156746
0.566633 -0.49874496 0.71833295 -2.819257 -2.1735752 -0.96726525 0.72078073 0.59892845
-0.00606733 -3.2974586 0.013804398 0.15641198 -1.0216402 -0.13258171 -3.137546 -2.6657357
1.0902632 -1.041023 1.556353 -2.1683106 -0.28869715 1.1685345 0.24631958 -1.9522647
-3.072455 -2.6487997 -0.6388072 0.8217524 -3.5003693 -0.40217534 1.6269313 0.007591492
1.0251629 -1.895853 -6.8998528 -3.536206 1.1492445 -0.391313 0.7787285 -1.5742111
0.5161552 -0.24440613 -0.8158156 -0.18719907 -0.4512991 -2.109997 -0.5271212 -0.63711894
1.0789963 -1.4991975 -2.2354233 0.7197595 0.3565218 1.0681562 -2.5586505 -3.2218437
-0.2673366 -2.0988443 1.5278246 -2.3584294 -0.36870626 -1.2328887 -1.4974208 1.0353123
-1.2874806 -1.8064696 -2.083864 -0.13714318 -0.016344212 0.6843135 0.04117107 -2.4065323
0.30510083 0.8629838 -0.25920507 0.50758684 0.6207486 0.1244029 0.038345154 -1.2303811
-0.24363586 0.5691199 0.3091764 0.5261979 -1.3513557 -1.632235 -0.43889657 -0.85765666
1.7031649 -1.3948925 0.49089482 0.2578122 -1.3380758 1.4526861 -0.3533169 0.3420781
-0.39870697 -0.007113589 2.3527224 -2.2508376 -0.16958596 -0.81346595 -0.78248775 1.4798565
-1.1263882 0.6386484 -0.71963286 -0.022132877 0.32660922 -2.8716009 -4.1186805 0.12955366
-1.2024207 -4.006432 -1.7282203 -1.9162347 -0.066810355 0.38799188 -4.4055915 -2.3719928
0.06851123 0.4048956 0.38361657 0.39689294 -0.24553955 0.3850582 -0.1843344 2.0721772
1.0461806 1.4848139 0.6600211 1.7426642 0.063317694 -0.3831511 -1.2097354 0.79324603
1.135305 -0.4784779 0.5420285 0.8203222 0.31780732 -2.1220405 0.9530658 0.73617965
-0.41486064 0.06673856 -0.83496076 1.5855442 -0.40332362 -0.47630882 1.2711188 1.3257234
-0.36742878 -1.0295889 -0.793624 -0.70295316 -0.13728581 -0.26144636 -0.34051698 -1.5932598
-3.6365306 -0.13179776 -1.1439148 -5.37916 -3.093511 -1.654576 -0.106430404 -0.8833297
00000000: df03 353f f46c a23d cfa7 b2bf cd90 2fc0
00000010: f930 debd 615f 1bbf 261d d33e 4917 42bf
00000020: a4ac 60c0 d4c8 4cbe 3fc1 0440 8bcf 613e
00000030: a732 18bf 007c f13f ca2e f43d 7323 85bf
00000040: bb5e a3be 36fd abbf 2bca b13d f1ff f63e
00000050: 0a95 0ebf 3ee3 413f 205f 43c0 3c17 5fc0
00000060: cb23 1b3f ee78 69bf 2ce9 9a3f 9a97 c63f
00000070: 19ae 13c0 6bae 2d3f e70b 4dbd d6f6 363e
00000080: 48b8 8d3d b974 a6bf 25b5 d6be 743c 1b3f
00000090: 3009 0bc0 ab99 85c0 d50e b7bf 2f21 c53f
000000a0: c8dd dd3f 2164 96bf c0f7 73c0 f4a7 c93f
000000b0: 3d83 733f d7ba f93d bc89 72bf 07f6 1a3f
000000c0: d9f2 f53e c25b ef3f aa58 89bf aad0 1ac0
000000d0: eb24 c0bf c2bf ddbf 0d46 57bf 7ec0 c83f
000000e0: e95f 263f eeb4 0940 f182 45bf 646d 4c3f
000000f0: 805b 48be 70bb 9cc0 d23d 7bc0 d311 c8bf
00000100: c9e8 963d 7d9f 393f 8d2a 123f e2c3 c6be
00000110: 3b51 e6be 508a f93e a081 943e a270 d0c0
00000120: 5cb3 913f 0b05 8bc0 e620 be3e b394 613e
00000130: 0e6e 8e3f 6b52 e8bf 8def 31be aab4 1b3d
00000140: 17d9 38bf a3af c5bd 2bf6 9bbe 5e82 913e
00000150: fbc0 2040 4f89 e6bf b74a b03e 69f6 dc3e
00000160: dc0e 113f 805b ffbe abe4 373f b56e 34c0
00000170: db1b 0bc0 b29e 77bf 1685 383f 6053 193f
00000180: 74d0 c6bb 9009 53c0 d72b 623c 762a 203e
00000190: 1bc5 82bf 80c3 07be 8ecd 48c0 6a9b 2ac0
000001a0: bf8d 8b3f 3e40 85bf 9336 c73f 9ac5 0ac0
000001b0: 1dd0 93be 8a92 953f 333b 7c3e cfe3 f9bf
000001c0: 1aa3 44c0 ef85 29c0 de88 23bf 5e5e 523f
000001d0: 0d06 60c0 ede9 cdbe 493f d03f 0dc2 f83b
000001e0: 8a38 833f 50ab f2bf 98cb dcc0 3351 62c0
000001f0: 721a 933f 2d5a c8be c05a 473f c07f c9bf
00000200: bf22 043f 9a45 7abe 4bd9 50bf 1db1 3fbe
00000210: ad10 e7be 310a 07c0 6af1 06bf 3a1a 23bf
00000220: 8d1c 8a3f b4e5 bfbf 2d11 0fc0 2942 383f
00000230: 068a b63e 58b9 883f eec0 23c0 b032 4ec0
00000240: 58e0 88be 7753 06c0 c28f c33f 82f0 16c0
00000250: 11c7 bcbe 4ccf 9dbf 7cab bfbf 1d85 843f
00000260: 2acc a4bf 653a e7bf 075e 05c0 436f 0cbe
00000270: 4ce4 85bc 2b2f 2f3f ffa2 283d a004 1ac0
00000280: 2d36 9c3e 82ec 5c3f 87b6 84be 36f1 013f
00000290: 61e9 1e3f f3c6 fe3d cf0f 1d3d 217d 9dbf
000002a0: ae7b 79be d7b1 113f 5e4c 9e3e e8b4 063f
000002b0: 39f9 acbf 14ed d0bf 0db7 e0be 638f 5bbf
000002c0: 4f01 da3f d68b b2bf 9156 fb3e f6ff 833e
000002d0: 1146 abbf 9ef1 b93f f4e5 b4be dc24 af3e
000002e0: 5223 ccbe 1c19 e9bb 0193 1640 b90d 10c0
000002f0: f1a7 2dbe 4e3f 50bf 1e51 48bf f06b bd3f
00000300: 7d2d 90bf 767e 233f dc39 38bf 0250 b5bc
00000310: 5339 a73e 4fc8 37c0 3bcc 83c0 b7a9 043e
00000320: ece8 99bf b134 80c0 5336 ddbf 2e47 f5bf
00000330: ded3 88bd dfa6 c63e 9bfa 8cc0 bbce 17c0
00000340: 9e4f 8c3d 7a4e cf3e 6469 c43e 8d35 cb3e
00000350: b86e 7bbe 5926 c53e 28c2 3cbe 8d9e 0440
00000360: 3fe9 853f 620e be3f 25f7 283f 9f0f df3f
00000370: b5ac 813d 622c c4be 9cd8 9abf 2c12 4b3f
00000380: ad51 913f 0efb f4be 61c2 0a3f a300 523f
00000390: a4b7 a23e 83cf 07c0 1ffc 733f 4576 3c3f
000003a0: 9d68 d4be 3aae 883d fdbf 55bf 1df3 ca3f
000003b0: 6f80 cebe c0de f3be 05b4 a23f 4eb1 a93f
000003c0: a01f bcbe 92c9 83bf f12a 4bbf bdf4 33bf
000003d0: a794 0cbe 4cdc 85be 3e58 aebe f0ef cbbf
000003e0: ebbc 68c0 fef5 06be cd6b 92bf 1422 acc0
000003f0: 16fc 45c0 25c9 d3bf 2ff8 d9bd e521 62bf

conv2.bias f4 [32]
39.529854 39.770584 41.93512 84.04144 104.91506 44.951458 51.370644 55.776787
91.0758 48.895462 48.266983 -0.016442472 18.111765 47.665894 43.383198 34.041798
118.35352 35.349457 35.54346 43.492386 46.65671 44.93073 85.81004 50.483498
47.917767 40.071007 152.30292 -0.104918346 33.92868 95.38437 38.547108 36.6745
00000000: 921e 1e42 1415 1f42 90bd 2742 3815 a842
00000010: 83d4 d142 4bce 3342 8a7b 4d42 6e1b 5f42
00000020: cf26 b642 f494 4342 6411 4142 5db2 86bc
00000030: e5e4 9041 e0a9 3e42 6588 2d42 cd2a 0842
00000040: 01b5 ec42 d865 0d42 812c 0e42 34f8 2d42
00000050: 79a0 3a42 11b9 3342 be9e ab42 1aef 4942
00000060: cbab 3f42 b648 2042 8c4d 1843 6edf d6bd
00000070: f8b6 0742 ccc4 be42 3d30 1a42 b0b2 1242

bn2.weight f4 [32]
1.3822892 1.4106643 0.49153543 1.5469799 1.960974 1.3128737 1.4691455 2.8349981
1.9537593 2.84873 2.3264463 0.0011005888 0.8236666 2.8649964 1.216321 1.0197946
2.933122 0.7259902 0.46587116 1.1494251 1.3357071 1.949249 2.3559732 0.42149183
1.5820118 1.0059167 3.5111597 -0.0019162799 1.2557391 2.4094305 0.53702325 0.9835202
00000000: daee b03f a690 b43f 88aa fb3e 7003 c63f
00000010: 3201 fb3f 3f0c a83f f60c bc3f 9c70 3540
00000020: c914 fa3f 9851 3640 7fe4 1440 a241 903a
00000030: d0db 523f 1a5c 3740 68b0 9b3f a188 823f
00000040: 45b8 3b40 7eda 393f aa86 ee3e 5d20 933f
00000050: 73f8 aa3f fe80 f93f 44c8 1640 c7cd d73e
00000060: 5d7f ca3f e1c1 803f d7b6 6040 af2b fbba
00000070: 0fbc a03f 1c34 1a40 5b7a 093f fbc7 7b3f

bn2.bias f4 [32]
0.8998834 0.16471797 -0.5564875 -1.8117651 -2.7615726 0.32435152 0.37032443 0.10858898
-0.64699525 -0.9278307 0.4465472 -0.047184672 -0.17763898 -0.06771276 0.63264245 -0.31616047
-2.2060263 -0.7311739 -0.59286994 0.781404 1.0591983 0.34286615 -0.81878203 -0.62260216
0.476559 -0.5194473 -2.3402472 -0.07111989 0.9955878 -2.2574923 -1.1693343 1.0825993
00000000: c25e 663f d4ab 283e f775 0ebf ebe7 e7bf
00000010: 9bbd 30c0 6711 a63e 2a9b bd3e e663 de3d
00000020: 7ba1 25bf 5086 6dbf d6a1 e43e b744 41bd
00000030: fee6 35be fdac 8abd dbf4 213f c9df a1be
00000040: 892f 0dc0 362e 3bbf 53c6 17bf 180a 483f
00000050: cf93 873f 278c af3e b39b 51bf db62 1fbf
00000060: 8bff f33e 80fa 04bf 9cc6 15c0 4ea7 91bd
00000070: d8de 7e3f c17a 10c0 bfac 95bf 9d92 8a3f

bn2.running_mean f4 [32]
31.499937 32.90437 44.732056 81.161995 101.86026 37.092484 42.829967 48.19713
85.48892 39.701157 38.650246 -0.1465501 13.939953 41.710167 36.7264 27.879484
112.226425 36.55159 40.738377 35.166145 38.709496 38.046745 76.08463 54.136646
39.534363 36.964035 145.11186 -0.2388621 25.081656 90.64381 45.211872 29.420193
00000000: dfff fb41 139e 0342 a0ed 3242 f152 a242
00000010: 74b8 cb42 b45e 1442 e351 2b42 dcc9 4042
00000020: 54fa aa42 fccd 1e42 da99 1a42 3b11 16be
00000030: 0c0a 5f41 36d7 2642 d5e7 1242 2f09 df41
00000040: ee73 e042 d434 1242 19f4 2242 22aa 0c42
00000050: 86d6 1a42 de2f 1842 552b 9842 ed8b 5842
00000060: 3023 1e42 2cdb 1342 a31c 1143 4498 74be
00000070: 3ba7 c841 a149 b542 f5d8 3442 8e5c eb41

bn2.running_var f4 [32]
1582.4825 1203.7887 575.4029 514.0312 368.07217 956.9832 1080.6527 882.6842
446.7726 427.41968 1175.741 2.0203514 423.4556 711.1863 961.8774 556.916
760.4268 479.14224 461.596 1034.3401 1076.2075 890.5336 937.9226 435.63187
1580.696 660.41907 485.72137 1.4641527 1110.3743 430.0886 475.4357 1213.2592
00000000: 71cf c544 3d79 9644 c9d9 0f44 ff81 0044
00000010: 3d09 b843 ed3e 6f44 e314 8744 caab 5c44
00000020: e562 df43 b8b5 d543 b6f7 9244 704d 0140
00000030: 51ba d343 eccb 3144 2778 7044 a03a 0b44
00000040: 511b 3e44 3592 ef43 4acc e643 e24a 8144
00000050: a486 8644 27a2 5e44 0c7b 6a44 e1d0 d943
00000060: 4696 c544 d21a 2544 56dc f243 5b69 bb3f
00000070: facb 8a44 570b d743 c5b7 ed43 4ba8 9744
