PER_BAYESIAN_DDQN_ATTACKS/logs/bayesian/model/bayesian10101010.pth (torch_old, 644192 bytes, 20 tensors)

conv1.weight f4 [16, 4, 5, 5]
-0.0462675 -0.015063725 -0.09709477 0.07784573 0.07876604 0.0012537241 -0.013819948 0.084053405
-0.087624095 0.057148807 0.028716318 -0.009930454 0.04892204 0.07112003 -0.014705524 -0.07100128
-0.05199572 -0.06072854 0.02720999 0.00990212 -0.06736374 -0.0009454638 0.01498048 -0.09454351
-0.019097291 0.02923017 -0.09939215 0.06877548 0.008401409 0.03146059 -0.030716434 0.02351924
-0.052206706 -0.01334177 0.001040861 -0.056304373 0.088094555 0.07484988 -0.06733534 0.040150322
0.096557505 0.07769113 0.08139912 0.0606293 0.039534844 -0.03037133 -0.013520084 -0.01562544
-0.037404418 0.023648247 0.04984828 0.025387011 0.06638337 0.01673653 -0.026082456 -0.016225792
0.020715535 -0.0799071 -0.009579897 0.04780508 0.02605196 0.0642528 -0.08497619 -0.0057771355
0.0029084235 0.02510468 -0.03513308 0.08154077 0.010694526 -0.007950209 0.011099361 0.053736575
-0.0074339285 -0.06333864 0.05614031 -0.099990904 -0.062000763 0.027078696 -0.05348276 -0.08409709
-0.083815634 -0.0151480585 -0.04928243 -0.009209707 -0.082883775 0.09119416 0.05512912 -0.07378776
0.07388636 0.018003382 0.025015183 -0.079103604 -0.09133235 0.052275665 -0.010882579 0.088134356
-0.029755965 -0.088486545 -0.022887684 0.032670908 0.08955961 0.05067963 0.060504176 -0.06922872
0.028144427 0.06186869 0.035418548 -0.014763318 -0.08064562 0.08811695 0.068343826 -0.050029885
0.065771215 0.019270554 -0.002139032 -0.015317902 0.0750344 -0.08667194 0.05511821 0.034927674
-0.041925587 0.024355292 -0.0009018183 0.08642543 -0.025279641 -0.045765307 -0.004669264 -0.06129036
0.018208168 0.05869902 0.019563712 0.08410836 0.022971071 -0.049998105 -0.056241084 0.09781683
0.08649587 0.02241645 -0.023296334 -0.0803648 -0.027829006 -0.027202323 -0.0057802945 -0.07460169
-0.08377655 -0.0761459 0.054922037 0.07542097 0.0976826 0.09290811 0.037070684 -0.092910185
-0.046999704 -0.084508136 0.06422735 -0.08331257 -0.056938577 0.03463783 -0.086721204 0.09881274
-0.052067842 0.016863964 -0.004984878 0.022171736 -0.02137313 -0.03541982 -0.046310306 0.06632397
-0.061233807 -0.055188965 0.055687435 0.07225872 -0.01166594 0.02486159 -0.028129041 0.0811696
-0.08558092 0.013639867 0.028711356 -0.017629169 -0.0060416684 0.04074771 0.021026596 -0.08983789
-0.0541049 -0.005314924 0.019200899 0.015480816 -0.056858815 -0.016824722 0.072426505 0.02405826
-0.08292701 -0.044252586 -0.0873307 0.08683785 0.09010679 -0.0078095347 -0.037741818 0.019027151
0.0014971122 -0.041043233 0.079799004 -0.038354125 0.002090022 0.034821756 0.08650943 0.060159273
0.04767061 0.022919536 -0.012225963 0.0588258 0.054307602 0.09994993 0.09775066 -0.07744068
-0.015447475 -0.060548913 0.07603104 -0.0029624477 -0.08512019 0.0146714 0.055115707 -0.041374147
-0.030227348 -0.06286548 -0.03928783 -0.06790677 -0.021784045 0.08160109 0.029566817 0.08605016
0.07523412 -0.04520135 -0.07083009 0.09753538 -0.07451922 0.011770561 0.045662068 0.02554097
-0.027576782 -0.034651317 0.03591574 -0.04675461 0.029059954 0.041278355 -0.07971382 -0.06382981
0.011954784 0.03537496 0.024431646 -0.052638065 0.046747766 -0.03894596 -0.05415945 -0.0969072
00000000: fd82 3dbd d8cd 76bc 9fd9 c6bd 956d 9f3d
00000010: 1750 a13d 0054 a43a 106d 62bc 3124 ac3d
00000020: 4374 b3bd de14 6a3d 7c3e eb3c 58b3 22bc
00000030: 7a62 483d 61a7 913d 70ef 70bc 1e69 91bd
00000040: 77f9 54bd 7dbe 78bd 7ce7 de3c 803c 223c
00000050: 00f6 89bd 00d9 77ba b070 753c 07a0 c1bd
00000060: ec71 9cbc 1c74 ef3c 1d8e cbbd 29da 8c3d
00000070: 10a6 093c d2dc 003d 08a1 fbbc 6cab c03c
00000080: b3d6 55bd 7097 5abc 806d 883a 6a9f 66bd
00000090: eb6a b43d e54a 993d 1ce7 89bd aa74 243d
000000a0: f1bf c53d 871c 9f3d 95b4 a63d 6e56 783d
000000b0: 4aef 213d 4ccd f8bc 5883 5dbc ec00 80bc
000000c0: 6035 19bd f8b9 c13c b62d 4c3d 6cf8 cf3c
000000d0: 01f4 873d 0c1b 893c e0aa d5bc f4eb 84bc
000000e0: a0b3 a93c 55a6 a3bd 00f5 1cbc 42cf 433d
000000f0: ec6a d53c f996 833d ff07 aebd 204e bdbb
00000100: 409b 3e3b 54a8 cd3c b4e7 0fbd d9fe a63d
00000110: 1838 2f3c 9841 02bc 18da 353c e21a 5c3d
00000120: 5098 f3bb b0b7 81bd 62f3 653d 08c8 ccbd
00000130: 83f4 7dbd 24d4 dd3c bd10 5bbd 183b acbd
00000140: 88a7 abbd 902f 78bc 60dc 49bd 50e4 16bc
00000150: f8be a9bd 01c4 ba3d 12cf 613d 0a1e 97bd
00000160: bb51 973d d47b 933c a4ec cc3c 1201 a2bd
00000170: 750c bbbd 021f 563d d84c 32bc c97f b43d
00000180: c8c2 f3bc 6f38 b5bd f47e bbbc eed1 053d
00000190: 076b b73d 7295 4f3d 3ad3 773d cac7 8dbd
000001a0: 248f e63c 066a 7d3d 0a13 113d d8e1 71bc
000001b0: 8829 a5bd a976 b43d d9f7 8b3d 23ec 4cbd
000001c0: 0fb3 863d 48dd 9d3c 002f 0cbb f0f7 7abc
000001d0: a3ab 993d 0f81 b1bd a2c3 613d 5210 0f3d
000001e0: 2aba 2bbd c084 c73c 0068 6cba d1ff b03d
000001f0: 4017 cfbc 6774 3bbd a000 99bb 9a0b 7bbd
00000200: 4c29 953c 626e 703d 1444 a03c 0141 ac3d
00000210: d42d bc3c d0ca 4cbd 0d5d 66bd 3154 c83d
00000220: bf24 b13d b4a2 b73c f4d7 bebc 4d96 a4bd
00000230: a8f9 e3bc 68d7 debc a068 bdbb c5c8 98bd
00000240: 0a93 abbd 62f2 9bbd eef5 603d 4f76 9a3d
00000250: d10d c83d 9b46 be3d 6ed7 173d b247 bebd
00000260: c382 40bd 9a12 adbd a189 833d c89f aabd
00000270: 6d38 69bd 66e0 0d3d e39a b1bd 555e ca3d
00000280: 1745 55bd 4c26 8a3c 3058 a3bb 80a1 b53c
00000290: b416 afbc 6014 11bd e0af 3dbd ddd4 873d
000002a0: 4dd0 7abd d30d 62bd 8218 643d 61fc 933d
000002b0: 8022 3fbc 88aa cb3c e06e e6bc 3f3c a63d
000002c0: 0d45 afbd c079 5f3c 1434 eb3c 0c6b 90bc
000002d0: 30f9 c5bb 12e7 263d f83f ac3c edfc b7bd
000002e0: 1a9d 5dbd d028 aebb 344b 9d3c 40a3 7d3c
000002f0: cae4 68bd 00d4 89bc 5954 943d d415 c53c
00000300: a3d5 a9bd 3342 35bd 70da b2bd 0bd8 b13d
00000310: e989 b83d 20e7 ffbb 2a97 1abd d4de 9b3c
00000320: c03a c43a f31c 28bd a96d a33d 3719 1dbd
00000330: c0f8 083b 42a1 0e3d db2b b13d 9269 763d
00000340: 4242 433d c0c1 bb3c 684f 48bc 52f3 703d
00000350: a671 5e3d 8db2 cc3d 7f31 c83d 3899 9ebd
00000360: 6817 7dbc 2302 78bd 29b6 9b3d a025 42bb
00000370: 7f53 aebd 5060 703c 02c1 613d f077 29bd
00000380: 589f f7bc 9ebf 80bd 47ec 20bd b412 8bbd
00000390: 7474 b2bc 791e a73d 1c36 f23c 113b b03d
000003a0: 5914 9a3d 0d25 39bd 5e0f 91bd a1c0 c73d
000003b0: 889d 98bd 50d9 403c 2608 3b3d 4c3b d13c
000003c0: b4e8 e1bc 8aee 0dbd 621c 133d c381 3fbd
000003d0: 240f ee3c 7e13 293d 0041 a3bd 34b9 82bd
000003e0: 00de 433c 56e5 103d e024 c83c 039b 57bd
000003f0: 967a 3f3d cd85 1fbd 4dd6 5dbd 4877 c6bd

conv1.bias f4 [16]
-0.09338776 0.029469676 0.054159887 -0.070981465 -0.055785645 0.010744177 -0.017330721 -0.07331677
-0.0612862 0.008025549 0.0067051873 0.075503595 0.010521948 0.046053775 0.06555728 0.08833157
00000000: 1542 bfbd 646a f13c c2d6 5d3d bb5e 91bd
00000010: 7d7f 64bd 5808 303c 28f9 8dbc 1a27 96bd
00000020: 3d07 7bbd 987d 033c 30b7 db3b a1a1 9a3d
00000030: 4064 2c3c e2a2 3c3d e542 863d 2fe7 b43d

bn1.weight f4 [16]
0.52636665 0.46368504 0.06750858 0.6408015 0.23734927 0.4078899 0.7701574 0.47375882
0.6431747 0.6687978 0.27811837 0.7410355 0.7879169 0.38246804 0.5088107 0.8759172
00000000: f7bf 063f 2068 ed3e f041 8a3d 910b 243f
00000010: b00b 733e f2d6 d03e 0929 453f 8490 f23e
00000020: 19a7 243f 5536 2b3f 8865 8e3e 81b4 3d3f
00000030: ecb4 493f dad2 c33e 6b41 023f 1c3c 603f

bn1.bias f4 [16]
0.0 0.0 0.0 0.0 0.0 0.0 0.0 0.0
0.0 0.0 0.0 0.0 0.0 0.0 0.0 0.0
00000000: 0000 0000 0000 0000 0000 0000 0000 0000
00000010: 0000 0000 0000 0000 0000 0000 0000 0000
00000020: 0000 0000 0000 0000 0000 0000 0000 0000
00000030: 0000 0000 0000 0000 0000 0000 0000 0000

bn1.running_mean f4 [16]
-82.08997 8.154904 92.181656 -68.42546 140.86514 -89.738884 -110.71724 -26.005692
38.809994 -56.511944 151.07835 -71.46873 -69.592735 -222.9769 66.26798 19.75479
00000000: 112e a4c2 7d7a 0241 025d b842 d6d9 88c2
00000010: 7add 0c43 4f7a b3c2 3a6f ddc2 a80b d0c1
00000020: 6f3d 1b42 3b0c 62c2 0f14 1743 fdef 8ec2
00000030: 7b2f 8bc2 16fa 5ec3 3589 8442 cf09 9e41

bn1.running_var f4 [16]
52.603725 35.574806 225.66241 42.97468 32.702618 67.51988 76.82657 71.05209
21.68769 360.06784 30.8057 43.441246 104.58345 294.7181 21.903603 53.220108
00000000: 376a 5242 9a4c 0e42 94a9 6143 13e6 2b42
00000010: 7bcf 0242 2e0a 8742 34a7 9942 ac1a 8e42
00000020: 6480 ad41 af08 b443 1372 f641 d6c3 2d42
00000030: ba2a d142 eb5b 9343 943a af41 64e1 5442

conv2.weight f4 [32, 16, 5, 5]
0.04643013 -0.015203983 0.0397248 0.02823836 -0.046590615 0.018351298 -0.03229019 0.04416297
-0.040299725 0.019818459 0.044201594 -0.018966718 0.03171652 -0.047385663 -0.043377347 -0.027736867
0.037924286 0.01210149 -0.0019464567 0.04397582 -0.048741218 0.04164121 -0.007633455 0.029906068
0.024016056 -0.028670091 -0.034529865 -0.0371386 -0.027541792 -0.021424133 -0.017458856 -1.3452023e-05
-0.035240702 0.0013537183 0.044125896 -0.041775607 0.02511352 0.022748966 -0.004203111 -0.034524698
0.04133818 -0.0019684024 0.038501773 -0.028560424 -0.040596653 0.002159603 -0.03835506 -0.022370124
0.0068153255 -0.043523706 -0.003095638 -0.0031304248 0.011464793 -0.009572901 0.020748187 0.011017375
-0.034561884 0.019626323 0.04210681 0.029035185 0.012852889 -0.043185778 0.0132764615 0.020078804
-0.043051876 0.0437128 -0.004534118 0.022853289 -0.0056249313 -0.045451995 -0.027046813 -0.017197985
-0.017103113 -0.03761313 0.042075973 -0.048674386 0.0111621395 0.023497399 0.017784346 -0.036925398
0.032303203 -0.007073395 -0.0085331425 -0.048542053 -0.03341289 0.040176433 -0.026643766 -0.03462193
0.002436906 -0.015432071 0.04953939 0.0049995407 0.010550968 -0.00456208 0.034718495 -0.020698423
-0.02483284 0.040622976 -0.048776325 -0.029912842 0.035568703 -0.0088377 0.02760594 -0.012842141
-0.01585589 -0.021667952 -0.021671856 -0.0026523843 -0.03526327 0.043008182 0.021981914 -0.023306204
0.014055256 -0.04649977 0.042353187 0.016897712 -0.0017432459 0.012498617 0.036023777 0.046052907
0.01545779 -0.03150101 -0.034533598 -0.0064772367 0.032432925 -0.0016878024 0.03402633 -0.031418994
0.029053774 0.029680897 0.00733912 -0.038866945 0.04030716 0.042730723 -0.04650935 -0.008276563
-0.019455219 0.02039997 -0.018359024 0.03924114 -0.03436906 -0.0034533925 0.040910196 0.005923122
0.023068953 0.03579003 0.04341558 -0.045054477 -0.039298605 0.009020716 -0.032888204 0.031894002
0.04286878 -0.045333892 -0.0039954 0.0016528144 -0.031760782 0.04329126 -0.031109447 -0.0112681575
0.030640904 0.00059431046 -0.03280268 0.038163755 -0.024436831 0.010529317 0.04580776 0.03846762
0.024230842 -0.037173033 0.03047705 -0.014991216 0.01614457 0.034323696 -0.0420676 -0.010362379
-0.027416838 -0.021599954 0.04373079 0.020707611 0.0043980367 -0.01855687 0.013058823 -0.019810408
-0.034936506 -0.034621596 0.044597525 -0.013860922 -0.049666572 0.018956695 0.03322996 -0.0146477
0.043939497 -0.022592349 0.01017661 -0.0034471229 0.022760127 0.015136782 0.002580095 -0.019643659
0.041832376 -0.019021595 -0.01729399 0.0118955895 -0.023748595 -0.009212889 -0.020989079 0.042640764
-0.022427177 0.01091022 0.019761015 0.0388127 -0.021178609 -0.022865092 -0.011995275 -0.00014876202
-0.022341734 -0.048862476 0.029315438 -0.03127699 -0.009138323 -0.020365173 0.025094975 0.013433244
0.022595186 0.0071567893 -0.034771193 -0.0035508983 -0.030454088 -0.042192675 0.009547681 0.008784652
-0.04756273 -0.007770993 -0.025148481 -0.017700441 0.028215285 0.033077423 -0.020690149 0.018298622
0.025770802 0.04365861 -0.029460078 -0.010388643 -0.0009045899 0.021890167 0.015744898 0.028600674
0.044180732 0.015746694 -0.04232526 -0.046931334 0.0009850971 0.04454888 -0.038460236 0.03899267
00000000: 852d 3e3d 201a 79bc 79b6 223d 2254 e73c
00000010: cdd5 3ebd 7655 963c b842 04bd 3be4 343d
00000020: 5311 25bd 525a a23c bb0c 353d 1760 9bbc
00000030: 2fe9 013d 7817 42bd 72ac 31bd 6d38 e3bc
00000040: 7f56 1b3d 5445 463c 4020 ffba fd1f 343d
00000050: dfa4 47bd f98f 2a3d 1022 fabb 92fd f43c
00000060: 52bd c43c 8add eabc 306f 0dbd a51e 18bd
00000070: 539f e1bc aa81 afbc e005 8fbc 00b0 61b7
00000080: 8e58 10bd 406f b13a 5bbd 343d e61c 2bbd
00000090: deba cd3c 0a5c ba3c 40ba 89bb c569 0dbd
000000a0: 3952 293d 5000 01bb 09b4 1d3d 8df7 e9bc
000000b0: ad48 26bd 2088 0d3b 321a 1dbd 8d41 b7bc
000000c0: 1853 df3b ea45 32bd 30e0 4abb d027 4dbb
000000d0: d4d6 3b3c a8d7 1cbc 1af8 a93c 3882 343c
000000e0: c390 0dbd 62c7 a03c 3178 2c3d 32db ed3c
000000f0: ec94 523c 92e3 30bd 8485 593c 4e7c a43c
00000100: 2a57 30bd 310c 333d f092 94bb d236 bb3c
00000110: 5851 b8bb df2b 3abd 4791 ddbc cae2 8cbc
00000120: d41b 8cbc 3a10 1abd db57 2c3d cb5e 47bd
00000130: 68e1 363c 9e7d c03c 7ab0 913c 163f 17bd
00000140: 5d50 043d f0c7 e7bb 98ce 0bbc 08d4 46bd
00000150: f4db 08bd 0b90 243d 0744 dabc bacf 0dbd
00000160: 80b4 1f3b ccd6 7cbc d1e9 4a3d 30d3 a33b
00000170: f8dd 2c3c 807d 95bb fb34 0e3d bd8f a9bc
00000180: 3d6e cbbc 4764 263d afc9 47bd c70b f5bc
00000190: 7db0 113d 00cc 10bc da25 e23c d867 52bc
000001a0: 36e4 81bc fd80 b1bc 2d89 b1bc a0d3 2dbb
000001b0: 3870 10bd 5929 303d 6a13 b43c a7ec bebc
000001c0: 0448 663c 8b76 3ebd 897a 2d3d 126d 8a3c
000001d0: a07d e4ba 00c7 4c3c ab8d 133d f9a1 3c3d
000001e0: ac42 7d3c 3407 01bd 1a73 0dbd 003f d4bb
000001f0: 63d8 043d 4039 ddba 315f 0b3d 34b1 00bd
00000200: 2e02 ee3c 5a25 f33c 007d f03b f232 1fbd
00000210: 1f19 253d 6906 2f3d 9780 3ebd 6c9a 07bc
00000220: 8d60 9fbc d61d a73c aa65 96bc 51bb 203d
00000230: 92c6 0cbd 5052 62bb 7391 273d c016 c23b
00000240: 1afb bc3c 9198 123d 89d4 313d 0b8b 38bd
00000250: 93f7 20bd a0cb 133c c8b5 06bd 49a3 023d
00000260: 2d97 2f3d 08b0 39bd d8eb 82bb 40a3 d83a
00000270: 9817 02bd 2d52 313d 3dd9 febc 149e 38bc
00000280: a202 fb3c 80cb 1b3a 1a5c 06bd 9951 1c3d
00000290: c02f c8bc 2883 2c3c eba0 3b3d 3990 1d3d
000002a0: c27f c63c c042 18bd 02ab f93c b89d 75bc
000002b0: 9e41 843c 0197 0c3d 134f 2cbd f8c6 29bc
000002c0: 4799 e0bc 63f2 b0bc 0f1f 333d 02a3 a93c
000002d0: 681d 903b 9404 98bc acf4 553c 7049 a2bc
000002e0: 9519 0fbd 60cf 0dbd e5ab 363d ec18 63bc
000002f0: 2d6f 4bbd 124b 9b3c 231c 083d e8fc 6fbc
00000300: e7f9 333d 9713 b9bc ccbb 263c 20e9 61bb
00000310: 7273 ba3c 4400 783c d016 293b bdeb a0bc
00000320: 6d58 2b3d 2dd3 9bbc 20ac 8dbc b8e5 423c
00000330: 6a8c c2bc a8f1 16bc 4af1 abbc 15a8 2e3d
00000340: 33b9 b7bc c8c0 323c dae1 a13c 11fa 1e3d
00000350: c37e adbc 934f bbbc d487 44bc 00fd 1bb9
00000360: 0306 b7bc 0524 48bd ee26 f03c 4d1c 00bd
00000370: e8b8 15bc ddd4 a6bc fa93 cd3c 1c17 5c3c
00000380: 8a19 b93c 8083 ea3b 3d6c 0ebd 30b6 68bb
00000390: da7a f9bc 3ad2 2cbd e06d 1c3c 80ed 0f3c
000003a0: 23d1 42bd d0a3 febb 3004 cebc 8400 91bc
000003b0: be23 e73c 317c 073d 637e a9bc fee6 953c
000003c0: 4a1d d33c 5fd3 323d 4356 f1bc 2035 2abc
000003d0: 0022 6dba 0253 b33c 72fb 803c f64b ea3c
000003e0: dbf6 343d 36ff 803c 405d 2dbd 123b 40bd
000003f0: 601e 813a e378 363d 7b88 1dbd c7b6 1f3d

conv2.bias f4 [32]
-0.02066791 -0.018556356 -0.017646085 0.032179315 -0.015731655 -0.034081854 0.041374143 0.046476368
-0.03695463 -0.0074619055 -0.011380278 -0.03448354 -0.038300335 0.014604721 0.013912473 -0.014308058
0.012026031 0.029027436 0.015579741 0.026000183 0.04726572 -0.043343443 0.017988566 0.027381826
0.0318078 -0.026827598 -0.0005550869 0.035415385 -0.044190664 0.025389496 0.045969274 -0.034652807
00000000: c04f a9bc 8003 98bc 868e 90bc 75ce 033d
00000010: acdf 80bc 6a99 0bbd ef77 293d 015e 3e3d
00000020: bd5d 17bd 0083 f4bb 5874 3abc 9d3e 0dbd
00000030: d0e0 1cbd a448 6f3c 24f1 633c 586c 6abc
00000040: d408 453c f2ca ed3c 2c42 7f3c 56fe d43c
00000050: b399 413d e588 31bd c25c 933c da4f e03c
00000060: e548 023d 8dc5 dbbc 4083 11ba b90f 113d
00000070: 4501 35bd a2fd cf3c 474a 3c3d 1af0 0dbd

bn2.weight f4 [32]
0.13018954 0.36381948 0.2790556 0.2905504 0.8842457 0.5444769 0.8411666 0.47961128
0.5373547 0.07192218 0.26591963 0.10231197 0.73929775 0.27451462 0.0027961135 0.5081291
0.031956792 0.4609772 0.11757165 0.7641642 0.67527294 0.6125364 0.97933394 0.24336094
0.403494 0.57980835 0.17435938 0.5212069 0.113992214 0.9695218 0.46260673 0.5720583
00000000: 6850 053e 8c46 ba3e 60e0 8e3e 06c3 943e
00000010: ed5d 623f d762 0b3f b256 573f 9c8f f53e
00000020: 1490 093f f04b 933d 9e26 883e f088 d13d
00000030: 9e42 3d3f 2e8d 8c3e 003f 373b c014 023f
00000040: 20e5 023d 3405 ec3e 68c9 f03d 44a0 433f
00000050: b0de 2c3f 2fcf 1c3f a1b5 7a3f 9c33 793e
00000060: c496 ce3e 526e 143f 448b 323e d16d 053f
00000070: c074 e93d 9532 783f cada ec3e 6a72 123f

bn2.bias f4 [32]
0.0 0.0 0.0 0.0 0.0 0.0 0.0 0.0
0.0 0.0 0.0 0.0 0.0 0.0 0.0 0.0
0.0 0.0 0.0 0.0 0.0 0.0 0.0 0.0
0.0 0.0 0.0 0.0 0.0 0.0 0.0 0.0
00000000: 0000 0000 0000 0000 0000 0000 0000 0000
00000010: 0000 0000 0000 0000 0000 0000 0000 0000
00000020: 0000 0000 0000 0000 0000 0000 0000 0000
00000030: 0000 0000 0000 0000 0000 0000 0000 0000
00000040: 0000 0000 0000 0000 0000 0000 0000 0000
00000050: 0000 0000 0000 0000 0000 0000 0000 0000
00000060: 0000 0000 0000 0000 0000 0000 0000 0000
00000070: 0000 0000 0000 0000 0000 0000 0000 0000

bn2.running_mean f4 [32]
0.026905723 0.09796029 -0.053154916 0.14737958 0.03862868 -0.14951833 -0.004938215 0.06772439
-0.016948057 0.024739245 0.11433322 -0.10008922 -0.044894777 0.0082753 -0.030701697 -0.05168441
0.06817082 0.10448066 0.16460912 0.007444893 -0.0041600578 -0.15105963 -0.01027746 -0.04971813
0.08064193 0.027487755 0.052621536 0.0039704056 -0.0589609 0.053258657 0.056397695 -0.08302711
00000000: 6469 dc3c 689f c83d f8b8 59bd acea 163e
00000010: 1b39 1e3d 551b 19be c0d0 a1bb 16b3 8a3d
00000020: a7d6 8abc f5a9 ca3c 8927 ea3d 94fb ccbd
00000030: 96e3 37bd 2095 073c 2082 fbbc 08b3 53bd
00000040: 259d 8b3d f5f9 d53d 4b8f 283e 4af4 f33b
00000050: 1851 88bb 60af 1abe cb62 28bc 3da5 4bbd
00000060: 9927 a53d 002e e13c ae89 573d 2d1a 823b
00000070: fc80 71bd c025 5a3d 4501 673d 1e0a aabd

bn2.running_var f4 [32]
0.073696874 0.1391541 0.025137825 0.044702232 0.029037599 0.20486976 0.042578872 0.07968636
0.03657905 0.05095428 0.133989 0.042371254 0.03903458 0.07413665 0.015198802 0.18876493
0.072534 0.063530564 0.3330462 0.0405522 0.06109975 0.109888464 0.03429895 0.041895755
0.08456605 0.06851531 0.048075844 0.027718049 0.023942646 0.033909965 0.024026973 0.05438442
00000000: 63ee 963d 6a7e 0e3e d7ed cd3c b019 373d
00000010: 42e0 ed3c 61c9 513e 2f67 2e3d 9a32 a33d
00000020: ead3 153d 6fb5 503d 6a34 093e 7b8d 2d3d
00000030: b9e2 1f3d f5d4 973d 6504 793c 984b 413e
00000040: b58c 943d 501c 823d 0885 aa3e 101a 263d
00000050: bb43 7a3d 340d e13d 0e7d 0c3d e29a 2b3d
00000060: f730 ad3d c151 8c3d 2deb 443d f610 e33c
00000070: 5e23 c43c 2de5 0a3d 37d4 c43c 33c2 5e3d

conv3.weight f4 [32, 32, 5, 5]
0.015978828 0.0040058307 0.03110044 0.0076568127 -0.030017808 -0.00094908103 0.029780466 0.024792861
0.021219771 -0.028835312 0.021439202 -0.010204557 -0.029000059 0.014956266 0.03416713 -0.0030953102
-0.010017995 -0.016411789 0.0039664246 0.016110089 0.03388348 0.0017498657 -0.011936676 0.03407931
-0.013215445 0.030871715 0.010227449 0.019887991 -0.014970465 -0.02759702 0.01791519 0.009833921
-0.016078295 -0.020247038 0.023380574 -0.0028198957 -0.016302714 -0.0005175434 -0.027235573 -0.028645452
0.009569481 1.4156103e-05 0.023655396 0.035096083 0.0013604201 0.010595709 -0.029544255 0.0038781948
0.014310621 0.031570252 0.025497973 -0.012267495 0.01642247 -0.012498256 -0.033289466 -6.429851e-05
0.03201298 0.016924229 -0.032551058 -0.02715742 -0.0009884015 -0.019498853 0.0097828545 0.005664028
0.016701061 0.024510209 -0.030177006 0.0011382774 0.014603727 0.0024580732 -0.021298898 0.021733336
0.014239658 -0.021891728 0.029468913 -0.020839704 0.021554034 -0.010550924 -0.016862297 0.02671802
0.019289114 -0.013599554 -0.032635976 0.01955133 0.03385165 -0.00416206 -0.030240955 -0.009054892
0.025065899 -0.008375304 -0.0030807331 -0.008642351 0.013269886 0.03263202 -0.027722824 0.022731315
-0.016802011 -0.004540868 -0.0031513572 -0.0330823 -0.027513903 0.019759923 0.014958158 -0.026907746
0.0022195205 -0.0058411155 -0.016562326 0.031410743 -0.008387994 0.025575578 0.0046462268 -0.027448153
-0.0047789086 -0.006903531 0.03353421 0.007918239 0.00040202588 -0.032361448 0.012932703 0.006704621
-0.010623882 0.0045248345 -0.024614865 0.026347052 0.025856879 -0.033741623 -0.025922745 0.0056087375
0.02883875 -0.002959177 0.0026240014 0.013766754 -0.01409773 -0.017935803 0.028704088 -0.014776636
0.026992075 0.020315804 0.015282139 0.012822513 -0.013493368 0.027773988 0.027780663 -0.000812009
0.019787543 0.014068674 0.027869944 0.0045241527 0.011643011 -0.010948673 -0.03334945 -0.02754528
-0.029847566 -0.03223604 -0.0068582576 -0.024642518 0.0006745048 -0.024971588 -0.025553273 0.006206002
-0.01909048 -0.034243297 0.03318156 0.0024691075 0.017555553 0.024761412 0.03464366 -0.020404361
-0.00783279 -0.02942248 0.02427844 -0.01731787 0.0012269914 0.023723543 0.0064016096 0.026763782
0.033192795 0.023206238 0.024530798 0.014837723 0.017998967 0.023452397 0.033530604 -0.0009682067
-0.027441505 -0.027225588 0.012458365 0.022686817 0.0074116886 0.029023323 0.017519042 -0.021726679
0.034615923 0.030304965 0.032934587 0.013152473 0.0063230097 -0.023933493 -0.025853792 0.022097174
-0.02011941 0.01380951 -0.022251256 0.009741791 -0.024958204 0.021607451 -0.0320868 -0.018538574
0.021971919 -0.021102019 0.0040792376 -0.024606146 -0.007339498 0.019603401 -0.035204656 0.0264012
-0.03316557 -0.013594214 -0.031572796 -0.0004728511 -0.029337268 -0.0077731553 0.02698632 0.008856125
-0.0054336693 -0.035254013 -0.032837838 0.025487535 0.034063812 0.008945163 -0.034146115 -0.009756194
-0.011928679 0.0009318553 0.0036335476 0.005383812 0.0024953932 0.0005826503 -0.011448737 -0.016623707
0.0033043884 0.027940962 -0.01298322 -0.0084864795 -0.021884115 -0.017322335 -0.02005364 0.0069842525
-0.018501692 0.005118329 0.018848285 -0.027095629 -0.0005006157 0.0015941747 0.010238506 -0.012314063
00000000: 08e6 823c 5843 833b 5ac6 fe3c 00e6 fa3b
00000010: e8e7 f5bc c0cb 78ba 2af6 f33c 661a cb3c
00000020: 16d5 ad3c 0838 ecbc 44a1 af3c 0431 27bc
00000030: 8891 edbc 200b 753c d5f2 0b3d b0da 4abb
00000040: 8422 24bc 0472 86bc c8f8 813b 4ef9 833c
00000050: 67c9 0a3d c05b e53a 0c92 43bc bf96 0b3d
00000060: 9885 58bc aee6 fc3c 0891 273c 24ec a23c
00000070: ae46 75bc 2513 e2bc e0c2 923c 741e 213c
00000080: a1b6 83bc 1edd a5bc 9e88 bf3c 00ce 38bb
00000090: 458d 85bc c0ab 07ba 231d dfbc dea9 eabc
000000a0: 50c9 1c3c 0080 6d37 f6c8 c13c e9c0 0f3d
000000b0: 2050 b23a a099 2d3c cb06 f2bc 5029 7e3b
000000c0: 1877 6a3c cf4f 013d 20e1 d03c 9afd 48bc
000000d0: 6a88 863c 7cc5 4cbc 895a 08bd 00d8 86b8
000000e0: 0b20 033d aea4 8a3c 4254 05bd 3d79 debc
000000f0: 408d 81ba 0fbc 9fbc 4448 203c 5099 b93b
00000100: aad0 883c a2c9 c83c c535 f7bc 4032 953a
00000110: 7844 6f3c a017 213b 077b aebc 1c0a b23c
00000120: 744d 693c 4856 b3bc ca68 f13c 07b8 aabc
00000130: 1692 b03c c8dd 2cbc cd22 8abc c0df da3c
00000140: 3404 9e3c aad0 5ebc 4dad 05bd 1c2a a03c
00000150: 07a8 0a3d e461 88bb e1bb f7bc f85a 14bc
00000160: 0057 cd3c 9238 09bc 20e6 49bb a698 0dbc
00000170: f069 593c 27a9 053d fa1a e3bc 0637 ba3c
00000180: 5fa4 89bc 90cb 94bb 0087 4ebb 4e81 07bd
00000190: d664 e1bc 90df a13c 1013 753c a26d dcbc
000001a0: 6075 113b d466 bfbb b7ad 87bc 8da8 003d
000001b0: cc6d 09bc e083 d13c 603f 983b f3da e0bc
000001c0: 6498 9cbb 0437 e2bb 2b5b 093d 80bb 013c
000001d0: 00c7 d239 708d 04bd b0e3 533c 70b2 db3b
000001e0: ca0f 2ebc 1045 943b 1da5 c9bc c6d5 d73c
000001f0: ced1 d33c a834 0abd f05b d4bc 80c9 b73b
00000200: 3e3f ec3c c0ee 41bb 70f7 2b3b f48d 613c
00000210: 2afa 66bc 1bee 92bc d624 eb3c b419 72bc
00000220: 7c1e dd3c 546d a63c f061 7a3c 8415 523c
00000230: 4a13 5dbc 4686 e33c 4694 e33c 00dd 54ba
00000240: 7c19 a23c 4c80 663c 824f e43c 583f 943b
00000250: 54c2 3e3c 1062 33bc 6f99 08bd a4a6 e1bc
00000260: e282 f4bc f009 04bd 3cbb e0bb 1bdf c9bc
00000270: 40d1 303a 3791 ccbc 1955 d1bc b85b cb3b
00000280: a363 9cbc b342 0cbd 63e9 073d c0d0 213b
00000290: aad0 8f3c 72d8 ca3c 83e6 0d3d 0c27 a7bc
000002a0: 1a55 00bc 6a07 f1bc 94e3 c63c 35de 8dbc
000002b0: 00d3 a03a e057 c23c 98c4 d13b b83f db3c
000002c0: 2bf5 073d 021b be3c d0f4 c83c ec19 733c
000002d0: 9272 933c 3e1f c03c 6357 093d 40cf 7dba
000002e0: 02cd e0bc 3208 dfbc 2c1e 4c3c b4d9 b93c
000002f0: c0dd f23b 52c2 ed3c 1884 8f3c 26fc b1bc
00000300: 6dc9 0d3d 1e42 f83c 6be6 063d 787d 573c
00000310: 4031 cf3b 2c10 c4bc 55cb d3bc 2205 b53c
00000320: 76d1 a4bc 4841 623c 4448 b6bc 089c 1f3c
00000330: 2675 ccbc 1c02 b13c 736d 03bd 35de 97bc
00000340: 74fe b33c 24de acbc 20ab 853b d492 c9bc
00000350: 2c80 f0bb 5097 a03c c232 10bd 5447 d83c
00000360: 9fd8 07bd 44ba 5ebc 7a52 01bd 00e9 f7b9
00000370: b654 f0bc f4b5 febb 6a12 dd3c 4819 113c
00000380: ec0c b2bb 8366 10bd f880 06bd 3ccb d03c
00000390: 7f86 0b3d bc8e 123c ccdc 0bbd 72d8 1fbc
000003a0: 8270 43bc c047 743a d020 6e3b b06a b03b
000003b0: c089 233b 00bd 183a 7c93 3bbc 712e 88bc
000003c0: 708e 583b 72e4 e43c 92b7 54bc e00a 0bbc
000003d0: 5146 b3bc 92e7 8dbc 8847 a4bc 28dc e43b
000003e0: dc90 97bc a8b7 a73b b867 9a3c a7f7 ddbc
000003f0: c03b 03ba a0f3 d03a 68bf 273c ecc0 49bc

conv3.bias f4 [32]
0.0041324347 -0.030424012 -0.028618395 -0.021885073 0.004487328 0.0017011091 -0.01914972 0.021117765
-0.026473276 0.024887703 0.017092202 0.00084957853 0.00508881 -0.023262179 -0.014632283 0.010373596
0.0039494 -0.019088583 0.032567363 -0.009521542 0.00091679767 0.0006861836 -0.013201907 0.033947412
0.010087948 -0.00905117 0.02507699 0.013352461 0.028022338 0.03520466 -0.024707127 -0.013325473
00000000: 6069 873b c73b f9bc 2071 eabc 5348 b3bc
00000010: 700a 933b c0f7 de3a e0df 9cbc 2aff ac3c
00000020: 7cde d8bc 4ce1 cb3c f204 8c3c 40b6 5e3a
00000030: 08c0 a63b 5390 bebc 3ebc 6fbc 04f6 293c
00000040: f869 813b a95f 9cbc 5b65 053d 3e00 1cbc
00000050: 4055 703a 00e1 333a d04c 58bc 710c 0b3d
00000060: ec47 253c 5c4b 14bc 426e cd3c 48c4 5a3c
00000070: 1a8f e53c c332 103d 9a66 cabc 1653 5abc

bn3.weight f4 [32]
0.43724298 0.46593273 0.37650377 0.62090045 0.05537772 0.9241731 0.31176066 0.95373166
0.8424228 0.74877894 0.8980098 0.84404033 0.63934815 0.5431083 0.25447112 0.24590367
0.2921586 0.12160438 0.14647973 0.82108533 0.10613841 0.9278465 0.9828377 0.75573766
0.65539664 0.46220613 0.794351 0.09098834 0.9199496 0.118492186 0.77149284 0.6535703
00000000: 50de df3e bc8e ee3e 1ac5 c03e 55f3 1e3f
00000010: c0d3 623d 9c96 6c3f 189f 9f3e c227 743f
00000020: 05a9 573f faaf 3f3f f8e3 653f 0713 583f
00000030: 52ac 233f 2509 0b3f 0a4a 823e 2cce 7b3e
00000040: d095 953e b80b f93d c8fe 153e a632 523f
00000050: 185f d93d 5987 6d3f 409b 7b3f 0678 413f
00000060: 13c8 273f 48a6 ec3e 965a 4b3f 1858 ba3d
00000070: d181 6b3f 08ac f23d 8e80 453f 6250 273f

bn3.bias f4 [32]
0.0 0.0 0.0 0.0 0.0 0.0 0.0 0.0
0.0 0.0 0.0 0.0 0.0 0.0 0.0 0.0
0.0 0.0 0.0 0.0 0.0 0.0 0.0 0.0
0.0 0.0 0.0 0.0 0.0 0.0 0.0 0.0
00000000: 0000 0000 0000 0000 0000 0000 0000 0000
00000010: 0000 0000 0000 0000 0000 0000 0000 0000
00000020: 0000 0000 0000 0000 0000 0000 0000 0000
00000030: 0000 0000 0000 0000 0000 0000 0000 0000
00000040: 0000 0000 0000 0000 0000 0000 0000 0000
00000050: 0000 0000 0000 0000 0000 0000 0000 0000
00000060: 0000 0000 0000 0000 0000 0000 0000 0000
00000070: 0000 0000 0000 0000 0000 0000 0000 0000

bn3.running_mean f4 [32]
0.012438861 -0.05677685 -0.047491595 0.018229406 0.115979366 -0.101138756 -0.020328242 -0.017206006
-0.1774325 0.026610171 -0.0559217 0.019760229 -0.010336689 -0.17191961 -0.05387527 -0.023828423
-0.045971014 -0.05578416 -0.019585066 -0.10011031 -0.019766599 -0.07317095 -0.08809795 0.047443673
-0.06617621 0.039910063 -0.033002034 -0.050262813 0.018073838 -0.046236373 0.0072499933 0.07765656
00000000: 5dcc 4b3c d88e 68bd 8c86 42bd d655 953c
00000010: 9786 ed3d d621 cfbd 6a87 a6bc 9cf3 8cbc
00000020: deb0 35be 93fd d93c 270e 65bd 34e0 a13c
00000030: 375b 29bc b20b 30be 51ac 5cbd d333 c3bc
00000040: 1a4c 3cbd ee7d 64bd dc70 a0bc a206 cdbd
00000050: 90ed a1bc a7da 95bd b36c b4bd 4c54 423d
00000060: 6587 87bd bc78 233d 242d 07bd 61e0 4dbd
00000070: 960f 943c 5a62 3dbd 5a91 ed3b 670a 9f3d

bn3.running_var f4 [32]
0.037995193 0.05348222 0.026656715 0.04574663 0.076120496 0.0632114 0.046286024 0.053188503
0.053090654 0.028494313 0.034678712 0.050232027 0.06320259 0.09673207 0.049003057 0.037214804
0.039812125 0.04166432 0.0471143 0.05906912 0.030007098 0.051958166 0.03977056 0.029453695
0.046227198 0.039121956 0.04906753 0.046522696 0.06078026 0.061207365 0.032144714 0.05212758
00000000: d9a0 1b3d 2c10 5b3d 2f5f da3c d160 3b3d
00000010: 10e5 9b3d fa74 813d 6a96 3d3d 30dc 593d
00000020: 9675 593d e86c e93c 440b 0e3d 19c0 4d3d
00000030: 5c70 813d 771b c63d 6eb7 483d 8d6e 183d
00000040: 0a12 233d 35a8 2a3d edfa 403d 76f2 713d
00000050: 72d1 f53c 16d2 543d 74e6 223d e048 f13c
00000060: bb58 3d3d 583e 203d 09fb 483d 958e 3e3d
00000070: b9f4 783d 93b4 7a3d 2daa 033d bb83 553d

head.weight f4 [2, 59904]
0.0015138704 -0.00226154 0.002226395 -0.0028357115 0.0031246087 0.0016763941 0.0038977065 -0.0023491848
-0.0036582658 0.0014557545 0.003327935 -0.003920892 -0.003938127 -0.0011484644 -0.0020471448 0.0015686415
-0.0034537162 0.0034969966 -0.0033220756 0.003388844 0.0027529271 0.0023579807 0.003048086 0.0013629333
-0.0009634255 -0.0028637166 0.002157366 -0.0007574884 -0.0012581921 -0.0011398345 4.902063e-05 0.0038293446
0.0015423563 0.00038957642 -0.0028748866 0.00027215853 0.0018618805 0.0030010776 0.0020490233 -0.0027152593
-0.0025207326 -0.0007852195 0.0009330334 0.0032228786 0.002936713 -0.00045641884 -0.00033695903 0.0021463586
-0.003432066 0.00048266072 -0.0032333345 -0.001298602 -0.0019445764 0.002780485 -0.0021936628 0.0010365108
-0.002553821 -0.0011924803 0.0029452154 0.001597852 6.169686e-05 -0.003389135 -0.0028744931 -0.00336076
-0.0029801633 -0.0026377758 0.001080262 -0.0026000964 -0.0010957415 -0.0027874922 0.00027651014 -0.003200602
-0.0016491499 0.003509806 -0.00096661435 0.0028555589 0.001302965 0.0022869543 -0.0011856346 0.0038945205
-0.0035868355 -0.00055543496 0.001969153 0.0018486227 0.00015176274 -0.0023858147 0.0015718522 0.003475105
-0.00047103874 0.0024285712 0.003178366 -0.0006506811 0.002442638 0.0024478044 -0.00068874564 -0.0018934882
-0.0009793732 0.003472621 -0.002587822 0.0027289726 0.0001329449 0.0020616082 0.001567929 0.001201251
-0.0036182245 -0.0026373276 0.00057182414 -0.00040962244 0.00021987688 0.00042331824 0.000304617 0.00092600845
0.003969128 0.0040271594 -0.0001849283 0.0019226694 0.002684949 -0.0036104189 -0.0023502256 -0.0028556855
-0.00085405377 0.0027503897 0.0019146022 0.00052851904 0.002120521 -0.004036401 -0.0019973505 -0.0040775607
-0.0038029463 -0.00026052422 -0.0022294302 0.002776084 0.0020503057 -0.00072754594 0.0016401606 -0.003524881
-0.0027575814 0.0033174139 0.0037794313 0.00022599613 -0.00060176756 0.003402466 0.0024269703 -0.0011911064
-0.0023889667 0.0015303399 -0.0039524985 0.0019114581 -0.0023510098 0.002330719 -0.0034679514 -0.0027284385
0.0030555944 -0.0006236087 -0.0022005145 0.0018859231 -0.00015116809 -0.0020022176 -0.0012715906 0.0012426539
0.003996772 -0.0038555434 -0.000811856 0.0019801874 0.0021949015 0.0019825525 0.0011443705 0.00043912278
-0.0021394247 0.00025674934 0.0032993155 -0.0017304164 0.0020192335 0.0038682087 -0.0010889617 -0.0014445055
-0.00071408413 -0.0032631045 0.0001847404 0.00029571587 0.0020327605 0.0011308738 -0.00042811432 -0.003571866
-0.00049430714 -0.0006581852 -0.0011916684 -0.0036979592 -0.000482474 0.0028857468 0.0035478165 0.0024004458
-0.0033547585 -0.0039448487 0.004020951 0.0026180367 -0.0013967922 0.0012774994 0.0015636757 0.0025883503
0.000736231 0.0028358684 0.0030658138 0.0030655214 -0.0028762845 0.0027286788 0.003882064 0.0017931466
0.0033237054 -0.0014563601 -0.0024974204 -0.0029692077 -0.0031688244 0.00314395 0.0027108071 0.003086132
-0.0005975107 -0.0016436302 -5.752407e-05 -0.0026950766 -0.0026787843 -0.0005044164 -0.0015627563 -3.8820785e-05
-0.0020934944 -0.0011503254 -0.0028436924 -0.0036910127 -0.0035306264 0.0010198676 -0.00024754414 -0.002487847
-0.00090442505 -0.0009677992 -0.0010488797 -0.0020527442 -0.0008186782 0.0039441283 0.0029574223 0.0010342682
-0.00057825283 0.0025781207 -0.0018162276 0.00024333922 0.0011715805 0.0016609132 0.0024024984 -0.00014609937
-0.0030793063 0.0023471443 -0.0013847155 -0.0020749683 -0.0005898108 0.0005353503 -1.7971732e-05 0.00073905895
00000000: 106d c63a 5836 14bb b6e8 113b 58d7 39bb
00000010: 3cc6 4c3b 74ba db3a aa70 7f3b c8f4 19bb
00000020: 84bf 6fbb 04cf be3a 7c19 5a3b d37a 80bb
00000030: 670b 81bb 1288 96ba 6429 06bb e09a cd3a
00000040: be57 62bb de2d 653b 2eb7 59bb 5e17 5e3b
00000050: 746a 343b 5a88 1a3b 66c2 473b 74a4 b23a
00000060: 648e 7cba 31ad 3bbb 9862 0d3b 3092 46ba
00000070: ece9 a4ba 8066 95ba 809b 4d38 bef5 7a3b
00000080: e428 ca3a 1040 cc39 9868 3cbb 80b0 8e39
00000090: 580a f43a baad 443b e848 063b 7ef2 31bb
000000a0: e032 25bb 30d7 4dba d096 743a ee36 533b
000000b0: de75 403b 804b efb9 e0a9 b0b9 eca9 0c3b
000000c0: 83ec 60bb a00d fd39 5ae6 53bb da35 aaba
000000d0: 28e1 feba cc38 363b 8ec3 0fbb 88db 873a
000000e0: 025e 27bb 004d 9cba 8404 413b 046f d13a
000000f0: 4063 8138 401c 5ebb fe61 3cbb 3240 5cbb
00000100: d84e 43bb 89de 2cbb 9497 8d3a 6166 2abb
00000110: fc9e 8fba 5cae 36bb 90f8 9039 31c1 51bb
00000120: 4a28 d8ba c604 663b 6464 7dba 5424 3b3b
00000130: 40c8 aa3a bae0 153b 4c67 9bba 363b 7f3b
00000140: 1d11 6bbb 9c9a 11ba e80c 013b 7c4d f23a
00000150: 8022 1f39 545b 1cbb 9c06 ce3a 96be 633b
00000160: c0f5 f6b9 aa28 1f3b 224c 503b 7892 2aba
00000170: aa14 203b 586b 203b f08c 34ba ec2e f8ba
00000180: 505e 80ba ea94 633b 7398 29bb 90d8 323b
00000190: 2067 0b39 0c1c 073b f882 cd3a 4c73 9d3a
000001a0: bc1f 6dbb 04d7 2cbb 78e6 153a 98c2 d6b9
000001b0: c08e 6639 d0f0 dd39 00b5 9f39 60bf 723a
000001c0: 750f 823b 43f6 833b 50e9 41b9 1402 fc3a
000001d0: f8f5 2f3b c79c 6cbb 3e06 1abb 7426 3bbb
000001e0: 94e2 5fba e23f 343b 64f3 fa3a 508c 0a3a
000001f0: 70f8 0a3b c943 84bb fbe5 02bb 0f9d 85bb
00000200: da3a 79bb f896 88b9 a21b 12bb f6ee 353b
00000210: 6c5e 063b c8b8 3eba a8fa d63a b101 67bb
00000220: 8ab8 34bb f868 593b 56b0 773b 60f9 6c39
00000230: f0bf 1dba e8fb 5e3b ce0d 1f3b e61e 9cba
00000240: 3690 1cbb b095 c83a f683 81bb e489 fa3a
00000250: 6613 1abb fabe 183b 9246 63bb 9acf 32bb
00000260: 5e40 483b ac79 23ba 8236 10bb 1431 f73a
00000270: e082 1eb9 a337 03bb 80ab a6ba 8ce0 a23a
00000280: 5bf7 823b 49ad 7cbb bcd2 54ba 08c6 013b
00000290: 56d8 0f3b b6ed 013b b4fe 953a 103a e639
000002a0: 9735 0cbb 509c 8639 5439 583b 24cf e2ba
000002b0: 1e55 043b c681 7d3b 7ebb 8eba 9055 bdba
000002c0: 6031 3bba cfd9 55bb e0b6 4139 500a 9b39
000002d0: 1038 053b d439 943a 8874 e0b9 f815 6abb
000002e0: 6494 01ba 108a 2cba c231 9cba 7659 72bb
000002f0: 90f4 fcb9 cc1e 3d3b 7c82 683b cc50 1d3b
00000300: 82db 5bbb ca43 81bb 2fc2 833b 5e93 2b3b
00000310: 9214 b7ba c471 a73a 40f4 cc3a 50a1 293b
00000320: a0ff 403a fad9 393b d2eb 483b eae6 483b
00000330: 0c80 3cbb a2d3 323b 3a6a 7e3b 0408 eb3a
00000340: 86d2 593b 56e3 beba c3ab 23bb 0a97 42bb
00000350: 0dac 4fbb ba0a 4e3b cca7 313b b440 4a3b
00000360: 44a2 1cba 146f d7ba 0046 71b8 e29f 30bb
00000370: 8b8e 2fbb d03a 04ba 66d5 ccba 80d3 22b8
00000380: 0233 09bb 84c6 96ba 3e5d 3abb ebe4 71bb
00000390: 1562 67bb 14ad 853a d0c8 81b9 260b 23bb
000003a0: f016 6dba e8b3 7dba 907a 89ba 5587 06bb
000003b0: 909c 56ba bf3d 813b 50d1 413b 4890 873a
000003c0: e495 17ba b0f5 283b 7c0e eeba e028 7f39
000003d0: b88f 993a 00b3 d93a 3c73 1d3b 4032 19b9
000003e0: 30ce 49bb 8cd2 193b 587f b5ba 31fc 07bb
000003f0: 889d 1aba c056 0c3a 00c2 96b7 68bd 413a

head.bias f4 [2]
0.0021620574 -0.0002808289
00000000: 4eb1 0d3b 383c 93b9
