DDQN/logs/model/teste-new-image1000/teste-new-image10000.pth (torch_old, 703138 bytes, 34 tensors)

conv1.weight f4 [16, 1, 5, 5]
0	0x3f12541f	0.5715961
1	0x3eacd8ca	0.33759147
2	0xbd8172be	-0.063207135
3	0x3de518b9	0.11186356
4	0xbe59edf6	-0.21282181
5	0x3ebbc24c	0.36671674
6	0x3ecaf9b8	0.39643645
7	0x3d9dc19b	0.07702943
8	0xbe11e302	-0.14246753
9	0xbe708084	-0.23486525
10	0x3eac720e	0.33680767
11	0x3dfdcceb	0.123926006
12	0x3ec28695	0.37993303
13	0x3eac9921	0.33710578
14	0xbe11cb3b	-0.14237683
15	0x3ed92687	0.42412207
16	0x3d6e3c07	0.058162715
17	0xbe40724f	-0.18793605
18	0xbed326a5	-0.4124042
19	0xbf39dfda	-0.72607195
20	0x3dfddd3e	0.12395714
21	0x3e15c4fb	0.14625923
22	0xbdce5c88	-0.10076243
23	0xbeb5f70d	-0.35540047
24	0xbf31940a	-0.69366515
25	0x3f33c7e4	0.70226884
26	0x3f108375	0.5645059
27	0x3d9d5a43	0.07683232
28	0x3e9ea116	0.30982274
29	0xbe8d2727	-0.27568933
30	0x3ecbc301	0.39797214
31	0x3eb0fde8	0.34568715
32	0xbe99a1fd	-0.300064
33	0x3df2c252	0.1185347
34	0xbec8629c	-0.39137733
35	0x3f0dffc0	0.5546837
36	0x3ea289ac	0.3174566
37	0xbe9bf2cc	-0.30458677
38	0xbe28f16e	-0.16498348
39	0xbf2eb774	-0.6824868
40	0x3f023ed8	0.5087714
41	0x3ecfbc2f	0.4057326
42	0x3da00681	0.078137405
43	0xbe6fb3b0	-0.23408389
44	0xbe78a27b	-0.24280731
45	0x3f31470a	0.6924902
46	0x3efc89b7	0.49323818
47	0xbe62bee9	-0.22143139
48	0x3ec631e7	0.38709947
49	0x3e88e239	0.26735094
50	0xbf0a3e47	-0.5400128
51	0x3e1c0ab7	0.15238462
52	0xbf43a989	-0.76430565
53	0xbe1533ed	-0.1457059
54	0xbf5592ba	-0.8342701
55	0xbe260bcf	-0.16215442
56	0x3e7bee2b	0.24602573
57	0xbe8c8f7c	-0.2745322
58	0x3d4e66d4	0.050391033
59	0xbee5bac2	-0.44869047
60	0x3ea5896f	0.32331416
61	0x3f0752d6	0.5286077
62	0x3e41b1a4	0.18915421
63	0x3ec2d434	0.38052523
64	0x3dcc957d	0.0998945
65	0xbe0dabec	-0.13835114
66	0x3d46342e	0.048389606
67	0xbdd55674	-0.1041688
68	0x3c94406b	0.018097123
69	0xbe95691c	-0.29181755
70	0xbe826d1c	-0.2547387
71	0x3eb3ef08	0.35143304
72	0xbef39d1d	-0.47580805
73	0xbdee612f	-0.1163963
74	0xbe7a3f29	-0.24438156
75	0x3ebd64fb	0.36991104
76	0x3ddac474	0.10682002
77	0x3f1a47b3	0.60265654
78	0x3eda5f1d	0.4265069
79	0x3ed22c08	0.41049218
80	0x3e58fc27	0.21189938
81	0x3e88eb07	0.26741812
82	0x3df37b55	0.11888758
83	0x3ecdee80	0.40221024
84	0x3eaea634	0.34111178
85	0x3e3c563c	0.18392271
86	0x3e8927e4	0.26788247
87	0x3e91a5f7	0.28446934
88	0xbdb68a52	-0.08913101
89	0x3ecd7e16	0.40135258
90	0xbdbc7ef2	-0.092039004
91	0x3e1ce404	0.15321356
92	0xbe46e1c9	-0.19422068
93	0xbc1486e9	-0.009065368
94	0x3dad46b2	0.0846075
95	0xbd2a7bc1	-0.041621927
96	0xbd9d2cd5	-0.07674567
97	0xbe51a619	-0.20473517
98	0xbe408811	-0.18801905
99	0xbd79fa0d	-0.061029483
100	0xbeb2de3a	-0.3493517
101	0xbd1d2f49	-0.038375173
102	0xbf161b78	-0.58635664
103	0xbed5c074	-0.41748393
104	0xbecd6b45	-0.40120903
105	0x3e7aeec5	0.24505146
106	0x3f05684f	0.5211229
107	0xbe897132	-0.26844174
108	0xbde5988c	-0.11210737
109	0x3e48bcf6	0.19603333
110	0x3e5eddd2	0.21764305
111	0x3ef163de	0.47146505
112	0xbe885f3f	-0.26635167
113	0xbeb6809c	-0.35644996
114	0x3ececadf	0.40389153
115	0x3f1aabc5	0.6041835
116	0x3f90baa5	1.1306959
117	0x3c2439db	0.010023559
118	0xbe02c4d5	-0.12770398
119	0x3e8b609f	0.27222154
120	0x3ea74216	0.32667607
121	0x3f117fed	0.56835824
122	0x3cc1849e	0.023622807
123	0xbe98ad5c	-0.29819763
124	0x3f1ffbad	0.624934
125	0x3fa29e2f	1.2704524
126	0x3e027a47	0.12741958
127	0x3f892bb1	1.0716459
128	0x3f542f57	0.82884735
129	0x3fa7db09	1.3113719
130	0x3caf8cfe	0.021429535
131	0xbee2233d	-0.4416751
132	0x3e569a17	0.20957218
133	0x3eb43770	0.35198545
134	0x3e8f59a4	0.27998078
135	0xbeb06c73	-0.3445774
136	0xbf041399	-0.51592404
137	0xbf0a0e00	-0.5392761
138	0xbefe7f4c	-0.49706495
139	0xbf146777	-0.57970375
140	0x3e8ce6d6	0.27519864
141	0x3e16d7ad	0.14730711
142	0x3e79ccba	0.24394503
143	0xbdc2836d	-0.09497724
144	0xbe99379a	-0.29925233
145	0x3e33cc09	0.17558302
146	0x3def1e39	0.116756864
147	0x3da5a131	0.080873854
148	0x3dadb372	0.08481492
149	0x3e6139b9	0.21994676
150	0xbf06e859	-0.52698284
151	0xbe4a3144	-0.19745356
152	0x3bca94c6	0.006182286
153	0x3e421d6c	0.18956536
154	0xbe1c9ec7	-0.15294944
155	0xbe076306	-0.13221368
156	0xbe844044	-0.2583028
157	0xbf323160	-0.6960659
158	0x3e086c39	0.13322534
159	0xbe2aa616	-0.1666492
160	0xbf03a26f	-0.5141973
161	0xbde0fbfc	-0.10985562
162	0xbf6b479e	-0.91906154
163	0xbdad3040	-0.084564686
164	0xbf69346b	-0.9109561
165	0xbeff9dba	-0.49925023
166	0xbd7f7e0b	-0.062376063
167	0xbee2773a	-0.44231588
168	0x3db251ce	0.08707009
169	0xbe7d2c90	-0.2472403
170	0xbe6a3837	-0.22873007
171	0x3e927348	0.28603578
172	0xbeab0c71	-0.3340793
173	0xbdc6868f	-0.09693634
174	0xbe781f1b	-0.24230616
175	0xbd9572ec	-0.0729731
176	0xbd34b009	-0.044113193
177	0x3db6bb85	0.08922485
178	0xbebfba0f	-0.3744664
179	0x3e34d0fe	0.17657849
180	0x3e1bcb63	0.15214305
181	0x3d08ac46	0.033367418
182	0x3db70f6d	0.08938489
183	0xbe93029b	-0.28712925
184	0x3f0188f3	0.5059959
185	0x3de0a5bf	0.109691136
186	0xbce7a957	-0.02827899
187	0x3e470785	0.19436462
188	0x3dcfd796	0.10148542
189	0x3f27de57	0.6557364
190	0x3f274ac0	0.65348434
191	0xbdf149f9	-0.11781687
192	0x3d2014db	0.03908239
193	0xbe16c0b7	-0.14721952
194	0x3f2de871	0.679328
195	0x3e9bbf94	0.304196
196	0xbdad3035	-0.084564604
197	0x3ca34f28	0.019935206
198	0xbdcd78cc	-0.10032806
199	0x3ee78a36	0.45222634
200	0xbd5bd899	-0.05367336
201	0x3e73d73e	0.23812577
202	0xbde41438	-0.11136669
203	0x3ccd783e	0.02508175
204	0x3ed1f0b6	0.4100396
205	0xbdb212aa	-0.08694966
206	0x3e3ef893	0.18649511
207	0xbefebcf4	-0.49753535
208	0xbe8a2eb4	-0.26988757
209	0x3e7aee70	0.24505019
210	0xbdaf28b4	-0.085526854
211	0xbe935064	-0.2877227
212	0xbf8deb26	-1.1087387
213	0xbf151293	-0.58231467
214	0x3d9849bb	0.07435938
215	0x3dffd799	0.12492294
216	0xbcc1728f	-0.023614196
217	0xbf4c3778	-0.7977214
218	0xbee2ff4f	-0.4433541
219	0x3d0f628d	0.035006095
220	0xbef432c0	-0.4769497
221	0xbf02d3d2	-0.5110446
222	0xbf604f22	-0.8762075
223	0xbe942de9	-0.28941277
224	0xbe8f14d9	-0.27945593
225	0xbf1f4ae1	-0.6222363
226	0xbdfa35d5	-0.12217299
227	0xbe884671	-0.26616243
228	0xbd5e613a	-0.05429194
229	0xbea01358	-0.31264758
230	0xbf1ba2bf	-0.60795206
231	0xbe235885	-0.15951736
232	0xbd9f0ee7	-0.07766514
233	0x3ccd5ee3	0.02506966
234	0xbeb4bbb4	-0.35299456
235	0xbe9f648e	-0.31131405
236	0xbd24655b	-0.040135723
237	0x3f2c3e88	0.67282915
238	0x3f08db85	0.5345996
239	0x3e87f3c6	0.26553172
240	0xbf03f531	-0.5154601
241	0xbe426ab6	-0.1898602
242	0x3f5a61ab	0.8530528
243	0x3ef4c094	0.47803175
244	0xbdcf2674	-0.10114756
245	0xbe90cd6b	-0.2828172
246	0xbd89416c	-0.06701931
247	0x3f64b2fb	0.893356
248	0x3f8aa6d2	1.083216
249	0xbcc4c0e3	-0.024017757
250	0xbeeb56b9	-0.45964602
251	0xbd0e7254	-0.034777
252	0xbeb3db74	-0.35128367
253	0xbd91dc96	-0.071221516
254	0xbecff42a	-0.4061597
255	0xbed87332	-0.42275387

conv1.bias f4 [16]
0	0xbe16c8c9	-0.14725031
1	0x3e3e0225	0.18555506
2	0x3ef458b3	0.47723922
3	0xbeef8758	-0.46782947
4	0x3e98a852	0.29815918
5	0x3e87b15d	0.26502505
6	0xbea2737f	-0.31728742
7	0xbc0df30a	-0.008663902
8	0x3d5937e7	0.05303183
9	0x3ea57aad	0.32320157
10	0xbcd21dbb	-0.025648942
11	0xbe289db3	-0.16466407
12	0xbd3163db	-0.04330812
13	0xbeb8ec8a	-0.36117965
14	0x3e43dd54	0.19127399
15	0xbf110653	-0.56650275

bn1.weight f4 [16]
0	0x3f1d9d9d	0.61568624
1	0x3ea4ae17	0.3216407
2	0x3fa67bcc	1.300653
3	0x3f01b73c	0.5067022
4	0x3f0e9702	0.5569917
5	0xbf70f81d	-0.9412859
6	0x3ef78a96	0.4834792
7	0x3c6625ad	0.014047069
8	0x3f2626ea	0.6490313
9	0xbf01ca1c	-0.5069902
10	0x3ee43753	0.4457346
11	0x3efd5455	0.49478403
12	0x3f6c4814	0.9229748
13	0x3f699548	0.9124341
14	0x3ed4582f	0.4147353
15	0x3effcd69	0.49961403

bn1.bias f4 [16]
0	0x3d6c3387	0.057666328
1	0x3e34bbc5	0.17649753
2	0x3f1c13c1	0.6096764
3	0xbf211691	-0.6292506
4	0x3ed3e3a5	0.41384616
5	0x3d6ee6cf	0.058325585
6	0x3e4766d6	0.19472823
7	0xbdf0e8a2	-0.11763121
8	0x3f58556f	0.8450536
9	0xbe4b4396	-0.1985
10	0x3e858961	0.26081374
11	0xbdf0ffd8	-0.11767548
12	0x3f267349	0.6501966
13	0x3f1a150b	0.6018836
14	0x3e23cf0b	0.1599695
15	0x3c941ff2	0.018081639

bn1.running_mean f4 [16]
0	0x3d4e4d40	0.05036664
1	0x3fbcac66	1.4740112
2	0xbed91b27	-0.42403528
3	0x3f6b7058	0.919683
4	0x3f99ce5b	1.20161
5	0x3fcad8e8	1.5847445
6	0xc027bb8b	-2.6208217
7	0x3f8eea59	1.1165267
8	0xc00013c9	-2.0012076
9	0x3f1758df	0.5911998
10	0xbff88d5b	-1.9418138
11	0x3c3b7669	0.011441805
12	0x401b3de3	2.4256523
13	0x3f8dd8bb	1.1081766
14	0xba79d037	-0.00095296226
15	0xc00d18a7	-2.2046297

bn1.running_var f4 [16]
0	0x3d14be93	0.03631456
1	0x3d6ac884	0.057320133
2	0x3ccdc821	0.025119843
3	0x3d57d563	0.052693736
4	0x3d4bfbd4	0.04980071
5	0x3d5e89a1	0.054330472
6	0x3dfb0bcd	0.1225811
7	0x3d100e91	0.03517014
8	0x3de979d9	0.11400194
9	0x3d6844b6	0.056706153
10	0x3db48cb2	0.08815898
11	0x3c699f52	0.014259176
12	0x3e2334b7	0.15938078
13	0x3d265194	0.040605143
14	0x3c9b2539	0.018938648
15	0x3da9948c	0.08280286

conv2.weight f4 [32, 16, 5, 5]
0	0x3e01b2ff	0.12665938
1	0x3e82854d	0.25492325
2	0x3e88935c	0.26674926
3	0xbdc29c46	-0.09502463
4	0xbdf84e05	-0.12124256
5	0x3cafb6d5	0.021449486
6	0x3e1a5889	0.15072836
7	0x3d50b30c	0.050952002
8	0xbdc505ac	-0.096202224
9	0xbd4c68dd	-0.049904693
10	0x3e360f78	0.17779338
11	0xbdd51447	-0.10404258
12	0xbe0ca797	-0.13735805
13	0xbdb8c0f9	-0.090211816
14	0xbdd805e7	-0.10548001
15	0x3e730157	0.2373098
16	0xbd94bd2d	-0.07262645
17	0xbdc772c2	-0.09738685
18	0xbdbb00e1	-0.09131027
19	0xbe0721b4	-0.1319645
20	0x3de60cc2	0.11232902
21	0xbea34c4e	-0.31894153
22	0xbe05f9e6	-0.1308361
23	0xbe95edc5	-0.29282966
24	0xbe1258b5	-0.14291652
25	0xbd9e1ecb	-0.07720717
26	0x3ce7ceb1	0.0282968
27	0x3e6caef2	0.23113611
28	0xbc15ca4f	-0.009142472
29	0x3c597234	0.013271857
30	0xbe27e880	-0.16397285
31	0xbd442b5e	-0.04789292
32	0xbca5809b	-0.020202925
33	0xbed99e89	-0.42503765
34	0xbef9d9f3	-0.48799095
35	0xbe3d0ab2	-0.18461111
36	0xbdd20bb6	-0.1025614
37	0x3c4fd7d7	0.012685738
38	0xbef77263	-0.48329458
39	0xbec1e92a	-0.37873203
40	0xbe0f87b0	-0.14016604
41	0xbea17b7d	-0.31539527
42	0xbe237b54	-0.15965015
43	0xbe8df8ca	-0.27728873
44	0xbea7143e	-0.3263263
45	0xbdfe2449	-0.124092646
46	0xbe86fe10	-0.2636571
47	0xbea2f22b	-0.31825384
48	0xbea4ef9f	-0.32214066
49	0xbe5bd875	-0.2146929
50	0xbe7731a9	-0.24140038
51	0xbe50456a	-0.2033898
52	0xbde3aa74	-0.11116496
53	0x3d537eb0	0.05163449
54	0x3db9936a	0.0906132
55	0xbf311bcc	-0.6918304
56	0xbe0c4f47	-0.13702117
57	0x3e02fe83	0.12792401
58	0xbe8d45b3	-0.2759224
59	0xbf19765b	-0.5994622
60	0xbf22ba74	-0.63565755
61	0xbed1e80d	-0.40997353
62	0xbeeea2cf	-0.46608588
63	0xbec0debf	-0.37669942
64	0xbe9311e0	-0.28724575
65	0xbe9dd3b4	-0.3082558
66	0xbd02d2dc	-0.031939372
67	0xbdbf1e84	-0.09331992
68	0xbe9b931a	-0.30385667
69	0xbe7cf775	-0.24703772
70	0xbe8ed6d0	-0.27898264
71	0xbd577ed7	-0.0526112
72	0xbc1c8e4e	-0.009555412
73	0xbe635379	-0.22199811
74	0xbe94670c	-0.2898487
75	0xbe7a724b	-0.24457662
76	0xbe6991df	-0.22809552
77	0x3bc695f6	0.006060357
78	0xbdc92006	-0.09820561
79	0xbdf45190	-0.11929619
80	0xbe6e54cb	-0.23274533
81	0x3c6fac10	0.014628425
82	0x3e251a97	0.16123424
83	0xbd2ab4c1	-0.041676287
84	0xbcec882a	-0.028873522
85	0xbde05a75	-0.10954753
86	0x3d592e68	0.053022772
87	0x3d511ac1	0.051050905
88	0xbde7c45c	-0.113167495
89	0x3dc1ad33	0.09456863
90	0xbcc5ab7b	-0.02412962
91	0xbe0c6797	-0.13711391
92	0x3e3feae8	0.18741953
93	0xbdbea047	-0.09307914
94	0xbdabe291	-0.083928235
95	0xbe331003	-0.17486577
96	0x3d034761	0.032050494
97	0x3dd253f7	0.10269921
98	0xbdb3d99f	-0.08781742
99	0xbe53bf0f	-0.20678352
100	0x3e164407	0.14674388
101	0x3e449783	0.19198422
102	0x3e37dc7f	0.17955206
103	0x3e59448a	0.21217552
104	0x3e4faa49	0.20279802
105	0xbee9190e	-0.45526928
106	0xbe5424a0	-0.20717096
107	0x3dd666ab	0.10468801
108	0xbe8c59ab	-0.2741216
109	0xbee18a99	-0.44051054
110	0xbe3711e3	-0.17877917
111	0xbe28b258	-0.16474283
112	0xbcd4f7fa	-0.02599715
113	0x3e1f4306	0.15552911
114	0xbe748a08	-0.2388078
115	0x3aa92b8f	0.0012906658
116	0xbe8c38fa	-0.2738722
117	0xbd413320	-0.047167897
118	0xbe4ca576	-0.19984993
119	0xbef7a215	-0.48365846
120	0x3d3c9597	0.046041097
121	0xbdab3a92	-0.08360781
122	0x3c8b3ab7	0.01699577
123	0xbde76c5d	-0.112999655
124	0xbe33ed1c	-0.17570919
125	0x3e2fe4ca	0.1717712
126	0x3e912fa8	0.2835667
127	0x3e0eab9b	0.1393265
128	0x3e28a609	0.16469587
129	0x3debd804	0.11515811
130	0xbe228ba7	-0.15873586
131	0xbe9cba3d	-0.3061084
132	0xbed51212	-0.4161535
133	0xbe75e0ce	-0.24011537
134	0xbe18aa3f	-0.14908694
135	0xbe0dfe27	-0.13866483
136	0xbe8435e9	-0.2582238
137	0xbdae447f	-0.08509158
138	0xbe8ddd52	-0.27707916
139	0xbe048009	-0.12939467
140	0xbe7acc53	-0.24492006
141	0x3d25398b	0.04033808
142	0x3e1e22ff	0.15443037
143	0xbd89e8aa	-0.0673383
144	0xbe3bba11	-0.18332697
145	0xbe76a587	-0.24086581
146	0xbdab8a72	-0.08376016
147	0xbe8f6625	-0.28007618
148	0xbe8bb9da	-0.2729023
149	0xbe8965e5	-0.26835552
150	0xbd8b6f1f	-0.06808304
151	0xbdfd069d	-0.12354777
152	0x3e847866	0.25873107
153	0x3cacfeb7	0.021117551
154	0xbe599f7e	-0.21252248
155	0xbed7b333	-0.42128906
156	0xbe477cbf	-0.1948118
157	0xbe4e24ac	-0.20131177
158	0xbdfd9ae3	-0.12383058
159	0xbee66aec	-0.4500345
160	0xbeede670	-0.46464872
161	0xbebaf4d3	-0.3651491
162	0xbe84568c	-0.2584728
163	0xbe93d16d	-0.28870717
164	0xbd693384	-0.056933895
165	0xbe8a9a6f	-0.27070948
166	0xbe5a14a4	-0.21296936
167	0xbd854c9b	-0.06508752
168	0xbe8844df	-0.26615044
169	0xbe64ae91	-0.22332217
170	0xbebfcf53	-0.37462863
171	0xbe8adb17	-0.27120277
172	0xbe8c5eb8	-0.27416015
173	0xbea40ab7	-0.32039425
174	0xbe9e7282	-0.30946738
175	0x3d5858c4	0.05281903
176	0xbe80131c	-0.2501458
177	0xbe70a14a	-0.23499027
178	0xbe680012	-0.22656277
179	0xbda140c6	-0.07873683
180	0x3d10d844	0.035362497
181	0xbe23e8d4	-0.16006786
182	0xbe04067d	-0.128931
183	0xbdaa0575	-0.08301822
184	0x3e566d40	0.20940113
185	0x3e026b90	0.12736344
186	0xbe68c2c7	-0.22730552
187	0xbde2ac47	-0.110680155
188	0xbcc1a943	-0.02364028
189	0x3e2a442e	0.16627571
190	0x3dcebd8d	0.10094748
191	0x3dac2895	0.08406178
192	0x3e2e05db	0.16994421
193	0x3ed1d942	0.40986067
194	0x3ee71330	0.45131826
195	0x3e4a24d9	0.19740619
196	0x3e9b1e27	0.30296442
197	0x3e9b3c0b	0.30319247
198	0x3e8e11cd	0.27747956
199	0x3e9ec46c	0.31009233
200	0xbebda090	-0.37036562
201	0xbe83c257	-0.25734207
202	0xbecca8eb	-0.39972624
203	0xbe756f6d	-0.23968287
204	0xbedead3b	-0.4349154
205	0xbc3788ef	-0.011202081
206	0x3d9b53b6	0.07584326
207	0xbd68d820	-0.056846738
208	0xbe1836ff	-0.1486473
209	0x3d609547	0.054829862
210	0xbd72aa9c	-0.059244737
211	0xbd6e690d	-0.058205653
212	0x3de8de20	0.11370492
213	0xbd99d542	-0.07511379
214	0x3e3e93f2	0.18611124
215	0xbed818b4	-0.42206347
216	0xbe63ef94	-0.2225936
217	0xbead489b	-0.33844456
218	0xbea737ac	-0.32659662
219	0xbeb114ad	-0.34586087
220	0xbe87760a	-0.26457244
221	0xbebd3adc	-0.3695897
222	0xbee36be8	-0.44418263
223	0xbe98c388	-0.29836679
224	0xbf238aef	-0.6388387
225	0xbdaf5763	-0.085615896
226	0xbe3a432f	-0.18189691
227	0x3e7777ed	0.24166842
228	0xbecd09b0	-0.40046453
229	0xbeb4055a	-0.35160333
230	0x3e6193e2	0.22029069
231	0x3c675f8b	0.0141219
232	0x3e0d16c1	0.13778211
233	0xbd2ee755	-0.042701084
234	0xbe072bd2	-0.1320031
235	0xbec0d3e9	-0.37661675
236	0xbf21df3b	-0.6323125
237	0xbe911d28	-0.28342557
238	0xbf10850c	-0.56453013
239	0xbe92f587	-0.28702947
240	0xbec6c378	-0.38821006
241	0xbf1f3477	-0.6218943
242	0xbe8ced96	-0.27525014
243	0xbf3485e4	-0.705168
244	0xbeca1f69	-0.3947709
245	0xbf2bac74	-0.6706002
246	0xbf6f1090	-0.9338465
247	0xbf2d85e2	-0.67782414
248	0xbf64d275	-0.8938363
249	0xbf3c49f4	-0.73550344
250	0xbe876af3	-0.26448783
251	0xbcd30c82	-0.0257628
252	0x3dd84518	0.105600536
253	0x3c0b1c9e	0.00849071
254	0xbe172b47	-0.14762603
255	0xbea249ce	-0.31696934

conv2.bias f4 [32]
0	0x4035a2f8	2.8380718
1	0x3fd08bf0	1.6292706
2	0x4082daee	4.089225
3	0x402931b7	2.6436594
4	0x3d656776	0.05600687
5	0x3e79e66c	0.24404305
6	0x409789a5	4.7355523
7	0x40a20886	5.0635405
8	0x403ffbbe	2.9997401
9	0x4011ca3c	2.2779684
10	0xbf08b6c2	-0.53403866
11	0x3f710203	0.94143695
12	0x408b3244	4.349886
13	0x40933df7	4.601314
14	0x405e5d2f	3.4744375
15	0x4031fedc	2.7811804
16	0x40a4d845	5.1514
17	0x3e0d4874	0.1379717
18	0x409afeb7	4.843593
19	0x3f016823	0.50549525
20	0x405ad03f	3.4189603
21	0x404a4dea	3.1610055
22	0x40627096	3.5381217
23	0x4063655c	3.5530615
24	0x3dc8ce11	0.09804929
25	0x40863e57	4.19511
26	0x404f7071	3.2412379
27	0xbd2da0ba	-0.04238961
28	0x3fbbdf90	1.4677601
29	0x4033de71	2.8104517
30	0x3d0d1fb5	0.034454066
31	0xbd50d947	-0.05098846

bn2.weight f4 [32]
0	0x3ec5e03b	0.38647637
1	0xbe31678e	-0.17324659
2	0x3f121b79	0.5707317
3	0x3ef0bccf	0.4701905
4	0x3c0abdd2	0.008468108
5	0xbd2eb4fb	-0.042653065
6	0x3fa93779	1.3220054
7	0x3fc115a3	1.5084728
8	0x3e6083f0	0.2192533
9	0x3d2f8653	0.04285271
10	0xbc813423	-0.015771931
11	0xbd3428f8	-0.043984383
12	0x3f311a82	0.6918107
13	0x3fa2591d	1.2683445
14	0x3f05cffc	0.52270484
15	0x3f172130	0.59035015
16	0x3fec4df4	1.846129
17	0xbabf6391	-0.0014601817
18	0x3f8d0bbe	1.1019208
19	0x3d7d4153	0.061829876
20	0x3f560d13	0.836137
21	0x3f024cf2	0.5089866
22	0xbce47202	-0.027886394
23	0x3f548bbc	0.8302572
24	0x3c2b1899	0.010442876
25	0x3fb2d81a	1.3972199
26	0x3f073a45	0.5282329
27	0x3e1bfff0	0.15234351
28	0x3e67a667	0.22622071
29	0x3ec39e8d	0.38206902
30	0x3d51f30c	0.05125718
31	0xbb437c1d	-0.0029828616

bn2.bias f4 [32]
0	0x3ea39572	0.31949955
1	0x3ec058bc	0.375677
2	0x3ebcae75	0.3685185
3	0x3ec01a70	0.3752017
4	0xbdcccc07	-0.09999853
5	0xbe9d441f	-0.30716035
6	0x3f7f24eb	0.9966571
7	0x3f3f19ca	0.74648726
8	0x3e8f47a5	0.27984348
9	0xbe1ebbb2	-0.15501288
10	0xbdf08fd7	-0.11746185
11	0xbea344fd	-0.3188857
12	0x3e1746e7	0.14773141
13	0x3e03d3bd	0.1287374
14	0x3eb6b88b	0.3568767
15	0xbea0631d	-0.31325617
16	0x3f5a7f6c	0.8535068
17	0xbdd6f493	-0.104958676
18	0x3ef767bc	0.4832133
19	0xbe00f457	-0.12593208
20	0x3ee212ff	0.44155118
21	0x3dc48f1c	0.095976084
22	0xbde90238	-0.11377376
23	0x3ec3dce1	0.38254455
24	0xbdb9bed9	-0.090696044
25	0x3e442f84	0.19158751
26	0x3ecadb89	0.39620617
27	0xbdcccb17	-0.09999674
28	0xbefea138	-0.49732375
29	0x3ecc58af	0.3991141
30	0xbe4ccb5b	-0.19999449
31	0xbddde83b	-0.1083531

bn2.running_mean f4 [32]
0	0xc0eeec19	-7.4663205
1	0xc0075e88	-2.1151447
2	0xc11eaf99	-9.9178705
3	0xc0b92131	-5.7853017
4	0x401c1e1b	2.4393375
5	0x3f7d4eec	0.9894855
6	0x40907a47	4.5149264
7	0x4070e9f7	3.76428
8	0xc0f5d474	-7.682184
9	0xc16335e4	-14.200657
10	0xbeb5d06a	-0.3551057
11	0x3eebdc65	0.46066585
12	0x412e7efc	10.906002
13	0x411faec3	9.980166
14	0xc14467ed	-12.2753725
15	0x4102f224	8.184116
16	0x405ea13e	3.4785914
17	0x416655af	14.395919
18	0x3fab7ccf	1.3397464
19	0xc11f7b9b	-9.967677
20	0x3ffbdaf6	1.9676197
21	0x3e845fcf	0.25854346
22	0x40d9156f	6.7838664
23	0xbf94c9f4	-1.1624131
24	0x3f4bd21f	0.79617494
25	0x417d9e19	15.851098
26	0xc10a93a9	-8.66105
27	0xc0367258	-2.850729
28	0xc0206652	-2.5062451
29	0xc0c88ac0	-6.2669373
30	0xc0362cc5	-2.8464825
31	0x3fc883cb	1.566522

bn2.running_var f4 [32]
0	0x43c07fcd	384.99844
1	0x43c30e0d	390.10977
2	0x43ea7471	468.9097
3	0x4320ee73	160.93144
4	0x40f9bcc9	7.804295
5	0x422e93a0	43.644165
6	0x43618f9a	225.56094
7	0x434f673f	207.4033
8	0x43584913	216.28545
9	0x44064250	537.03613
10	0x433a3e8e	186.24435
11	0x421a5b59	38.589207
12	0x437503b5	245.01448
13	0x4380b595	257.4186
14	0x43370034	183.0008
15	0x43376042	183.376
16	0x42f93ebf	124.62255
17	0x435afdd4	218.99152
18	0x4335ddc0	181.86621
19	0x432001dd	160.00728
20	0x4325fdbb	165.99113
21	0x4308462d	136.27412
22	0x43fc962b	505.1732
23	0x43677f4e	231.49728
24	0x41ab2611	21.393587
25	0x442b0807	684.1254
26	0x4303f7d9	131.96815
27	0x41eb506d	29.41427
28	0x43cce42b	409.78256
29	0x4354e494	212.89288
30	0x41488954	12.533527
31	0x418c3d6b	17.52999

conv3.weight f4 [32, 32, 5, 5]
0	0x3cf78927	0.030216767
1	0xbe34c9f5	-0.17655165
2	0xbe6afbcc	-0.22947615
3	0xbe6018d6	-0.21884474
4	0xbe5bf804	-0.21481329
5	0xbc6a7594	-0.014310259
6	0xbe611a7c	-0.21982759
7	0xbcc83ac6	-0.024442088
8	0x3cee5b02	0.02909613
9	0xbe325b2e	-0.17417595
10	0xbceea327	-0.029130531
11	0xbcc3d767	-0.023906423
12	0xbdac3639	-0.0840878
13	0xbe40fc3f	-0.18846224
14	0xbe6e9270	-0.23298049
15	0xbe67d743	-0.2264071
16	0x3e67274e	0.22573587
17	0xbcbb1ede	-0.022841867
18	0xbe2f42f8	-0.1711539
19	0xbe5ff6fc	-0.21871561
20	0xbe60892d	-0.21927328
21	0x3e302a83	0.17203717
22	0x3e6b176e	0.22958156
23	0xbe65733a	-0.22407237
24	0xbe2a6bff	-0.1664276
25	0xbe530245	-0.20606335
26	0xbe70cf26	-0.23516521
27	0xbe5532fa	-0.20820227
28	0xbe5bf25b	-0.2147917
29	0xbe3d6353	-0.1849492
30	0x3d01b466	0.031666182
31	0xbe563976	-0.20920357
32	0xbe5a2bf3	-0.21305828
33	0xbe5d5cfc	-0.21617502
34	0x3c873fab	0.016509851
35	0x3cb9849c	0.02264624
36	0x3b18754d	0.0023263276
37	0xbe65096e	-0.22366878
38	0xbe56f471	-0.20991684
39	0xbe6862c7	-0.2269393
40	0xbe4319e2	-0.19052842
41	0xbcc41c86	-0.023939382
42	0x3c37646e	0.011193378
43	0xbc0ad39e	-0.008473305
44	0xbc868bcc	-0.016424082
45	0xbe4ff025	-0.20306452
46	0xbe6382d8	-0.22217882
47	0xbe50aa70	-0.20377517
48	0xbe5b6cd4	-0.21428233
49	0xbe4de2eb	-0.20106094
50	0xbe709c17	-0.23497044
51	0xbe4181de	-0.18897197
52	0xbcd26d90	-0.02568701
53	0xbe580fd8	-0.21099794
54	0xbd090a4a	-0.033457078
55	0xbad8c73f	-0.0016538872
56	0xbe5c9bec	-0.21543854
57	0xbe40d513	-0.18831281
58	0xbe661e05	-0.22472389
59	0xbe50315d	-0.2033133
60	0xbe6df81f	-0.23239182
61	0xbe439389	-0.19099249
62	0xbe5bd56f	-0.21468137
63	0xbe5148bf	-0.20437907
64	0xbcde7947	-0.027157439
65	0xbcd69e78	-0.02619861
66	0xbe5b1195	-0.21393426
67	0xbe5d2fb8	-0.21600235
68	0xbe3f1aff	-0.18662642
69	0xbe51d4ae	-0.20491287
70	0xbe469582	-0.1939297
71	0xbe2c6f32	-0.16839293
72	0xbba8cc5f	-0.005151316
73	0xbcdd2b2d	-0.026998127
74	0xbe48a844	-0.19595438
75	0x3c96572d	0.018352116
76	0x3cf56062	0.029953185
77	0x3cab7650	0.02093044
78	0xbe4c56ea	-0.1995503
79	0x3ccefe5a	0.025267769
80	0xbe35ef8c	-0.17767161
81	0xbe2bc861	-0.16775657
82	0xbe4a2bd8	-0.19743288
83	0xbe5865c7	-0.21132575
84	0xbe53bd6e	-0.2067773
85	0xbe6fe525	-0.23427255
86	0xbe6bbcde	-0.23021266
87	0xbe34bf35	-0.17651065
88	0xbe360f1f	-0.17779206
89	0xbe31c92d	-0.17361899
90	0x3c11cdc0	0.008899152
91	0x3d011bcf	0.03152066
92	0xbc75239d	-0.014962104
93	0xbe4fc4ec	-0.20289963
94	0xbe709325	-0.23493631
95	0xbe7061ad	-0.2347476
96	0xbe650f34	-0.22369081
97	0xbe3c8574	-0.18410283
98	0x3b998be6	0.0046858666
99	0xbe479aa0	-0.19492579
100	0x3da780dc	0.08178875
101	0x3df9f7e6	0.12205486
102	0xbdac26bb	-0.08405825
103	0x3df0bf02	0.11755182
104	0xbe06bb09	-0.13157286
105	0x3d9016a1	0.07035566
106	0xbd93169b	-0.07182046
107	0x3e065b02	0.13120654
108	0x3e021de6	0.12706718
109	0xbde8bbcf	-0.11363947
110	0x3d9d351d	0.07676146
111	0x3dff007f	0.124512665
112	0x3dceab49	0.10091264
113	0xbd9fb6cd	-0.07798538
114	0xbdcca556	-0.09992473
115	0xbd88012f	-0.06640851
116	0x3d93c824	0.07215908
117	0x3daee112	0.085390225
118	0x3d984a2b	0.074360214
119	0x3e0203c9	0.12696756
120	0x3d87d406	0.06632237
121	0xbddc485c	-0.10755989
122	0x3d9b6b54	0.075888306
123	0x3dec2987	0.11531358
124	0x3dad7175	0.08468906
125	0xbe3776be	-0.1791639
126	0xbe628702	-0.22121814
127	0xbe5d0a16	-0.21585879
128	0xbe45b6fd	-0.19308086
129	0xbe69e6bf	-0.22841929
130	0xbcaffd7e	-0.02148318
131	0xbe6a5137	-0.22882544
132	0xbe28f445	-0.16499431
133	0x3ce3c62e	0.02780446
134	0xbe3348b6	-0.17508206
135	0xbe383c4f	-0.17991756
136	0xbe51fecb	-0.20507352
137	0xbe5dea82	-0.21671489
138	0xbe4b0882	-0.19827464
139	0xbe682fe9	-0.22674526
140	0xbcb421c1	-0.021988751
141	0x3c9294f1	0.017893286
142	0x3cd06bfa	0.025442112
143	0x3b8ce39b	0.0042995936
144	0xbe462e37	-0.19353567
145	0xbbb403de	-0.005493625
146	0x3c9ba74f	0.019000677
147	0x3c1cbce7	0.009566522
148	0xbe4c378e	-0.19943067
149	0xbe5b1081	-0.21393014
150	0xbafe6a51	-0.0019410347
151	0xbb3fd451	-0.0029270838
152	0x3b9bf6db	0.004759652
153	0xbbc52bdd	-0.006017192
154	0xbbad5bb3	-0.0052904724
155	0x3e6e93ae	0.23298523
156	0x3e673f00	0.22582626
157	0x3ce9d13a	0.02854215
158	0x3ce26338	0.027635202
159	0x3d019763	0.031638514
160	0x3e696806	0.22793588
161	0x3e3117b8	0.17294204
162	0x3e69ea3a	0.22843257
163	0x3e2fb30b	0.17158143
164	0x3cf5b04c	0.029991291
165	0x3cb6cd70	0.022314757
166	0x3cabbd81	0.020964386
167	0xbcd9b546	-0.026575696
168	0xbd0963b8	-0.033542365
169	0xbcc46f4f	-0.023978857
170	0x3afc4293	0.0019245915
171	0xbbb9e6e9	-0.0056732786
172	0x3c43fe49	0.011962482
173	0x3cd1c2b6	0.02560554
174	0x3e61605e	0.22009417
175	0x3e373cc9	0.17894281
176	0xbb3f9a7a	-0.0029236362
177	0x3b07a1d4	0.0020695822
178	0xbc24a055	-0.010047992
179	0x3c359829	0.011083641
180	0x3e364205	0.17798622
181	0xbcb4fd86	-0.022093546
182	0x3e400885	0.1875325
183	0x3e2cbd5c	0.1686911
184	0x3e5c1c6a	0.21495214
185	0xbccab6ad	-0.02474531
186	0x3c0ecf02	0.008716347
187	0x3c9c81c6	0.01910485
188	0xbcf50a01	-0.029911997
189	0xbc8235f1	-0.015894862
190	0xbd02b1af	-0.031907734
191	0xbc702604	-0.014657501
192	0x3e5cda87	0.21567737
193	0x3c2d291d	0.010568884
194	0x3ca1e523	0.019762581
195	0x3e6a2ff0	0.22869849
196	0x3e3cce38	0.18438041
197	0x3e32ff89	0.17480291
198	0x3c37b9d6	0.01121374
199	0x3cb3c8b6	0.021946292
200	0xbe6594b4	-0.22420007
201	0xbe5ff474	-0.21870595
202	0xbe52f358	-0.20600641
203	0x3c6722fc	0.014107462
204	0xbe5c366f	-0.2150514
205	0xbe5dfa5f	-0.2167754
206	0xbe554ffe	-0.20831296
207	0xbe28c4b4	-0.16481286
208	0xbe65d04a	-0.22442737
209	0xbe5ddaad	-0.2166545
210	0xbc98c20a	-0.018647213
211	0xbacb1749	-0.001549461
212	0xbe6a0269	-0.22852482
213	0xbe2bff9b	-0.16796724
214	0xbe447243	-0.19184212
215	0xbe2ad911	-0.16684367
216	0x3cd04c8d	0.025427127
217	0x3cdf8566	0.027285289
218	0xbe645dd1	-0.22301413
219	0xbe329626	-0.1744009
220	0xbe3f8464	-0.18702847
221	0xbe316988	-0.17325413
222	0xbbdda524	-0.006764071
223	0xbcdc28af	-0.026874868
224	0xbe2b1949	-0.16708864
225	0x3ccad429	0.024759369
226	0xbcf017b6	-0.029308181
227	0x3c9e7af5	0.01934574
228	0xbe6e4e79	-0.23272122
229	0x3e420104	0.189457
230	0x3c21bd7e	0.009871839
231	0xbcaacac1	-0.020848634
232	0xbe60f1a7	-0.21967183
233	0xbe40474a	-0.18777195
234	0xbe621971	-0.22080018
235	0xbe402552	-0.18764237
236	0xbe2c5264	-0.16828305
237	0xbe432b26	-0.19059429
238	0x3d026a3a	0.031839587
239	0xbcf41420	-0.029794753
240	0xbe45e4f2	-0.19325617
241	0xbe37f781	-0.17965509
242	0xbe6e096e	-0.23245785
243	0xbe6dd8ed	-0.23227282
244	0xbe525033	-0.20538406
245	0x3ca86141	0.020554187
246	0xbe6151fa	-0.22003928
247	0x3b19e1ac	0.0023480458
248	0xbcf9740e	-0.030450847
249	0x3c792b17	0.015208027
250	0xbc303195	-0.010754009
251	0x3e51dd0f	0.20494483
252	0xbe69244b	-0.22767751
253	0x3caea6af	0.021319715
254	0x3ce8139e	0.028329667
255	0xbe2cc63a	-0.16872492

conv3.bias f4 [32]
0	0x3ad34bd1	0.0016120618
1	0xbdb239c9	-0.08702428
2	0xbd54fd57	-0.051999416
3	0x3c747e57	0.0149227
4	0x3e0c06d8	0.13674486
5	0xbce40bf9	-0.02783774
6	0x3da59073	0.08084192
7	0x3d341879	0.04396865
8	0x3e2258ce	0.15854189
9	0xbe14a766	-0.14516982
10	0xbe1d50e7	-0.15362893
11	0xbe1e9416	-0.15486178
12	0x3e0173e2	0.12641862
13	0xbcd409ce	-0.025883581
14	0x3d3b149b	0.045673948
15	0xbe18419b	-0.14868777
16	0x39a0e36f	0.0003068703
17	0x3d7fc3f4	0.062442735
18	0x3d8932c4	0.06699136
19	0x3e2336e2	0.15938905
20	0x3ce73811	0.028224977
21	0x3dfef942	0.12449886
22	0x3e0608b2	0.13089254
23	0x3c9ca8a0	0.019123375
24	0xbda7304c	-0.08163509
25	0x3e3539c4	0.17697817
26	0x3d548d0d	0.05189233
27	0x3d8d49f5	0.06898872
28	0x3c319b77	0.010840288
29	0xbd42ca03	-0.047555935
30	0xbd69d566	-0.05708828
31	0xbdd0f589	-0.10203082

bn3.weight f4 [32]
0	0x3e092518	0.13393056
1	0x3e9a4142	0.30127913
2	0x3e1f7760	0.15572882
3	0x3e251808	0.16122448
4	0xbc4125c1	-0.011788786
5	0xbd3cf242	-0.046129473
6	0xbc7fa948	-0.015604325
7	0x3bc54f13	0.0060213893
8	0xbd790a7e	-0.06080102
9	0x3c5230e8	0.012829043
10	0x3df8d4b6	0.121499464
11	0x3d49d872	0.049278684
12	0x3e44f2fc	0.19233316
13	0x3dba7232	0.09103812
14	0x3d847eec	0.06469521
15	0x3d9497b8	0.072555006
16	0x3c06b50d	0.008221877
17	0x3e9cc97c	0.3062247
18	0xbc739f91	-0.014869587
19	0x3ede7528	0.43448758
20	0xbd063715	-0.032767374
21	0xbd01c745	-0.03168418
22	0x3c901c47	0.017591609
23	0x3d834278	0.06409162
24	0x3e7e9983	0.24863248
25	0x3d4b8030	0.049682796
26	0x3dd355cc	0.10319099
27	0x3e4a8fb1	0.19781376
28	0xba1b00a6	-0.00059128774
29	0xbd7d58e7	-0.061852362
30	0xbcf06027	-0.029342724
31	0xbc8daabe	-0.01729333

bn3.bias f4 [32]
0	0xbe4ccbeb	-0.19999664
1	0xbf2798a3	-0.6546728
2	0xbf35d0f7	-0.7102198
3	0xbe4ccab4	-0.199992
4	0xbe809283	-0.2511178
5	0xbebb4493	-0.36575755
6	0xbec82882	-0.39093405
7	0xbe9b4167	-0.30323336
8	0xbf06d989	-0.5267568
9	0xbf27d4d1	-0.6555911
10	0xbebdddfb	-0.3708342
11	0xbf2850d8	-0.6574836
12	0xbe917f62	-0.28417498
13	0xbec33f37	-0.38134167
14	0xbf12984b	-0.5726363
15	0xbf80fc7e	-1.0077055
16	0xbe9c3929	-0.3051236
17	0xbf162596	-0.586511
18	0xbedac702	-0.42729956
19	0xbf25e59e	-0.64803493
20	0xbe1c228c	-0.15247554
21	0xbe8f69e2	-0.2801047
22	0xbe4f9007	-0.20269786
23	0xbe4ccbea	-0.19999662
24	0xbf101316	-0.5627912
25	0xbec75627	-0.38932917
26	0xbe4cc2a5	-0.19996126
27	0xbe8eeac4	-0.27913487
28	0xbe3d72d2	-0.18500832
29	0xbd91338e	-0.070899114
30	0xbd5be44f	-0.05368453
31	0xbf1d2d52	-0.6139728

bn3.running_mean f4 [32]
0	0xc1341e39	-11.257379
1	0x418c4ba2	17.53693
2	0xc0a4d47f	-5.1509395
3	0xc125a07a	-10.351679
4	0xc0fe394c	-7.9444942
5	0xc12773e7	-10.465796
6	0x41204783	10.017459
7	0x40d67c9e	6.702712
8	0x40fb28e4	7.8487415
9	0xc0ead276	-7.338191
10	0xc0ccbb8f	-6.3978953
11	0x41397e71	11.5933695
12	0xc13f39db	-11.951625
13	0xc04d0f2c	-3.204051
14	0x41663c4b	14.38972
15	0xc10ae232	-8.680223
16	0x41107657	9.028892
17	0xc0326624	-2.7874842
18	0x40c1d737	6.0575213
19	0xbf7d770d	-0.9900978
20	0x41163a74	9.389271
21	0x407dd8a4	3.9663477
22	0x41452864	12.322361
23	0xc0aef9a7	-5.467975
24	0x40035028	2.0517673
25	0x3f68cf72	0.90941536
26	0xc11a03f5	-9.625966
27	0xc02a43b8	-2.6603832
28	0xc15d6358	-13.836754
29	0x3ff5dd9c	1.9208255
30	0x40b2e8dc	5.590925
31	0x405ca8dc	3.4478064

bn3.running_var f4 [32]
0	0x423d0b74	47.261185
1	0x445db11e	886.76746
2	0x43bdb403	379.40634
3	0x4282c2e3	65.38064
4	0x43b0b0dc	353.3817
5	0x42686524	58.09877
6	0x43237901	163.47267
7	0x436ab1f5	234.69514
8	0x42abf669	85.98127
9	0x429b1395	77.538246
10	0x43d6a873	429.316
11	0x4356e3c5	214.88972
12	0x42dddf15	110.93571
13	0x437d2194	253.13116
14	0x43baafd4	373.37366
15	0x439c9e8e	313.2387
16	0x41bc2ac1	23.520876
17	0x42bf09a4	95.51883
18	0x4386838d	269.02774
19	0x43ba41a7	372.5129
20	0x42b7f885	91.98539
21	0x43918752	291.0572
22	0x43951ab2	298.20856
23	0x42725f36	60.59298
24	0x428154da	64.665726
25	0x436f34dd	239.2065
26	0x42974c9a	75.64961
27	0x42157248	37.361603
28	0x4385212a	266.2591
29	0x42ba5d38	93.18207
30	0x424714e1	49.77039
31	0x440fe21e	575.5331

head.weight f4 [2, 24064]
0	0xbbbe968c	-0.0058162864
1	0x3b1db08c	0.002406153
2	0x3b95689e	0.0045595905
3	0x3bc40dc2	0.0059830854
4	0x3bc2b938	0.00594249
5	0x3b71dfac	0.0036907
6	0xbb869929	-0.0041076136
7	0x3dc62278	0.09674543
8	0x399b32fb	0.00029601887
9	0x3dc3e422	0.09564997
10	0xba09f120	-0.00052620657
11	0xbb815e7c	-0.003948031
12	0x3bab8160	0.0052339286
13	0xbb615fd9	-0.0034389405
14	0x3ba0691e	0.0048953434
15	0x3b103e00	0.002200961
16	0xbbba0a24	-0.0056774784
17	0x3bbb283e	0.0057115844
18	0x3aa43594	0.0012528175
19	0x3bb64d36	0.0055634035
20	0xbbb43ec9	-0.0055006486
21	0x3bc73a6a	0.0060799615
22	0x3aa8ff94	0.0012893551
23	0x3dcdda21	0.100513704
24	0x3b97f945	0.0046378695
25	0x3dca7d90	0.098872304
26	0x3aa30bd8	0.0012439443
27	0x3b99bee2	0.0046919445
28	0xbb3538f4	-0.0027652355
29	0xbab33e28	-0.001367514
30	0xbb0522a8	-0.0020314846
31	0x3b2c7304	0.0026313672
32	0xba04a440	-0.00050598755
33	0xb80c5280	-3.3455435e-05
34	0x3bcf70c6	0.0063305823
35	0xbb5f11c3	-0.0034037686
36	0x3ae8e2c0	0.0017767772
37	0x3a83a250	0.001004288
38	0x3b98af7e	0.004659592
39	0x3dd35a69	0.10319979
40	0x39a0c98a	0.00030667736
41	0x3dd49918	0.10380763
42	0x3b9c69de	0.0047733625
43	0x3b4d6ad8	0.0031344201
44	0xb9ebbd60	-0.00044963788
45	0xbb94dab2	-0.004542672
46	0xbb5ab851	-0.0033374021
47	0x38d534c0	0.00010166457
48	0xbbc603eb	-0.0060429475
49	0x3dd209b0	0.10255754
50	0x3dca9bf5	0.09893028
51	0xb917e649	-0.0001448627
52	0xb98ac83c	-0.00026470597
53	0x3bd7446f	0.006569437
54	0x3b4fbd3a	0.0031698481
55	0x3d624e5a	0.055250503
56	0x3bf4a8b4	0.0074664
57	0x3d5a6052	0.053314514
58	0x3bd8bf97	0.006614636
59	0x3ba02ead	0.0048883767
60	0xba8033d1	-0.0009781067
61	0x3bee5730	0.007273577
62	0x3dd3a447	0.10334068
63	0xbadb3efc	-0.0016727145
64	0x3b981036	0.0046406044
65	0x3ba0adea	0.0049035447
66	0x3dc86f63	0.0978687
67	0x3dd56765	0.104201116
68	0x3dc62b53	0.09676232
69	0x3dd99587	0.10624223
70	0x3dcce19b	0.10003968
71	0x3dcffa26	0.10155134
72	0x3dcafee7	0.099119
73	0x3dcf028a	0.10107906
74	0x3a602b78	0.0008551399
75	0x3dc70335	0.097174086
76	0x3dd71095	0.1050121
77	0xbba5ffcd	-0.005065894
78	0xbbae25aa	-0.0053145485
79	0xbbc862fe	-0.0061153164
80	0xbbca488b	-0.0061731986
81	0x3b9e0e56	0.0048234863
82	0xba954aac	-0.0011390052
83	0x3bcd58a4	0.0062666703
84	0x3b5e87e8	0.0033955518
85	0x39c65960	0.00037832092
86	0xb8c9d180	-9.623449e-05
87	0x3dcac15c	0.099001616
88	0x3bd06984	0.0063602347
89	0x3ad2bb20	0.0016077496
90	0xbb977c7e	-0.004622995
91	0xbbb4b1d7	-0.005514364
92	0xbaa1c33c	-0.001234151
93	0x3b171204	0.002305151
94	0xbb374b25	-0.0027968374
95	0x3dcef0f9	0.10104556
96	0x3ba74142	0.005104215
97	0x3a0140c8	0.00049306126
98	0x3dbfd83f	0.093674175
99	0x3b94504c	0.0045261737
100	0x3dce9895	0.100876965
101	0x3dd2b3a6	0.102881715
102	0x3dc68b4d	0.09694538
103	0x3dc200a6	0.0947278
104	0x3d17fe3f	0.037107702
105	0x3dcf7525	0.101297654
106	0xb786ac00	-1.6054139e-05
107	0x3dd357c0	0.10319471
108	0x3dd9f285	0.1064196
109	0x3dccaf95	0.09994427
110	0xbb56dc9a	-0.0032785297
111	0xba0fab48	-0.000548054
112	0x3b8afb9c	0.00424142
113	0xbb898e03	-0.0041978373
114	0x3aad1180	0.0013204068
115	0xbb145aac	-0.0022637052
116	0xba1640e8	-0.00057317177
117	0x3ba774e0	0.005110368
118	0x3adc01d8	0.0016785217
119	0x3dd878c9	0.10569913
120	0x3a26e6e9	0.0006366806
121	0x3dd798f9	0.10527224
122	0xbba9de25	-0.0051839524
123	0xbacd6760	-0.0015671067
124	0xbb77f56b	-0.003783549
125	0xbb88f899	-0.004180026
126	0xbadd0f74	-0.0016865567
127	0xbb3f195e	-0.0029159407
128	0x3b97f888	0.0046377815
129	0xbb609124	-0.0034266198
130	0x3a191778	0.0005839984
131	0xbb0438d6	-0.0020175478
132	0x3ba2dc16	0.004970084
133	0xbb3e0937	-0.0028997192
134	0x3b279454	0.0025570588
135	0x3dc0a178	0.09405798
136	0xbe526a96	-0.20548472
137	0x3dc8c8c6	0.098039195
138	0xbab0bce4	-0.0013484028
139	0x3b86712a	0.0041028457
140	0xbb1b546c	-0.0023701442
141	0x3bb7df26	0.005611318
142	0x3bbf4aee	0.0058377897
143	0x3b0dc1f4	0.0021630498
144	0xbdcf832a	-0.101324394
145	0x3dd035d1	0.10166515
146	0x3b87f6f8	0.004149314
147	0x3bb42aa8	0.005498249
148	0x3afa65e0	0.0019103847
149	0x3bbe9e7e	0.0058172336
150	0xbb628662	-0.0034564962
151	0x3dc4b1de	0.09604238
152	0x3d704de8	0.058668047
153	0x3dca8882	0.09889318
154	0x39ffb500	0.00048772246
155	0xbacace94	-0.0015472942
156	0xbb990843	-0.0046701743
157	0x3bb944dc	0.0056539606
158	0x3ad39cf0	0.0016144793
159	0xbb93456f	-0.004494361
160	0xbdc69294	-0.09695926
161	0x3aa33018	0.0012450246
162	0xba844de4	-0.0010094014
163	0xbb86a6a9	-0.004109223
164	0x3a8af4d8	0.0010601534
165	0x3ba7e420	0.00512363
166	0x3b85c048	0.0040817596
167	0x3dd57f5e	0.10424684
168	0xbac56ced	-0.001506237
169	0x3dced013	0.10098281
170	0x3bbfec2a	0.0058570104
171	0x3b716b5c	0.0036837673
172	0xbbb84405	-0.005623343
173	0x39eb6190	0.00044895383
174	0x3bbb6c8e	0.005719728
175	0x3b40874c	0.0029377518
176	0xbdd3f194	-0.10348812
177	0x3b0e8258	0.0021745171
178	0xbbab65f3	-0.005230659
179	0xbb07c188	-0.002071472
180	0xbbb73379	-0.005590853
181	0xbb8de2eb	-0.0043300292
182	0x39e8e460	0.0004442064
183	0x3dc338d1	0.09532321
184	0x3bc99ca8	0.006152708
185	0x3dca86ab	0.09888967
186	0xbb5a60f8	-0.0033321958
187	0x3b88b01c	0.0041713845
188	0x3ad2e6f8	0.0016090563
189	0xba4e4010	-0.00078678224
190	0x3b6459e4	0.0034843618
191	0x3b989c42	0.0046572993
192	0x3aae47a8	0.0013296502
193	0xbb0309a6	-0.0019994765
194	0xbaaf2504	-0.0013362472
195	0x3a98a5f4	0.0011646138
196	0x3b2c453c	0.0026286384
197	0x3bbed528	0.00582375
198	0x3b111dac	0.002214293
199	0x3dd4b204	0.10385516
200	0x3bcbace2	0.0062156776
201	0x3dc4ce0d	0.096096136
202	0x3adeaec8	0.0016989345
203	0x3acf4508	0.001581342
204	0x3bb235b6	0.0054385317
205	0x3b11a43c	0.0022223135
206	0xbb7b0f9d	-0.0038308867
207	0x3b304504	0.0026896605
208	0xbad61864	-0.0016334173
209	0xbb7073e8	-0.003669018
210	0xbbc7a8b5	-0.0060931095
211	0xbaed764c	-0.001811692
212	0xbba72fea	-0.0051021473
213	0x3a542678	0.00080928905
214	0x39685f60	0.00022160774
215	0x3dc98c45	0.098412074
216	0xbbbada4b	-0.005702292
217	0x3dc343d4	0.095344216
218	0x3ab72f48	0.0013975883
219	0x3b3c0724	0.002869078
220	0xbb84ce00	-0.0040528774
221	0x39a02e80	0.00030552223
222	0xbb1730ae	-0.0023069787
223	0xbb56d561	-0.0032780992
224	0xbbc49a78	-0.0059998594
225	0x3b9a6a48	0.0047123767
226	0xbbc18d24	-0.005906718
227	0x3af59398	0.0018736003
228	0xbb9fe1bc	-0.0048792046
229	0xbb949cb4	-0.004535282
230	0xbbd101f2	-0.0063784057
231	0x3dc139d9	0.09434862
232	0xba08a922	-0.0005213191
233	0x3dc5a40a	0.096504286
234	0x3b0a9a0c	0.0021148948
235	0xbb3fe0d5	-0.0029278297
236	0xbb09db2a	-0.0021035173
237	0x3bbb0766	0.005707669
238	0xbaf6f590	-0.0018841494
239	0xba361350	-0.0006945627
240	0xbbbf76e3	-0.00584303
241	0x3b50a054	0.0031833844
242	0xbb6f9cd6	-0.0036561987
243	0xbb6294f4	-0.0034573646
244	0xbada3baf	-0.0016649867
245	0xbbcfa707	-0.00633705
246	0x3b38ebb8	0.0028216671
247	0x3dd9dbbd	0.10637615
248	0xbb3a1f58	-0.002840003
249	0x3dd6360e	0.10459529
250	0xbdd69afe	-0.10478781
251	0xba358c1c	-0.000692548
252	0xbbbfa126	-0.005848068
253	0xbdc77ae6	-0.09740238
254	0xbba85e87	-0.0051382217
255	0x3dc16e3f	0.09444856

head.bias f4 [2]
0	0xbeba3d03	-0.36374673
1	0xbea4d580	-0.32194138

square_avg f4 [16, 1, 5, 5]
0	0x00000032	7e-44
1	0x00000032	7e-44
2	0x00000032	7e-44
3	0x00000032	7e-44
4	0x00000032	7e-44
5	0x00000032	7e-44
6	0x00000032	7e-44
7	0x00000032	7e-44
8	0x00000032	7e-44
9	0x00000032	7e-44
10	0x00000032	7e-44
11	0x00000032	7e-44
12	0x00000032	7e-44
13	0x00000032	7e-44
14	0x00000032	7e-44
15	0x00000032	7e-44
16	0x00000032	7e-44
17	0x00000032	7e-44
18	0x00000032	7e-44
19	0x00000032	7e-44
20	0x00000032	7e-44
21	0x00000032	7e-44
22	0x00000032	7e-44
23	0x00000032	7e-44
24	0x00000032	7e-44
25	0x00000032	7e-44
26	0x00000032	7e-44
27	0x00000032	7e-44
28	0x00000032	7e-44
29	0x00000032	7e-44
30	0x00000032	7e-44
31	0x00000032	7e-44
32	0x00000032	7e-44
33	0x00000032	7e-44
34	0x00000032	7e-44
35	0x00000032	7e-44
36	0x00000032	7e-44
37	0x00000032	7e-44
38	0x00000032	7e-44
39	0x00000032	7e-44
40	0x00000032	7e-44
41	0x00000032	7e-44
42	0x00000032	7e-44
43	0x00000032	7e-44
44	0x00000032	7e-44
45	0x00000032	7e-44
46	0x00000032	7e-44
47	0x00000032	7e-44
48	0x00000032	7e-44
49	0x00000032	7e-44
50	0x00000032	7e-44
51	0x00000032	7e-44
52	0x00000032	7e-44
53	0x00000032	7e-44
54	0x00000032	7e-44
55	0x00000032	7e-44
56	0x00000032	7e-44
57	0x00000032	7e-44
58	0x00000032	7e-44
59	0x00000032	7e-44
60	0x00000032	7e-44
61	0x00000032	7e-44
62	0x00000032	7e-44
63	0x00000032	7e-44
64	0x00000032	7e-44
65	0x00000032	7e-44
66	0x00000032	7e-44
67	0x00000032	7e-44
68	0x00000032	7e-44
69	0x00000032	7e-44
70	0x00000032	7e-44
71	0x00000032	7e-44
72	0x00000032	7e-44
73	0x00000032	7e-44
74	0x00000032	7e-44
75	0x00000032	7e-44
76	0x00000032	7e-44
77	0x00000032	7e-44
78	0x00000032	7e-44
79	0x00000032	7e-44
80	0x00000032	7e-44
81	0x00000032	7e-44
82	0x00000032	7e-44
83	0x00000032	7e-44
84	0x00000032	7e-44
85	0x00000032	7e-44
86	0x00000032	7e-44
87	0x00000032	7e-44
88	0x00000032	7e-44
89	0x00000032	7e-44
90	0x00000032	7e-44
91	0x00000032	7e-44
92	0x00000032	7e-44
93	0x00000032	7e-44
94	0x00000032	7e-44
95	0x00000032	7e-44
96	0x00000032	7e-44
97	0x00000032	7e-44
98	0x00000032	7e-44
99	0x00000032	7e-44
100	0x00000032	7e-44
101	0x00000032	7e-44
102	0x00000032	7e-44
103	0x00000032	7e-44
104	0x00000032	7e-44
105	0x00000032	7e-44
106	0x00000032	7e-44
107	0x00000032	7e-44
108	0x00000032	7e-44
109	0x00000032	7e-44
110	0x00000032	7e-44
111	0x00000032	7e-44
112	0x00000032	7e-44
113	0x00000032	7e-44
114	0x00000032	7e-44
115	0x00000032	7e-44
116	0x00000032	7e-44
117	0x00000032	7e-44
118	0x00000032	7e-44
119	0x00000032	7e-44
120	0x00000032	7e-44
121	0x00000032	7e-44
122	0x00000032	7e-44
123	0x00000032	7e-44
124	0x00000032	7e-44
125	0x00000032	7e-44
126	0x00000032	7e-44
127	0x00000032	7e-44
128	0x00000032	7e-44
129	0x00000032	7e-44
130	0x00000032	7e-44
131	0x00000032	7e-44
132	0x00000032	7e-44
133	0x00000032	7e-44
134	0x00000032	7e-44
135	0x00000032	7e-44
136	0x00000032	7e-44
137	0x00000032	7e-44
138	0x00000032	7e-44
139	0x00000032	7e-44
140	0x00000032	7e-44
141	0x00000032	7e-44
142	0x00000032	7e-44
143	0x00000032	7e-44
144	0x00000032	7e-44
145	0x00000032	7e-44
146	0x00000032	7e-44
147	0x00000032	7e-44
148	0x00000032	7e-44
149	0x00000032	7e-44
150	0x00000032	7e-44
151	0x00000032	7e-44
152	0x00000032	7e-44
153	0x00000032	7e-44
154	0x00000032	7e-44
155	0x00000032	7e-44
156	0x00000032	7e-44
157	0x00000032	7e-44
158	0x00000032	7e-44
159	0x00000032	7e-44
160	0x00000032	7e-44
161	0x00000032	7e-44
162	0x00000032	7e-44
163	0x00000032	7e-44
164	0x00000032	7e-44
165	0x00000032	7e-44
166	0x00000032	7e-44
167	0x00000032	7e-44
168	0x00000032	7e-44
169	0x00000032	7e-44
170	0x00000032	7e-44
171	0x00000032	7e-44
172	0x00000032	7e-44
173	0x00000032	7e-44
174	0x00000032	7e-44
175	0x00000032	7e-44
176	0x00000032	7e-44
177	0x00000032	7e-44
178	0x00000032	7e-44
179	0x00000032	7e-44
180	0x00000032	7e-44
181	0x00000032	7e-44
182	0x00000032	7e-44
183	0x00000032	7e-44
184	0x00000032	7e-44
185	0x00000032	7e-44
186	0x00000032	7e-44
187	0x00000032	7e-44
188	0x00000032	7e-44
189	0x00000032	7e-44
190	0x00000032	7e-44
191	0x00000032	7e-44
192	0x00000032	7e-44
193	0x00000032	7e-44
194	0x00000032	7e-44
195	0x00000032	7e-44
196	0x00000032	7e-44
197	0x00000032	7e-44
198	0x00000032	7e-44
199	0x00000032	7e-44
200	0x00000032	7e-44
201	0x00000032	7e-44
202	0x00000032	7e-44
203	0x00000032	7e-44
204	0x00000032	7e-44
205	0x00000032	7e-44
206	0x00000032	7e-44
207	0x00000032	7e-44
208	0x00000032	7e-44
209	0x00000032	7e-44
210	0x00000032	7e-44
211	0x00000032	7e-44
212	0x00000032	7e-44
213	0x00000032	7e-44
214	0x00000032	7e-44
215	0x00000032	7e-44
216	0x00000032	7e-44
217	0x00000032	7e-44
218	0x00000032	7e-44
219	0x00000032	7e-44
220	0x00000032	7e-44
221	0x00000032	7e-44
222	0x00000032	7e-44
223	0x00000032	7e-44
224	0x00000032	7e-44
225	0x00000032	7e-44
226	0x00000032	7e-44
227	0x00000032	7e-44
228	0x00000032	7e-44
229	0x00000032	7e-44
230	0x00000032	7e-44
231	0x00000032	7e-44
232	0x00000032	7e-44
233	0x00000032	7e-44
234	0x00000032	7e-44
235	0x00000032	7e-44
236	0x00000032	7e-44
237	0x00000032	7e-44
238	0x00000032	7e-44
239	0x00000032	7e-44
240	0x00000032	7e-44
241	0x00000032	7e-44
242	0x00000032	7e-44
243	0x00000032	7e-44
244	0x00000032	7e-44
245	0x00000032	7e-44
246	0x00000032	7e-44
247	0x00000032	7e-44
248	0x00000032	7e-44
249	0x00000032	7e-44
250	0x00000032	7e-44
251	0x00000032	7e-44
252	0x00000032	7e-44
253	0x00000032	7e-44
254	0x00000032	7e-44
255	0x00000032	7e-44

square_avg f4 [32, 32, 5, 5]
0	0x00000032	7e-44
1	0x00000032	7e-44
2	0x00000032	7e-44
3	0x00000032	7e-44
4	0x00000032	7e-44
5	0x00000032	7e-44
6	0x00000032	7e-44
7	0x00000032	7e-44
8	0x00000032	7e-44
9	0x00000032	7e-44
10	0x00000032	7e-44
11	0x00000032	7e-44
12	0x00000032	7e-44
13	0x00000032	7e-44
14	0x00000032	7e-44
15	0x00000032	7e-44
16	0x00000032	7e-44
17	0x00000032	7e-44
18	0x00000032	7e-44
19	0x00000032	7e-44
20	0x00000032	7e-44
21	0x00000032	7e-44
22	0x00000032	7e-44
23	0x00000032	7e-44
24	0x00000032	7e-44
25	0x00000032	7e-44
26	0x00000032	7e-44
27	0x00000032	7e-44
28	0x00000032	7e-44
29	0x00000032	7e-44
30	0x00000032	7e-44
31	0x00000032	7e-44
32	0x00000032	7e-44
33	0x00000032	7e-44
34	0x00000032	7e-44
35	0x00000032	7e-44
36	0x00000032	7e-44
37	0x00000032	7e-44
38	0x00000032	7e-44
39	0x00000032	7e-44
40	0x00000032	7e-44
41	0x00000032	7e-44
42	0x00000032	7e-44
43	0x00000032	7e-44
44	0x00000032	7e-44
45	0x00000032	7e-44
46	0x00000032	7e-44
47	0x00000032	7e-44
48	0x00000032	7e-44
49	0x00000032	7e-44
50	0x00000032	7e-44
51	0x00000032	7e-44
52	0x00000032	7e-44
53	0x00000032	7e-44
54	0x00000032	7e-44
55	0x00000032	7e-44
56	0x00000032	7e-44
57	0x00000032	7e-44
58	0x00000032	7e-44
59	0x00000032	7e-44
60	0x00000032	7e-44
61	0x00000032	7e-44
62	0x00000032	7e-44
63	0x00000032	7e-44
64	0x00000032	7e-44
65	0x00000032	7e-44
66	0x00000032	7e-44
67	0x00000032	7e-44
68	0x00000032	7e-44
69	0x00000032	7e-44
70	0x00000032	7e-44
71	0x00000032	7e-44
72	0x00000032	7e-44
73	0x00000032	7e-44
74	0x00000032	7e-44
75	0x00000032	7e-44
76	0x00000032	7e-44
77	0x00000032	7e-44
78	0x00000032	7e-44
79	0x00000032	7e-44
80	0x00000032	7e-44
81	0x00000032	7e-44
82	0x00000032	7e-44
83	0x00000032	7e-44
84	0x00000032	7e-44
85	0x00000032	7e-44
86	0x00000032	7e-44
87	0x00000032	7e-44
88	0x00000032	7e-44
89	0x00000032	7e-44
90	0x00000032	7e-44
91	0x00000032	7e-44
92	0x00000032	7e-44
93	0x00000032	7e-44
94	0x00000032	7e-44
95	0x00000032	7e-44
96	0x00000032	7e-44
97	0x00000032	7e-44
98	0x00000032	7e-44
99	0x00000032	7e-44
100	0x00000032	7e-44
101	0x00000032	7e-44
102	0x00000032	7e-44
103	0x00000032	7e-44
104	0x00000032	7e-44
105	0x00000032	7e-44
106	0x00000032	7e-44
107	0x00000032	7e-44
108	0x00000032	7e-44
109	0x00000032	7e-44
110	0x00000032	7e-44
111	0x00000032	7e-44
112	0x00000032	7e-44
113	0x00000032	7e-44
114	0x00000032	7e-44
115	0x00000032	7e-44
116	0x00000032	7e-44
117	0x00000032	7e-44
118	0x00000032	7e-44
119	0x00000032	7e-44
120	0x00000032	7e-44
121	0x00000032	7e-44
122	0x00000032	7e-44
123	0x00000032	7e-44
124	0x00000032	7e-44
125	0x00000032	7e-44
126	0x00000032	7e-44
127	0x00000032	7e-44
128	0x00000032	7e-44
129	0x00000032	7e-44
130	0x00000032	7e-44
131	0x00000032	7e-44
132	0x00000032	7e-44
133	0x00000032	7e-44
134	0x00000032	7e-44
135	0x00000032	7e-44
136	0x00000032	7e-44
137	0x00000032	7e-44
138	0x00000032	7e-44
139	0x00000032	7e-44
140	0x00000032	7e-44
141	0x00000032	7e-44
142	0x00000032	7e-44
143	0x00000032	7e-44
144	0x00000032	7e-44
145	0x00000032	7e-44
146	0x00000032	7e-44
147	0x00000032	7e-44
148	0x00000032	7e-44
149	0x00000032	7e-44
150	0x00000032	7e-44
151	0x00000032	7e-44
152	0x00000032	7e-44
153	0x00000032	7e-44
154	0x00000032	7e-44
155	0x00000032	7e-44
156	0x00000032	7e-44
157	0x00000032	7e-44
158	0x00000032	7e-44
159	0x00000032	7e-44
160	0x00000032	7e-44
161	0x00000032	7e-44
162	0x00000032	7e-44
163	0x00000032	7e-44
164	0x00000032	7e-44
165	0x00000032	7e-44
166	0x00000032	7e-44
167	0x00000032	7e-44
168	0x00000032	7e-44
169	0x00000032	7e-44
170	0x00000032	7e-44
171	0x00000032	7e-44
172	0x00000032	7e-44
173	0x00000032	7e-44
174	0x00000032	7e-44
175	0x00000032	7e-44
176	0x00000032	7e-44
177	0x00000032	7e-44
178	0x00000032	7e-44
179	0x00000032	7e-44
180	0x00000032	7e-44
181	0x00000032	7e-44
182	0x00000032	7e-44
183	0x00000032	7e-44
184	0x00000032	7e-44
185	0x00000032	7e-44
186	0x00000032	7e-44
187	0x00000032	7e-44
188	0x00000032	7e-44
189	0x00000032	7e-44
190	0x00000032	7e-44
191	0x00000032	7e-44
192	0x00000032	7e-44
193	0x00000032	7e-44
194	0x00000032	7e-44
195	0x00000032	7e-44
196	0x00000032	7e-44
197	0x00000032	7e-44
198	0x00000032	7e-44
199	0x00000032	7e-44
200	0x00000032	7e-44
201	0x00000032	7e-44
202	0x00000032	7e-44
203	0x00000032	7e-44
204	0x00000032	7e-44
205	0x00000032	7e-44
206	0x00000032	7e-44
207	0x00000032	7e-44
208	0x00000032	7e-44
209	0x00000032	7e-44
210	0x00000032	7e-44
211	0x00000032	7e-44
212	0x00000032	7e-44
213	0x00000032	7e-44
214	0x00000032	7e-44
215	0x00000032	7e-44
216	0x00000032	7e-44
217	0x00000032	7e-44
218	0x00000032	7e-44
219	0x00000032	7e-44
220	0x00000032	7e-44
221	0x00000032	7e-44
222	0x00000032	7e-44
223	0x00000032	7e-44
224	0x00000032	7e-44
225	0x00000032	7e-44
226	0x00000032	7e-44
227	0x00000032	7e-44
228	0x00000032	7e-44
229	0x00000032	7e-44
230	0x00000032	7e-44
231	0x00000032	7e-44
232	0x00000032	7e-44
233	0x00000032	7e-44
234	0x00000032	7e-44
235	0x00000032	7e-44
236	0x00000032	7e-44
237	0x00000032	7e-44
238	0x00000032	7e-44
239	0x00000032	7e-44
240	0x00000032	7e-44
241	0x00000032	7e-44
242	0x00000032	7e-44
243	0x00000032	7e-44
244	0x00000032	7e-44
245	0x00000032	7e-44
246	0x00000032	7e-44
247	0x00000032	7e-44
248	0x00000032	7e-44
249	0x00000032	7e-44
250	0x00000032	7e-44
251	0x00000032	7e-44
252	0x00000032	7e-44
253	0x00000032	7e-44
254	0x00000032	7e-44
255	0x00000032	7e-44
