PER_DDQN/logs/model/teste-new-image/teste-new-image0.pth (torch_old, 703138 bytes, 34 tensors)

conv1.weight f4 [16, 1, 5, 5]
0	0x3eb8ab0f	0.36068007
1	0x3ddaff00	0.10693169
2	0xbdaed83f	-0.085373394
3	0x3e8e4d6e	0.2779345
4	0x3e7b2d17	0.24528919
5	0x3e5dd937	0.21664892
6	0x3e94a4a8	0.29031873
7	0x3de60560	0.11231494
8	0x3e907af2	0.282188
9	0x3d99582f	0.07487523
10	0x3ea0cc23	0.31405744
11	0xbd0b884a	-0.034065522
12	0xbe3f642e	-0.1869056
13	0x3eb81a97	0.35957786
14	0x3d609185	0.05482628
15	0x3ed23dea	0.41062862
16	0x3ce813bd	0.028329724
17	0x3e1a994f	0.15097545
18	0x3ed92eaa	0.42418414
19	0x3dbdc5ed	0.09266267
20	0x3e21c518	0.15797842
21	0x3e19e8bd	0.15030189
22	0xbe8bf8c6	-0.27338237
23	0x3f1b166e	0.605811
24	0x3e171950	0.1475575
25	0x3cb23726	0.021754812
26	0xbf27350a	-0.65315306
27	0xbdf246ad	-0.118298866
28	0xbddc6d26	-0.10763006
29	0xbd808276	-0.062748834
30	0x3e9cd730	0.30632925
31	0xbe9a638c	-0.30154073
32	0xbeb5bbb2	-0.35494763
33	0xbe97ebf7	-0.29672214
34	0x3e25b4d4	0.16182262
35	0xbe1c99f5	-0.15293105
36	0xbec0e8a4	-0.3767749
37	0xbe584212	-0.21118954
38	0xbeb1f778	-0.34759116
39	0x3e1328bc	0.14371008
40	0x3d622b5d	0.055217136
41	0xbdc3be98	-0.09557837
42	0xbe23e7ef	-0.16006444
43	0xbe5d69db	-0.21622412
44	0x39aa8024	0.000325204
45	0x3e45c104	0.19311911
46	0x3eae5750	0.3405099
47	0x3dd988b0	0.10621774
48	0xbd74f7c0	-0.059806585
49	0xbbae7b8d	-0.005324787
50	0x3e1dcc6e	0.15410015
51	0x3ba18024	0.0049286056
52	0x3e88d9f9	0.267288
53	0x3e383857	0.17990242
54	0x3e93f5dc	0.28898513
55	0x3ec92d0c	0.3929218
56	0x3de9f770	0.11424148
57	0x3e8e00fc	0.27735126
58	0xbe26e74e	-0.16299173
59	0x3ea05db5	0.31321493
60	0x3e728086	0.2368184
61	0xbd8489d3	-0.064716004
62	0x3e8b677f	0.272274
63	0x3e2fd12b	0.17169635
64	0x3e95f515	0.29288545
65	0x3dd55adc	0.10417721
66	0xbda29bfd	-0.07939909
67	0x3e3692da	0.17829457
68	0x3d1f0981	0.038827423
69	0x3eb10ae4	0.3457862
70	0x3e267002	0.16253665
71	0xbe0e2c80	-0.13884163
72	0x3e1102e2	0.14161256
73	0x3ecf17ce	0.4044785
74	0x3e73537a	0.23762313
75	0xbedf93f3	-0.43667564
76	0x3d968434	0.073494345
77	0x3ed06818	0.40704417
78	0xbf054937	-0.5206484
79	0xbe8329db	-0.2561787
80	0xbe8aef05	-0.27135482
81	0x3d9fa677	0.077954225
82	0x3d13a351	0.036044423
83	0xbefd7f48	-0.4951117
84	0xbe981211	-0.29701284
85	0xbec0d524	-0.37662613
86	0x3b65c366	0.0035059093
87	0xbc7df616	-0.015500566
88	0xbd881f97	-0.0664665
89	0xbde80ef9	-0.11330981
90	0xbe131bd1	-0.1436608
91	0xbe86ce91	-0.26329473
92	0x3eb56ebc	0.35436046
93	0xbe0c7105	-0.13714989
94	0x3d6f9eb0	0.058500946
95	0xbec2bc85	-0.38034454
96	0xbecfc6b1	-0.40581277
97	0xbe6f4f3d	-0.23370071
98	0xbed7fac7	-0.42183515
99	0xbe569c5b	-0.20958082
100	0x3d60d142	0.054887064
101	0x3d68d16c	0.056840345
102	0x3e5ef6b7	0.21773802
103	0x3ea53f8a	0.3227504
104	0x3eafa3de	0.34304708
105	0x3dbb2469	0.09137804
106	0xbd56d220	-0.052446485
107	0xbe3779a2	-0.17917493
108	0xbed72867	-0.42023012
109	0x3ec75388	0.38930917
110	0x3f2ccd10	0.675004
111	0x3f519ac6	0.8187679
112	0xbe330351	-0.17481734
113	0xbe587461	-0.21138145
114	0x3e8311cd	0.25599518
115	0x3e9ce917	0.30646583
116	0x3f2129f8	0.62954664
117	0xbe02a607	-0.12758647
118	0xbe047af3	-0.12937526
119	0x3ea63794	0.32464278
120	0x3de37f4e	0.11108266
121	0x3e236f2f	0.15960382
122	0xbda347b2	-0.07972659
123	0xbec0d48b	-0.37662157
124	0x3ccb7e1a	0.024840403
125	0x3dd644b2	0.10462321
126	0xbcf99048	-0.030464306
127	0xbe0cfa94	-0.13767463
128	0x3e4aae12	0.19792965
129	0xbdb95498	-0.09049338
130	0x3e0d7faf	0.13818239
131	0x3c030e10	0.007998958
132	0xbd488d4e	-0.048962884
133	0x3d2672f7	0.040636983
134	0x3dacafcd	0.08431969
135	0xbcf21668	-0.0295517
136	0xbe9dda49	-0.308306
137	0xbdfb405b	-0.12268134
138	0xbcba0afe	-0.02271032
139	0xbeb3d442	-0.35122877
140	0xbe9287e4	-0.286193
141	0xbda1c633	-0.078991316
142	0xbe82255a	-0.25419122
143	0xbd662aad	-0.056193043
144	0xbec9f766	-0.39446563
145	0xbe4db593	-0.20088796
146	0xbc7937ee	-0.015211089
147	0xbe9f2922	-0.3108607
148	0xbd6077c7	-0.05480173
149	0xbe9a617e	-0.30152506
150	0xbe0e2e59	-0.13884868
151	0xbe972d69	-0.29526833
152	0x3c800ccb	0.0156311
153	0xbe9c8ff2	-0.30578572
154	0xbdefe26d	-0.11713109
155	0x3d455ad2	0.048182316
156	0xbe83def9	-0.25756052
157	0x3ec600f8	0.38672614
158	0xbdf35ae7	-0.118825726
159	0x3e223dee	0.15843937
160	0x3d4c7733	0.049918365
161	0xbeab8a96	-0.3350417
162	0x3f0d8bd6	0.552915
163	0xbe592c66	-0.21208343
164	0xbd49e8d6	-0.049294315
165	0xbd85f799	-0.06541366
166	0x3e33d9f0	0.17563605
167	0x3f2716e0	0.6526928
168	0xbea325ea	-0.31864864
169	0x3daa0980	0.08302593
170	0xbdf1b841	-0.11802722
171	0xbe9f98fa	-0.311714
172	0x3da26c0c	0.079307646
173	0xbedccb86	-0.43124026
174	0xbe0812f8	-0.13288486
175	0xbea82be7	-0.32845995
176	0xbe9bb9f1	-0.304153
177	0xbe0f02cd	-0.13965912
178	0x3c143c85	0.009047632
179	0xbe0fd589	-0.14046301
180	0x3e1e2c08	0.15446484
181	0xbf07ce03	-0.53048724
182	0x3e1e1395	0.15437157
183	0xbdd2e69b	-0.10297891
184	0x3e16427a	0.14673796
185	0xbdfede29	-0.124447174
186	0xbeee3695	-0.46526018
187	0x3e54bbaa	0.20774713
188	0xbdd00b10	-0.1015836
189	0xbe152da5	-0.14568193
190	0xbd92b36b	-0.071631275
191	0xbe970fa2	-0.29504114
192	0x3e53e948	0.20694458
193	0xbe1e7f9d	-0.15478368
194	0x3e6c5b86	0.23081788
195	0xbe367c86	-0.1782094
196	0xbebf7674	-0.3739506
197	0xbe0895f7	-0.13338457
198	0xbe30f353	-0.17280321
199	0xbde08549	-0.10962922
200	0xbe5e69e6	-0.21720085
201	0xbeaa6f3b	-0.33287987
202	0x3daf34d4	0.08554998
203	0xbe9814d1	-0.29703382
204	0xbdb94d56	-0.09047954
205	0xbe21a109	-0.15784086
206	0xbebbc993	-0.36677226
207	0x3e5fc5e7	0.21852838
208	0xbe42ea1c	-0.19034618
209	0x3e0564b9	0.13026704
210	0xbe744ecd	-0.23858185
211	0xbe10cfe4	-0.14141804
212	0xbdaa2f8b	-0.08309849
213	0xbe5a3721	-0.21310093
214	0xba7e6c63	-0.0009705482
215	0xbe1bff43	-0.15234093
216	0xbe462ee6	-0.19353828
217	0x3e6ad06a	0.22931066
218	0xbe6fea2c	-0.23429173
219	0xbe1a19d6	-0.15048918
220	0xbc5ff3be	-0.0136689525
221	0xbedb18b6	-0.4279229
222	0xbd895090	-0.06704819
223	0xbecc4b71	-0.39901307
224	0x3d1212f4	0.035662606
225	0x3ca1356d	0.019678796
226	0xbc0a9eaa	-0.00846068
227	0x3e0600f5	0.13086303
228	0x3c96097a	0.018315066
229	0xbcc60a91	-0.02417496
230	0xbe50c521	-0.20387699
231	0x3c543467	0.012951947
232	0x3e62680f	0.22110008
233	0xbe50d242	-0.20392707
234	0x3cab9488	0.020944849
235	0xbeb1288a	-0.3460124
236	0xbea77354	-0.32705176
237	0x3ebbb302	0.3666001
238	0xbe992a76	-0.29915208
239	0x3eca9fd0	0.39575052
240	0x3e5c9d0d	0.21544285
241	0xbe03a2a4	-0.12855011
242	0x3f064f82	0.5246507
243	0xbe8486d8	-0.25884128
244	0x3ef80b39	0.48446062
245	0xbd0eabf1	-0.034831945
246	0xbf039910	-0.5140543
247	0x3eacc0f5	0.33740965
248	0xbedf297d	-0.4358634
249	0xbd1a39db	-0.03765283
250	0x3e9491f3	0.290176
251	0x3d604ae1	0.05475891
252	0x3f0cdaa7	0.55021137
253	0xbd89cf00	-0.06728935
254	0x3e998d63	0.29990682
255	0x3db22a6d	0.08699498

conv1.bias f4 [16]
0	0x3d525a67	0.051355746
1	0x3e6a2c3d	0.22868438
2	0xbe4e6d2e	-0.20158836
3	0x3e8720ac	0.26392114
4	0xbdbc21c9	-0.091861315
5	0x3e107ac1	0.14109327
6	0x3e8aade7	0.27085802
7	0x3e45d8b7	0.19320951
8	0xbd006e14	-0.03135498
9	0xbe20ba99	-0.15696181
10	0xbea4d624	-0.32194626
11	0x3e34146e	0.17585918
12	0x3e5ac65f	0.21364735
13	0x3e46a523	0.19398932
14	0x3e1cc92b	0.15311114
15	0xbebd50b4	-0.36975634

bn1.weight f4 [16]
0	0xbe87cf17	-0.26525185
1	0x3e474855	0.19461186
2	0x3f12e253	0.57376593
3	0x3f13abe4	0.5768416
4	0x3eee22c5	0.46510902
5	0x3c720b3b	0.014773185
6	0x3f0796dc	0.5296457
7	0x3e30c500	0.1726265
8	0x3e801e13	0.25022945
9	0x3e894755	0.26812235
10	0x3f18728d	0.5954979
11	0x3e9faa3f	0.31184575
12	0x3ef9f566	0.48820037
13	0x3dd80108	0.10547072
14	0x3ee534e3	0.44766912
15	0x3f48d030	0.7844267

bn1.bias f4 [16]
0	0xbe90a6b8	-0.28252196
1	0x3d136c60	0.035992026
2	0x3e43d4a7	0.19124089
3	0xbf337dcf	-0.70113844
4	0xbe9f8d70	-0.31162596
5	0xbe4ccba5	-0.19999559
6	0x3eba62ae	0.36403412
7	0x3eeeef6b	0.46667036
8	0x3ed1bf9e	0.40966505
9	0x3ea759c9	0.32685688
10	0x3ef13caa	0.47116596
11	0x3d67f2a1	0.056627873
12	0x3ea8f9f7	0.33003208
13	0xbe9286f6	-0.28618592
14	0x3f122cb1	0.57099444
15	0x3e260ded	0.1621625

bn1.running_mean f4 [16]
0	0x3fd65d15	1.6747156
1	0xbf1ab635	-0.60434276
2	0x3fadff01	1.3593446
3	0xbfa1d8af	-1.2644252
4	0x3f86e5ca	1.0538876
5	0xbf4faa60	-0.81119347
6	0xbdee8a52	-0.11647476
7	0xbf5b5e74	-0.85691
8	0xbfa2f3f8	-1.2730703
9	0xbe448e3d	-0.19194885
10	0x3f04766e	0.5174321
11	0x3fc33f94	1.5253778
12	0xbf2658e3	-0.6497938
13	0x3fdc75b5	1.7223421
14	0xbf3c9ec2	-0.73679745
15	0x3f7560d4	0.95850873

bn1.running_var f4 [16]
0	0x3d355909	0.044274364
1	0x3ca879dc	0.02056592
2	0x3d3d3db3	0.04620142
3	0x3d0d96f7	0.0345678
4	0x3d0a0f40	0.03370595
5	0x3cbca48e	0.023027685
6	0x3b4d62fc	0.0031339517
7	0x3c98c508	0.01864864
8	0x3cc44e43	0.0239631
9	0x3b51c280	0.00320068
10	0x3c5ec42a	0.013596574
11	0x3d09c174	0.033631757
12	0x3c3ff882	0.011716964
13	0x3d39a198	0.045320123
14	0x3c286e63	0.0102802245
15	0x3d1c6307	0.038180377

conv2.weight f4 [32, 16, 5, 5]
0	0xbb304cd7	-0.002690127
1	0xbe1d9419	-0.15388526
2	0xbe5ea679	-0.21743192
3	0x3d06a570	0.032872617
4	0xbe7c0e25	-0.2461477
5	0xbe7a9567	-0.24471055
6	0xbe666d49	-0.22502626
7	0xbe44cba9	-0.19218315
8	0xbe4d9432	-0.20076063
9	0xbe5a73bb	-0.2133321
10	0xbe34d581	-0.1765957
11	0xbe581f94	-0.21105796
12	0xbe5709c0	-0.20999813
13	0xbe6e7017	-0.23284946
14	0xbe391ae7	-0.18076669
15	0xbe55ae30	-0.20867229
16	0xbe3e6064	-0.18591458
17	0xbe454146	-0.19263181
18	0xbe605f25	-0.21911295
19	0xbe3e362c	-0.18575352
20	0x3c364b65	0.011126374
21	0xbcb40f22	-0.021979872
22	0xbe64d4ef	-0.22346853
23	0xbe29eba4	-0.16593796
24	0xbe4d0385	-0.20020874
25	0xbab63b73	-0.0013903215
26	0xbe1b91c0	-0.15192318
27	0xbd27498a	-0.040841617
28	0x3a596bd9	0.00082939636
29	0xbd16c56d	-0.036809374
30	0x3d304281	0.043032173
31	0xbe79f3e7	-0.24409448
32	0xbe1ca36f	-0.1529672
33	0x3a9ea433	0.0012103379
34	0x3d007541	0.031361822
35	0xbd3293b5	-0.043597896
36	0xbca6c440	-0.020357251
37	0xbe15dab8	-0.14634216
38	0xbd0fb8e1	-0.035088424
39	0xbc9b7ad5	-0.01897947
40	0xbc238d5c	-0.009982433
41	0x3d32b814	0.04363258
42	0xbe5d0361	-0.2158332
43	0xbd314735	-0.0432808
44	0x3ca121a6	0.019669365
45	0xbe4613bc	-0.19343466
46	0xbe70c9c6	-0.2351447
47	0xbe1d30ed	-0.15350695
48	0x3ca3dda0	0.02000314
49	0xbb588171	-0.0033036137
50	0xbe3748a0	-0.17898798
51	0x3deed2b8	0.11661285
52	0x3c6367e0	0.013879746
53	0xbe1f5f44	-0.15563685
54	0xbd51f7e1	-0.051261786
55	0xbe1f5819	-0.1556095
56	0xbe5f3878	-0.21798885
57	0xbde2668b	-0.11054715
58	0xbdb50c53	-0.08840241
59	0xbda29edf	-0.079404585
60	0xbe3be609	-0.1834947
61	0xbdcd3e76	-0.10021679
62	0xbe0ea093	-0.13928442
63	0xbd8c8fb2	-0.06863345
64	0xbdca2053	-0.098694466
65	0xb9ab52c5	-0.0003267733
66	0x3d4d5d4c	0.050137803
67	0xbe040ac7	-0.12894736
68	0xbddb28fd	-0.10701177
69	0x3e2a6de7	0.16643487
70	0xbd21dcab	-0.039517086
71	0x3dddfde2	0.1083944
72	0x3b65a7b9	0.0035042597
73	0xbd628f5f	-0.05531251
74	0x3d40c15b	0.0470594
75	0xbe4c4516	-0.19948229
76	0xbe47c93a	-0.19510356
77	0xbe4a481d	-0.19754072
78	0xbe3d633e	-0.18494889
79	0xbe4b0a78	-0.19828212
80	0xbe399b8c	-0.18125743
81	0xbe6ba686	-0.23012742
82	0xbe3f022b	-0.18653171
83	0xbe4ac7f4	-0.19802839
84	0xbe48a9a2	-0.1959596
85	0x3b51be30	0.003200423
86	0xbe551e33	-0.20812301
87	0xbe56ac78	-0.20964229
88	0xbe55f7a1	-0.20895244
89	0xbe307568	-0.17232287
90	0x3c158dde	0.009128062
91	0x3c1c3ce1	0.009535999
92	0xbe55c78e	-0.20876905
93	0xbe376795	-0.17910607
94	0xbe275b11	-0.16343333
95	0x3cf3b019	0.029747056
96	0xbe71ea1b	-0.2362446
97	0xbe5ae92f	-0.21378015
98	0xbe2a446d	-0.16627665
99	0xbe6933ac	-0.22773618
100	0x3cdac565	0.026705453
101	0xbd1ba62f	-0.038000282
102	0xbe26a55b	-0.16274016
103	0x3e75ec94	0.24016029
104	0x3e2809b1	0.16409947
105	0xbe5fecc1	-0.21867658
106	0xbcc105b2	-0.023562286
107	0xbda1b444	-0.07895711
108	0xbcf14aa6	-0.02945454
109	0xbdbddd57	-0.09270733
110	0xb9af8a01	-0.00033481422
111	0x3c8b0b05	0.016973028
112	0x3e50a654	0.20375949
113	0x3e17b134	0.14813691
114	0xbd37001d	-0.044677842
115	0xbd362f10	-0.044478476
116	0x3e25839a	0.16163483
117	0x3e45abbd	0.19303794
118	0x3e2246b1	0.15847279
119	0x3e1ff9e7	0.15622674
120	0xbe5aa3a3	-0.21351485
121	0xbd18f7aa	-0.037345566
122	0xbdf914c6	-0.12162165
123	0x3c0187f6	0.007905951
124	0x3d3a2917	0.045449343
125	0x3bd11fa0	0.006381944
126	0x3cff372d	0.03115424
127	0xbe77e00d	-0.24206562
128	0x3cbc51a0	0.02298814
129	0xbc49873b	-0.012300308
130	0x3d1afc4c	0.037838265
131	0xbe377028	-0.17913878
132	0xbe6b43f5	-0.22975142
133	0xbd1376a7	-0.036001828
134	0xbcb0b10d	-0.0215688
135	0xbe5b03db	-0.2138819
136	0xbe4908bc	-0.19632238
137	0xbe222c1d	-0.1583714
138	0x3ce2d502	0.02768946
139	0xbc54cbdd	-0.012988058
140	0x3c69d368	0.014271595
141	0xbe581b8e	-0.21104261
142	0xbc2034d8	-0.009778224
143	0x3d4515cf	0.0481165
144	0x3d1e3402	0.038623817
145	0x3c60b981	0.013716103
146	0xbd0bf2f4	-0.034167245
147	0x3d2601f0	0.04052919
148	0xbd40f8cf	-0.047112282
149	0x3d2bbd70	0.04192871
150	0xbd0fcc25	-0.035106797
151	0x3c8e40a8	0.017364815
152	0xbd468759	-0.04846892
153	0xbe21cae7	-0.15800057
154	0xbe51646e	-0.20448467
155	0x3ce9021c	0.028443389
156	0xbcb48f25	-0.022040913
157	0x3d346a78	0.04404685
158	0xbd4087aa	-0.04700438
159	0xbe1dc74b	-0.15408055
160	0xbd2c8f8d	-0.04212909
161	0xbe77a9ad	-0.2418582
162	0xbe3b51b6	-0.18292889
163	0xbe45a480	-0.19301033
164	0xbe633e1d	-0.22191663
165	0xbd2e5bba	-0.042567946
166	0x3c425f4a	0.011863539
167	0xbb065303	-0.0020496256
168	0xbe578dcd	-0.21050186
169	0xbe6bf617	-0.23043095
170	0x3ccaabb4	0.024740078
171	0xbcbeaceb	-0.023275813
172	0xbd47d1f2	-0.048784204
173	0xbe5d0c30	-0.2158668
174	0xbe432062	-0.19055322
175	0x3c01a501	0.007912875
176	0xbd1142ab	-0.03546397
177	0xbe7804d6	-0.24220595
178	0xbd1516ff	-0.036398884
179	0xbe48a8e3	-0.19595675
180	0x3c6e1fde	0.014533965
181	0xbb8cd903	-0.0042983308
182	0xbe67f9bc	-0.2265386
183	0x3bda764f	0.0066669355
184	0xbe7545d8	-0.23952425
185	0x3bb190e7	0.005418885
186	0xbe719bca	-0.23594585
187	0xbba8639b	-0.005138827
188	0xbb762dd3	-0.0037563934
189	0xbe4b172c	-0.19833058
190	0xbe46f83a	-0.19430628
191	0xbe648ab0	-0.2231853
192	0xbe23cdda	-0.15996495
193	0xbe2e5ea6	-0.17028293
194	0xbe22bde2	-0.15892747
195	0xbe674712	-0.22585705
196	0xbe6d5d27	-0.23180066
197	0xbe7896a9	-0.24276222
198	0xbe4bfdfc	-0.19921106
199	0xbe38d394	-0.1804946
200	0x3cb5ee32	0.022208307
201	0xbe720433	-0.23634414
202	0x3bbbaa2c	0.005727073
203	0x3cd5a5f7	0.026080115
204	0xbe4c09e9	-0.19925655
205	0x3d19c655	0.03754266
206	0xbe6cf19d	-0.23139043
207	0xbe461e91	-0.19347598
208	0xbd26892e	-0.04065817
209	0xbe2ef485	-0.17085464
210	0xbe38d29d	-0.18049093
211	0xbe1de054	-0.15417606
212	0xbe2430af	-0.16034196
213	0xbe625e82	-0.22106364
214	0xbe42054b	-0.18947332
215	0xbe4e5379	-0.2014903
216	0xbe3ed0f5	-0.18634398
217	0xbe5861f3	-0.21131115
218	0xbe1d01d7	-0.15332733
219	0xbe684954	-0.22684222
220	0x3cadb44d	0.021204138
221	0xbe774e67	-0.24151002
222	0x3d24ecf5	0.040265042
223	0xbe4ef828	-0.20211852
224	0xbe1a3594	-0.15059501
225	0xbe66df2c	-0.22546071
226	0xbe71d4ac	-0.23616284
227	0xbe6a8200	-0.22901154
228	0xbe3f5a7e	-0.18686864
229	0xbe6f379b	-0.23361056
230	0xbe789f20	-0.24279451
231	0xbe6a79a9	-0.22897972
232	0xbe7b0c1f	-0.24516343
233	0xbe4131cd	-0.18866654
234	0xbe5674c1	-0.20942976
235	0xbe552ae8	-0.20817149
236	0xbe5a9b9a	-0.2134842
237	0xbe5cbd0a	-0.21556488
238	0xbe1dbfad	-0.1540515
239	0xbe38f12c	-0.1806075
240	0xbe23d081	-0.15997507
241	0xbe642ccd	-0.22282715
242	0xbe6703cd	-0.22560044
243	0xbe728f96	-0.23687586
244	0xbe6f98a6	-0.23398075
245	0x3b7320df	0.003709845
246	0x3d2716ed	0.040793348
247	0xbd3c7a0b	-0.046014827
248	0x3c67f762	0.014158102
249	0xbe6d257e	-0.23158833
250	0x3e1d1825	0.15341242
251	0xbd1bc2b1	-0.03802747
252	0x3d1db7e1	0.03850544
253	0xbc5cc25b	-0.013474072
254	0x3ce5c83a	0.028049577
255	0x3e48e94a	0.19620243

conv2.bias f4 [32]
0	0x3de2646f	0.110543124
1	0x3f18875b	0.59581536
2	0x3dabf228	0.08395797
3	0x400409da	2.0631013
4	0x3fb9eefb	1.4526056
5	0xbd746f55	-0.059676487
6	0x3fea033a	1.8282235
7	0x3f3d4218	0.73928976
8	0x3ffa6141	1.956093
9	0x40176fa2	2.3661885
10	0x3e0fafdd	0.1403193
11	0x3f18a056	0.59619653
12	0x3f9485d1	1.1603338
13	0x400d6d5a	2.2097993
14	0x401732e7	2.3624818
15	0x3db425d9	0.08796281
16	0xc019e6dd	-2.4047158
17	0x3f41fafb	0.7577359
18	0x3f59e2c8	0.85111666
19	0x3fff04b8	1.9923315
20	0xc009e811	-2.1547892
21	0x3fe1aaa1	1.7630197
22	0x3ef21177	0.4727895
23	0x40102a73	2.252591
24	0x3fe5d09a	1.7954285
25	0x3fae0ef7	1.3598317
26	0x3fe86eec	1.8158851
27	0x3da30806	0.07960515
28	0x4013308f	2.2998388
29	0x3d557d8b	0.05212168
30	0x400314d8	2.0481472
31	0x3fe49c6e	1.7860239

bn2.weight f4 [32]
0	0x3e70a4b1	0.23500325
1	0xbc8e7eab	-0.017394384
2	0x3cce79d6	0.02520458
3	0x3f035f28	0.5131707
4	0x3db08984	0.08619979
5	0x3d98589a	0.074387744
6	0x3f05f64d	0.5232895
7	0x3ee569d9	0.44807318
8	0x3fa87620	1.3161049
9	0x3faab34b	1.3335966
10	0xbd44b562	-0.048024543
11	0x3e749bf0	0.2388761
12	0x3f66af20	0.9011097
13	0x3f18eeec	0.59739566
14	0x3f3234b5	0.69611675
15	0x3d4168f1	0.04721922
16	0xbf03e255	-0.5151723
17	0x3c8d9608	0.017283455
18	0x3f4151cc	0.7551544
19	0x3f80c2ae	1.0059412
20	0xbf338add	-0.70133764
21	0x3f124077	0.57129616
22	0x3cfed8b9	0.0311092
23	0x3fab2d0d	1.3373123
24	0x3e9f7c0d	0.3114933
25	0x3ed2b40d	0.41152993
26	0x3e1ba77f	0.15200613
27	0x3d7d6f08	0.061873466
28	0x3f1a5217	0.6028151
29	0x39506e0a	0.00019877419
30	0x3ebaa964	0.3645736
31	0x3f6a8ef2	0.9162437

bn2.bias f4 [32]
0	0xbe509225	-0.2036825
1	0xbeb95303	-0.36196145
2	0xbe4cd58f	-0.20003341
3	0xbdaae923	-0.083452486
4	0x3e3cd577	0.18440805
5	0x3dea0870	0.114273906
6	0xbec99dea	-0.3937829
7	0xbe40b7d5	-0.18820126
8	0xbdaea212	-0.08527006
9	0xbeb0d987	-0.3454096
10	0xbe4cc8e6	-0.19998512
11	0xbe13ea4f	-0.1444485
12	0xbeffcd59	-0.49961355
13	0xbd9a6ddc	-0.07540485
14	0xbe9f8a9b	-0.31160435
15	0xbe4c9624	-0.19979149
16	0xbe6ebec0	-0.23314953
17	0xbe8a718e	-0.2703976
18	0xbe9b87bb	-0.30376992
19	0xba840b82	-0.001007423
20	0xbf0064e0	-0.50153923
21	0xbda19d1a	-0.07891293
22	0xbeac34a0	-0.336339
23	0xbe8c9958	-0.27460742
24	0x3e20d3fa	0.15705863
25	0xbea13649	-0.3148673
26	0x3e5303d3	0.20606928
27	0xbe4cc85c	-0.19998306
28	0xbe0a9be8	-0.13536036
29	0xbdcccc37	-0.099998884
30	0xbe0eb73e	-0.13937089
31	0xbe6dde82	-0.23229411

bn2.running_mean f4 [32]
0	0xc12019ac	-10.006268
1	0x4153c12b	13.23466
2	0xbf85628f	-1.0420703
3	0xc1046fda	-8.2773075
4	0x418d9745	17.698862
5	0x4056adde	3.354362
6	0x416fb59e	14.98184
7	0x4150b008	13.042976
8	0x419216d9	18.261156
9	0x419c63dd	19.548761
10	0x4057afa2	3.3700948
11	0x413b3ac4	11.701847
12	0x41989a78	19.075424
13	0xc14bd033	-12.73833
14	0x413bafad	11.73039
15	0xc1371117	-11.441672
16	0xc19edcee	-19.857876
17	0xbf232be9	-0.63738877
18	0x419b0ec7	19.382215
19	0x41a9b43c	21.213005
20	0xc1b70b7b	-22.880606
21	0xc1310b70	-11.065292
22	0x4164171f	14.255645
23	0x41aa79f0	21.30954
24	0xc11adfbb	-9.679622
25	0x41861b1a	16.763233
26	0xc1606812	-14.025408
27	0xc0968abf	-4.704437
28	0xc0e4e3cc	-7.152807
29	0xbf1bbfc9	-0.60839516
30	0xc10009a2	-8.002352
31	0x418249a8	16.285965

bn2.running_var f4 [32]
0	0x41dd1441	27.63489
1	0x41347808	11.2793045
2	0x409ae9c6	4.841037
3	0x4297a02c	75.812836
4	0x41dc778b	27.55837
5	0x41c59c00	24.701172
6	0x420a8ba2	34.63636
7	0x41d6358f	26.776152
8	0x422fa1f3	43.908154
9	0x420deee5	35.483295
10	0x4095b1d9	4.67796
11	0x41c33ee7	24.405714
12	0x42116ce2	36.35633
13	0x42bb8f8e	93.78038
14	0x42a3a947	81.83062
15	0x41cfde78	25.983627
16	0x42717d60	60.372437
17	0x40467819	3.1010802
18	0x4206ac5f	33.66833
19	0x425880c3	54.125744
20	0x4298043a	76.008255
21	0x42bb508f	93.65734
22	0x41c07c3b	24.06066
23	0x41b12a59	22.145678
24	0x428b1f4a	69.56111
25	0x41f617c8	30.761612
26	0x427442e9	61.065342
27	0x412afd6a	10.686869
28	0x42180d90	38.013245
29	0x3edfbae0	0.43697262
30	0x42129996	36.649986
31	0x41c50b1c	24.630424

conv3.weight f4 [32, 32, 5, 5]
0	0xbdb25cab	-0.08709081
1	0xbc30afea	-0.010784129
2	0x3c81cf7e	0.01584601
3	0xbe353bad	-0.17698546
4	0xbe3a874f	-0.18215679
5	0xbe382f11	-0.17986704
6	0xbc9b3b5d	-0.018949205
7	0xbc9d77ac	-0.019222103
8	0xbe57bde3	-0.2106853
9	0xbe6b923a	-0.23005
10	0xbe3137e9	-0.17306484
11	0xb81a88cd	-3.6843867e-05
12	0x3d04579a	0.032310106
13	0xbe63e699	-0.22255935
14	0xbe5b162e	-0.2139518
15	0xbe6dd505	-0.23225792
16	0x3c8b6f16	0.017020743
17	0xbb0fc6ac	-0.0021938486
18	0x3cc30ae2	0.0238089
19	0xbe678878	-0.22610652
20	0xbe281429	-0.1641394
21	0xbc2d9d24	-0.010596547
22	0xbc1f309c	-0.009716179
23	0xbe6258de	-0.22104213
24	0xbe3a2fe2	-0.18182328
25	0xbd98c1a8	-0.07458812
26	0xbdc12508	-0.09430891
27	0xbdb7b092	-0.08969225
28	0xbe82c2c3	-0.25539216
29	0xbc73beed	-0.014877063
30	0x3dca7036	0.09884684
31	0xbdc1ce59	-0.09463186
32	0xbe26e9b8	-0.16300094
33	0x3ce82d4a	0.028341908
34	0x3d703512	0.05864436
35	0x3db25e33	0.08709373
36	0xbc934f20	-0.017982066
37	0x3c00a798	0.007852457
38	0x3d6a74a9	0.057240162
39	0x3d092088	0.03347829
40	0x3e9674c3	0.29385957
41	0x3d64bc3c	0.055843577
42	0xbd2d674d	-0.042334843
43	0x3c1abd32	0.009444522
44	0x3e85883f	0.2608051
45	0x3dbeeca6	0.09322481
46	0x3dbac9f0	0.09120548
47	0x3d8ca467	0.06867295
48	0x3e0a9577	0.13533579
49	0x3ec03ac8	0.37544847
50	0xbbf1c369	-0.007378031
51	0xbe2e28e8	-0.17007792
52	0xbe6f3270	-0.23359084
53	0x3d05624b	0.032564443
54	0x3d0108f0	0.031502664
55	0xbbd8e1c6	-0.006618711
56	0x3cde2706	0.027118217
57	0xbe475e96	-0.19469675
58	0xbc0d0355	-0.008606751
59	0x3ccfec63	0.025381273
60	0xbcb20228	-0.021729544
61	0x3e62f8f8	0.22165287
62	0x3bf5fc22	0.007506863
63	0x39a7ba4d	0.00031991527
64	0x3bc02372	0.0058636004
65	0x3b2e8bed	0.0026633695
66	0x3d0144e1	0.03155983
67	0xbbeb4fe0	-0.0071811527
68	0x3c0ba56c	0.008523326
69	0x3bf01df4	0.0073277894
70	0x3e52f4a2	0.20601133
71	0x3e64f2b8	0.22358215
72	0x3c3626e2	0.011117669
73	0x3e4f8713	0.2026637
74	0x3c726f10	0.014796987
75	0xbe137de6	-0.14403495
76	0xbe51b2ea	-0.20478407
77	0x3ba70095	0.005096505
78	0xbe0a3e7d	-0.135004
79	0xbe3ade70	-0.18248916
80	0xbe2afe25	-0.16698511
81	0xbe51a656	-0.20473608
82	0xbccf403d	-0.025299186
83	0xbe2242a4	-0.15845734
84	0xbe35ae0e	-0.17742178
85	0xbe3cae37	-0.18425833
86	0x3cd62508	0.026140705
87	0xbe22ac9e	-0.1588616
88	0xbe3d1e6a	-0.18468633
89	0xbe671ea7	-0.22570287
90	0x3d0ce2a8	0.034395844
91	0x3b7e837a	0.003883569
92	0xbe134149	-0.14380373
93	0xbe2cc89d	-0.16873403
94	0xbe3977ae	-0.1811206
95	0x3c3690b5	0.011142899
96	0xbe218e7a	-0.15777007
97	0xbe5625c7	-0.20912848
98	0x3c5874fb	0.013211484
99	0x3bd26780	0.0064210296
100	0xbc8b1b1c	-0.0169807
101	0x3c0f2bc1	0.008738459
102	0xbd1cbca6	-0.038265847
103	0xbc550249	-0.013001033
104	0x3e27c58d	0.16383953
105	0xbc872779	-0.016498314
106	0x3d1d2eaa	0.03837458
107	0xbe5cb6cd	-0.21554108
108	0xbc59983b	-0.0132809235
109	0x3b43e8c8	0.0029893387
110	0x3e39c6b2	0.18142202
111	0x3bc4c3db	0.006004793
112	0x3e5d5814	0.2161563
113	0xbcd42691	-0.025897296
114	0x3e57a989	0.21060766
115	0x3e4fc4d5	0.20289929
116	0xbcb09f68	-0.021560386
117	0x3c9ade91	0.018904956
118	0x3c5753f1	0.013142572
119	0x3b2be221	0.0026227313
120	0x3e4283e2	0.18995622
121	0xbce585be	-0.028017875
122	0xbc84b5be	-0.016199943
123	0xbcedef72	-0.02904484
124	0x3e65092e	0.22366783
125	0x3d591ef4	0.053008035
126	0xbde49bec	-0.11162552
127	0xbe03e8b3	-0.12881736
128	0x3d0aa070	0.03384441
129	0x3e80487c	0.250553
130	0x3e9ea127	0.30982324
131	0x3dd2f8a2	0.10301329
132	0xbdb459dd	-0.088062026
133	0x3d89188c	0.06694135
134	0x3d687d71	0.056760255
135	0x3b2e9c91	0.0026643614
136	0xbd8c3329	-0.068456955
137	0xbda36592	-0.079783574
138	0x3af5cc46	0.0018752895
139	0xbc4bcb8d	-0.012438667
140	0x3e4ef016	0.20208773
141	0x3d2d3eaf	0.042296108
142	0x3d78c3ab	0.06073348
143	0xbcb15eab	-0.021651587
144	0xbc9b3d9c	-0.018950276
145	0xbd6e6ea5	-0.058210988
146	0x3e3a0966	0.18167648
147	0xbd4d8733	-0.050177764
148	0x3e1b478a	0.15164009
149	0xbd7151d7	-0.05891594
150	0x3e5b809e	0.21435782
151	0xbe4259ad	-0.18979521
152	0xbe6261d6	-0.22107634
153	0xb9d7a920	-0.00041134004
154	0xbcc3b4ae	-0.023889866
155	0xbc327c9d	-0.010893968
156	0xbe590cb0	-0.21196246
157	0xbe72ff0d	-0.23730107
158	0xbc93ac5f	-0.018026529
159	0xbb769c60	-0.0037629828
160	0x3e3f7fbe	0.18701074
161	0xbe739876	-0.23788628
162	0xbe54b575	-0.20772345
163	0xbb70e3b0	-0.0036756806
164	0xbcccdd9f	-0.02500802
165	0x3e3f8560	0.18703222
166	0x3d9a4e0c	0.075344175
167	0x3d0611f8	0.03273198
168	0x3cc966d6	0.024585169
169	0x3905f581	0.00012775326
170	0x3ca1d4f6	0.019754868
171	0x3d8159a6	0.06315927
172	0x3e7e472b	0.24831836
173	0x3e40763a	0.187951
174	0x3c66957c	0.014073726
175	0x3c8960a3	0.016769713
176	0xbe302416	-0.17201266
177	0xbe5ad8d1	-0.21371771
178	0xbd01d555	-0.03169759
179	0xbcd132db	-0.025536945
180	0x3cec512a	0.028847296
181	0xbe5dfb81	-0.21677972
182	0xbe64c9cc	-0.22342604
183	0xbcad3b0a	-0.021146316
184	0xbc839ef6	-0.01606701
185	0x3cd00040	0.025390744
186	0xbe567960	-0.20944738
187	0xbc301dcc	-0.010749292
188	0x3cc66434	0.024217702
189	0x3c03b052	0.0080376435
190	0x3e2a391c	0.16623348
191	0xbe4cab23	-0.19987158
192	0x3cca236e	0.024675097
193	0xbba4ce4e	-0.0050294762
194	0x3cfc86b1	0.030825945
195	0x3e32d06a	0.17462316
196	0xbe686a49	-0.22696795
197	0x3c78c053	0.015182572
198	0x3d06c51e	0.03290283
199	0xbcce5399	-0.025186347
200	0x3b261ce3	0.0025346808
201	0x3e8c6144	0.27417958
202	0xbd9189ac	-0.07106337
203	0x3df2e5f1	0.11860264
204	0x3e1ce296	0.1532081
205	0x3e6b10b3	0.22955589
206	0x3d0c206f	0.03421062
207	0x3c6a7e00	0.014312267
208	0x3c1614fc	0.0091602765
209	0x3e3063cc	0.1722557
210	0x3e6a3d98	0.22875059
211	0x3d7fb02b	0.062423866
212	0x3df6ce4b	0.12051066
213	0x3e6a51f8	0.22882831
214	0x3e5c2c99	0.21501388
215	0x3d2993e7	0.041400816
216	0x3e8019e0	0.2501974
217	0x3e69dc83	0.22838025
218	0x3d318c1e	0.043346517
219	0x3e6389e0	0.22220564
220	0xbbfabd4f	-0.007651962
221	0x3e237684	0.15963179
222	0xbd9e712e	-0.07736431
223	0xbd25a6d2	-0.040442295
224	0x3e2a1710	0.1661036
225	0xbd3389bb	-0.043832522
226	0x3e620d94	0.22075492
227	0xbd3af83a	-0.045646884
228	0x3d270e4a	0.04078511
229	0xbc515738	-0.012777142
230	0x3e62f7be	0.22164819
231	0x3e519d59	0.2047018
232	0xbe56edbc	-0.20989126
233	0x3de7e148	0.11322266
234	0x3e58608f	0.21130584
235	0x3e6359ff	0.222023
236	0x3e53d985	0.20688446
237	0x3db34bb7	0.08754676
238	0x3e4806b9	0.19533814
239	0x3e7c71a2	0.24652722
240	0x3e66509c	0.22491688
241	0x3cfa05c2	0.030520324
242	0x3e9d01bc	0.30665386
243	0x3e6d02f9	0.23145665
244	0x3e72d3ac	0.23713559
245	0x3e3dd591	0.185385
246	0xbbdcca0d	-0.0067379535
247	0x3b262fe4	0.0025358135
248	0x3e2ccb13	0.16874342
249	0x3e67c17d	0.22632404
250	0xbc43ac8a	-0.011942992
251	0xbe6b1f12	-0.22961071
252	0xbe37d53f	-0.1795244
253	0x3cd7198b	0.026257297
254	0xbcfbde00	-0.030745506
255	0x3cd3dd7e	0.025862452

conv3.bias f4 [32]
0	0x3dbc57db	0.091964446
1	0xbcec6997	-0.028858943
2	0x3e08c3e5	0.13355978
3	0xbb344ae5	-0.002751046
4	0xbe08e51c	-0.13368648
5	0x3b8c3d74	0.0042797867
6	0x3de139a7	0.109973244
7	0x3d4eb026	0.050460957
8	0xbcafab07	-0.021443857
9	0x3e184044	0.14868265
10	0x3dc0269c	0.09382364
11	0xbdfedd1b	-0.12444516
12	0xbd6fc496	-0.05853709
13	0xbd82cb7d	-0.063864686
14	0xbb373a70	-0.0027958415
15	0x3c026709	0.007959136
16	0xbddb5cf9	-0.107110925
17	0xbd8c28d7	-0.06843727
18	0xbe5f1f2b	-0.21789233
19	0x3db88258	0.09009236
20	0xbd87e7dc	-0.066360205
21	0xbe506788	-0.20351994
22	0x3d1f2f4e	0.038863473
23	0xbc8db305	-0.017297277
24	0x3b9e2056	0.004825632
25	0xbdf54899	-0.119767375
26	0xbdb70784	-0.0893698
27	0x3d803274	0.06259623
28	0x3da077f4	0.07835379
29	0x3db36699	0.08759803
30	0xbda04e3d	-0.07827423
31	0x3dd6ebe8	0.10494214

bn3.weight f4 [32]
0	0x3d516e1c	0.0511304
1	0x3e4929b7	0.19644819
2	0x3e804d14	0.25058806
3	0x3ed2ef1d	0.41198054
4	0x3f0231a0	0.5085697
5	0x3eea5771	0.45769837
6	0xbc3d37d5	-0.011548956
7	0x3f049fc8	0.51806307
8	0x3e126d3b	0.1429948
9	0x3ea8fdd2	0.3300615
10	0x3f24044c	0.64069057
11	0x3eda34e9	0.42618492
12	0x3e3e59d3	0.18588953
13	0xbbe8f084	-0.00710875
14	0x3b591803	0.0033125884
15	0x3ebaec1b	0.3650826
16	0x3d832ab0	0.06404626
17	0x3d47fc3c	0.048824534
18	0x3f014cfb	0.5050809
19	0x3e5c9065	0.21539457
20	0x3e0188d7	0.12649857
21	0x3bab48c5	0.0052271807
22	0xbc724d0a	-0.014788875
23	0x3eeb4561	0.4595137
24	0x3e4aebcf	0.19816516
25	0x3f09d0f6	0.53834474
26	0x3c4b7863	0.012418839
27	0x3d62d550	0.055379212
28	0x3eb3b453	0.35098514
29	0x3eb18535	0.3467194
30	0xbc5e35d5	-0.013562639
31	0x3f095d1b	0.5365769

bn3.bias f4 [32]
0	0xbeca6448	-0.39529634
1	0xbe4ccb77	-0.1999949
2	0xbea86357	-0.3288829
3	0xbe92b451	-0.28653196
4	0xbea6fb22	-0.32613474
5	0xbea37574	-0.31925547
6	0xbe03fe43	-0.12889962
7	0xbeed802a	-0.46386844
8	0xbe4ccac9	-0.19999231
9	0xbed98862	-0.42486864
10	0xbea69519	-0.32535627
11	0xbec7cdc6	-0.3902418
12	0xbe06d9a6	-0.13168964
13	0xbe04005a	-0.12890759
14	0xbe426516	-0.18983874
15	0xbe824e49	-0.25450352
16	0xbe2acecf	-0.16680454
17	0xbe4ccbe4	-0.19999653
18	0xbec35546	-0.38150996
19	0xbe656f6a	-0.22405782
20	0xbe0400e8	-0.1289097
21	0xbec3d598	-0.38248897
22	0xbe4c930f	-0.19977973
23	0xbeb9efd5	-0.3631579
24	0xbe4a3c01	-0.19749452
25	0xbec6e424	-0.38845932
26	0xbe1cb662	-0.15303949
27	0xbeae833d	-0.34084502
28	0xbeccc283	-0.3999215
29	0xbecd06c6	-0.4004423
30	0xbe033556	-0.12813315
31	0xbeab2873	-0.33429298

bn3.running_mean f4 [32]
0	0x40359c3e	2.8376613
1	0xc08f1b77	-4.4721026
2	0xc0e0f898	-7.030346
3	0xc0c7046b	-6.2192893
4	0xc0c5d53f	-6.182281
5	0xc0d87dc0	-6.7653503
6	0xbfe216d4	-1.7663217
7	0xc0f8d937	-7.7765155
8	0xc0b95742	-5.7919016
9	0xc0fba4ba	-7.863858
10	0xc10b944d	-8.723706
11	0xc0e9d554	-7.307291
12	0xc0b8d6d5	-5.7762246
13	0x40a97e5f	5.296676
14	0x3f0d2b21	0.55143934
15	0xc0a06422	-5.0122232
16	0xc0edf037	-7.435573
17	0xc02912a7	-2.6417634
18	0xc0fd7cc5	-7.9214807
19	0xc084e387	-4.1527743
20	0xc0c6e677	-6.215633
21	0xc0e9d447	-7.307163
22	0x40284033	2.6289184
23	0xc0bc12cc	-5.8772945
24	0xc0dbb25b	-6.865522
25	0xc14a0d59	-12.628259
26	0x3e467b02	0.19382861
27	0xc0e20965	-7.063647
28	0xc12ef011	-10.93361
29	0xc09c29ca	-4.880101
30	0x3f8fd6af	1.1237391
31	0xc107dc01	-8.491212

bn3.running_var f4 [32]
0	0x4339d59a	185.83438
1	0x42ebd886	117.9229
2	0x438da22e	283.26703
3	0x43736e70	243.4314
4	0x43a46a82	328.8321
5	0x438a0a98	276.08276
6	0x42235741	40.83521
7	0x444e2ee8	824.7329
8	0x434dbb60	205.73193
9	0x440b5c0a	557.4381
10	0x43f66ff0	492.8745
11	0x43a485cc	329.0453
12	0x437cfd5a	252.98965
13	0x4383157d	262.16788
14	0x41613330	14.074997
15	0x435eee8d	222.93184
16	0x4419e913	615.6418
17	0x429e23a4	79.06961
18	0x445abc75	874.94464
19	0x432daf9b	173.68596
20	0x4384bca5	265.4738
21	0x43f07219	480.8914
22	0x4241133c	48.268784
23	0x43c3dcb4	391.72424
24	0x440a9d45	554.45734
25	0x445779e5	861.9046
26	0x4312cc4b	146.79802
27	0x44161e8c	600.4773
28	0x443ba438	750.5659
29	0x4365753e	229.45798
30	0x42edc9b9	118.89399
31	0x43a0fbc2	321.96686

head.weight f4 [2, 24064]
0	0x3b17b218	0.0023146924
1	0xbb594708	-0.003315391
2	0x3aff172f	0.0019461865
3	0xbacbc891	-0.0015547444
4	0xbb32a028	-0.0027256105
5	0x3ac42f6f	0.001496775
6	0xbb9f72d2	-0.0048659826
7	0x3de2ac16	0.11067979
8	0xbd2d3c4f	-0.042293843
9	0xbd386efb	-0.045027714
10	0xbb95fe7d	-0.0045774565
11	0xbafe0d11	-0.0019382556
12	0x3b8b711c	0.004255427
13	0xbb242348	-0.0025045443
14	0x3b8dba3c	0.0043251794
15	0xbaa487d1	-0.0012552683
16	0xbbb37224	-0.005476253
17	0xbba47304	-0.0050185937
18	0xba9fd091	-0.0012192895
19	0x3a0c17df	0.0005344133
20	0xbb78fb68	-0.0037991647
21	0xba212da1	-0.0006148462
22	0xbb14b46a	-0.0022690543
23	0x3dfa24f1	0.12214077
24	0xbd333419	-0.043750856
25	0xbd50b2cc	-0.050951764
26	0x3ac5d8d3	0.0015094526
27	0x3bafa99c	0.005360795
28	0x3bafdfcc	0.005367255
29	0x3b2f3018	0.0026731547
30	0x3a978faf	0.0011563207
31	0xbbd9c834	-0.0066461805
32	0x3b6a5838	0.003575815
33	0xbb6d0f88	-0.0036172587
34	0x3b147098	0.002265012
35	0xbb9d1174	-0.0047933403
36	0xbb363bc8	-0.0027806628
37	0xbbb24174	-0.0054399315
38	0x3bb79f0e	0.0056036776
39	0x3df0ef0b	0.11764344
40	0xbd4a1130	-0.049332798
41	0xbd4c226f	-0.049837526
42	0x3a860228	0.0010224031
43	0x3a9e3a6f	0.0012071858
44	0x3bbaa09c	0.0056954157
45	0x3934e17b	0.00017250136
46	0x3b95068c	0.0045478996
47	0x3b96e50c	0.0046049412
48	0x3b0863d8	0.0020811465
49	0xbbcacec0	-0.0061891973
50	0x3d7beb8e	0.06150394
51	0x3d36c3a2	0.044620164
52	0x3cb447e8	0.022006944
53	0x3d870065	0.06591872
54	0x3d83158f	0.06400596
55	0x3d4edb9a	0.050502397
56	0xbd04ff52	-0.032470055
57	0xbd15df1e	-0.036589734
58	0x3d7064dc	0.058689937
59	0x3c8bcc61	0.017065229
60	0x3d568799	0.05237541
61	0xbc95e18c	-0.018296026
62	0xbb5f9632	-0.0034116623
63	0x3a02fca1	0.0004996751
64	0xbb6f4d48	-0.003651457
65	0x3dc1b136	0.094576284
66	0xbd1ca9bb	-0.038247805
67	0x3e3f6828	0.18692076
68	0xbc17bb60	-0.009260982
69	0xbc58db85	-0.013235931
70	0x3dc6229c	0.0967457
71	0x3e0e00ea	0.13867536
72	0xbd857e35	-0.06518213
73	0x3cc10738	0.023563012
74	0x3dc3dbe4	0.09563425
75	0xbca3fee2	-0.020018999
76	0xbc5514f7	-0.013005487
77	0xbcd9ccd5	-0.02658693
78	0xbc8e7428	-0.017389372
79	0xba89ae34	-0.0010504187
80	0xbba48864	-0.005021142
81	0x3dd16321	0.102239855
82	0xbdc3ac95	-0.09554402
83	0xbdc4cc3f	-0.09609269
84	0x3d58fc4c	0.052974984
85	0x3d605aa9	0.05477396
86	0x3d64acea	0.055828966
87	0x3d5bdc8a	0.05367712
88	0xbe1a9296	-0.1509498
89	0xbcfb90a1	-0.030708613
90	0x3d2d3dde	0.04229533
91	0x3d68a4af	0.05679768
92	0x3d449da1	0.04800189
93	0xbd30687e	-0.0430684
94	0xbc030c53	-0.007998544
95	0x3ad57cb7	0.0016287778
96	0x3bc1760c	0.005903965
97	0xbbd65978	-0.006541427
98	0xb9ffbf05	-0.0004877971
99	0xbb3a6b6c	-0.0028445376
100	0x3ac5664e	0.0015060396
101	0xbb33d6de	-0.0027441303
102	0xbbe69ed9	-0.007037979
103	0x3cba6eb9	0.022757875
104	0xbe5b77d9	-0.21432437
105	0xbdc3f17a	-0.095675424
106	0xbc221c5f	-0.0098944595
107	0xbb5f3fa0	-0.0034065023
108	0x3b101aa5	0.0021988538
109	0x3b2e9bf5	0.002664325
110	0x3b857d12	0.0040737474
111	0xbb21e2cf	-0.002470184
112	0xbb068c28	-0.0020530317
113	0x3bcbb0cc	0.006216144
114	0x3bb2eacc	0.005460119
115	0x3a0faa5f	0.00054804044
116	0xbbc4e9d4	-0.00600932
117	0xbb577568	-0.0032876376
118	0x3a260388	0.00063329237
119	0x3b17e558	0.002317747
120	0xbe6bc638	-0.23024833
121	0xbe108d3c	-0.14116377
122	0xbb6035b5	-0.00342117
123	0x3b71fe98	0.0036925431
124	0x3abb8def	0.0014309267
125	0xbaac08d1	-0.0013125186
126	0xbb619348	-0.0034420062
127	0x3af2dbaf	0.0018528606
128	0xbb7ad547	-0.0038274096
129	0xba995656	-0.0011698704
130	0xbb1cf0cc	-0.0023947237
131	0xbb2b5768	-0.0026144627
132	0x3aa805ef	0.0012819151
133	0xbb8211e4	-0.003969418
134	0xba43f1fd	-0.0007474719
135	0xbcf4f2bf	-0.029900907
136	0xbe6cb397	-0.23115383
137	0xbe1bdf1c	-0.15221828
138	0x3b5d7fba	0.0033798055
139	0xbb977644	-0.0046222527
140	0xbbad52e4	-0.0052894223
141	0xb87e0a13	-6.05677e-05
142	0xbb83f1f4	-0.004026646
143	0x3a106cdf	0.0005509387
144	0xbbb82441	-0.005619556
145	0x3dd9b2ac	0.10629782
146	0x3b646988	0.003485294
147	0xbad129d1	-0.0015957897
148	0x3b481858	0.0030532088
149	0xbbb97354	-0.0056595
150	0xbb97ef47	-0.0046366784
151	0xbd0b295f	-0.033975
152	0x3d4333b2	0.047656722
153	0xbe2026a9	-0.15639748
154	0xbb036f71	-0.0020055438
155	0x3a13385f	0.0005616005
156	0x3a9d1d2f	0.0011986847
157	0xba9ec5d1	-0.0012113397
158	0xbb2f42c8	-0.0026742686
159	0xbbab0724	-0.005219357
160	0xbb1dc9f8	-0.0024076682
161	0x3dc444a3	0.09583404
162	0xba4b562b	-0.00077566755
163	0xbbcf98d4	-0.006335357
164	0x3bae455c	0.005318327
165	0x39e383be	0.0004339497
166	0xbbcca244	-0.0062449295
167	0xbca896fb	-0.020579806
168	0xbe0e0fde	-0.1387324
169	0xbe286cda	-0.16447774
170	0x3dc1758e	0.0944625
171	0xbb89fe04	-0.004211189
172	0xbbd29234	-0.00642612
173	0xbb7f24e8	-0.003893191
174	0xbbb34104	-0.005470397
175	0x3b4b2638	0.0030998122
176	0x3bb3c14c	0.0054856893
177	0x3ae282bf	0.0017281397
178	0x3a8d1f9d	0.0010766868
179	0xbb9fb454	-0.0048737917
180	0x3bc5593c	0.0060226005
181	0xba4c4b21	-0.00077931775
182	0xbb1d5c81	-0.0024011435
183	0xbc986744	-0.018603928
184	0xbd7125a8	-0.058873802
185	0xbdde26c0	-0.10847235
186	0x3b97debd	0.004634707
187	0x3b4f16d8	0.003159931
188	0x3a80dd2f	0.0009831543
189	0xbb4ada48	-0.003095286
190	0x3b859ddc	0.004077656
191	0xba8589d1	-0.0010188167
192	0xbb884224	-0.004158275
193	0x3baa04d9	0.005188566
194	0x3b1f4751	0.0024303982
195	0xbb390cc8	-0.0028236378
196	0xbb096268	-0.0020963196
197	0x39d957be	0.00041454838
198	0x3baa6acc	0.0052007195
199	0x3dc1b94f	0.09459173
200	0xbd399638	-0.045309275
201	0x3a615839	0.0008596215
202	0x3b70b330	0.0036727898
203	0x3b3078b8	0.0026927423
204	0x3b357498	0.0027687903
205	0xbb10e6e8	-0.0022110287
206	0xbbc55164	-0.0060216654
207	0xbb8ceb54	-0.0043005142
208	0xb78c4426	-1.6721035e-05
209	0x3b7199f8	0.0036865454
210	0x3b174c98	0.0023086425
211	0x3b3aefd8	0.0028524306
212	0x3a93c06f	0.001127256
213	0xbba2b8b4	-0.004965866
214	0xbba9d74f	-0.0051831375
215	0x3dee2d61	0.11629749
216	0xbd6164b8	-0.055027694
217	0xbd36a28c	-0.04458861
218	0xbbca559d	-0.0061747567
219	0xbb941db4	-0.0045201425
220	0x3a9decaf	0.0012048687
221	0x3a34b55f	0.00068934815
222	0x3b7ca318	0.003854936
223	0xbb51d628	-0.0032018516
224	0xbb92a5d4	-0.0044753347
225	0x3ba797ec	0.005114546
226	0xbb46c088	-0.003032716
227	0xbbae5f24	-0.0053214002
228	0x3ba3320c	0.0049803313
229	0x3bc7f61c	0.0061023366
230	0x3b32f60a	0.0027307295
231	0x3df98c95	0.12185017
232	0xbd45057a	-0.048100926
233	0xbd2960e1	-0.041352157
234	0xbb80ac2c	-0.0039267745
235	0x3b30a1f8	0.002695201
236	0x3a0192df	0.0004942845
237	0xbb07bf88	-0.0020713527
238	0xbb1ec7a8	-0.002422789
239	0xbbb82604	-0.005619766
240	0x3a21a65f	0.0006166454
241	0xbb11861f	-0.0022205187
242	0x3dd02258	0.101628006
243	0x3bd41d4d	0.0064732195
244	0x3aa054d6	0.0012232314
245	0xbbab3777	-0.005225118
246	0x3ba98150	0.005172886
247	0x3d0a5066	0.03376808
248	0xbd1e6b78	-0.03867671
249	0xbd0861c7	-0.033296373
250	0xb790123d	-1.717463e-05
251	0x3ab0b381	0.0013481231
252	0xbab9befa	-0.0014171295
253	0x3ba14ec8	0.0049227215
254	0x3b474efa	0.0030412064
255	0xbb46edea	-0.003035421

head.bias f4 [2]
0	0x3d0eae57	0.034834232
1	0x3d192bcc	0.037395284

square_avg f4 [16, 1, 5, 5]
0	0x11c713d2	3.140888e-28
1	0x11a7ea81	2.6492478e-28
2	0x12af6cff	1.1070922e-27
3	0x11cba1ee	3.212755e-28
4	0x11ba1f66	2.9364976e-28
5	0x1106e557	1.0641407e-28
6	0x11b03907	2.780305e-28
7	0x12e32481	1.4334713e-27
8	0x11eaea83	3.706322e-28
9	0x118d4b3d	2.2292247e-28
10	0x11a970d7	2.6733042e-28
11	0x119510f1	2.3518496e-28
12	0x1275dd2d	7.758099e-28
13	0x11b3c8e5	2.8365031e-28
14	0x11c115dc	3.0463503e-28
15	0x11dc8b38	3.479568e-28
16	0x11ab00e4	2.6979592e-28
17	0x129156ac	9.172153e-28
18	0x11a2281d	2.5583815e-28
19	0x12396642	5.850175e-28
20	0x12691e24	7.3558988e-28
21	0x11bf7221	3.0204824e-28
22	0x122d1a13	5.4621314e-28
23	0x11d506c3	3.3609642e-28
24	0x128241e5	8.220398e-28
25	0x1330e414	2.2326774e-27
26	0x133445fc	2.2753699e-27
27	0x1186be07	2.1258586e-28
28	0x113cda46	1.4897846e-28
29	0x12280a11	5.302386e-28
30	0x1353b85c	2.672284e-27
31	0x134f2464	2.6145015e-27
32	0x11cea2af	3.260133e-28
33	0x117e3739	2.0054084e-28
34	0x127f08e0	8.047475e-28
35	0x130cfa43	1.7793873e-27
36	0x130ac309	1.7514209e-27
37	0x117412e4	1.9254027e-28
38	0x115b8107	1.7315813e-28
39	0x122d7f17	5.4745825e-28
40	0x13279236	2.115045e-27
41	0x13068f2d	1.6983769e-27
42	0x118955c1	2.1667639e-28
43	0x11881123	2.1467578e-28
44	0x127128fd	7.6096713e-28
45	0x1261dc1a	7.1268778e-28
46	0x12011efe	4.0743424e-28
47	0x1247d96e	6.306133e-28
48	0x128046fd	8.095436e-28
49	0x122cece8	5.456564e-28
50	0x126c8718	7.4634985e-28
51	0x1189456f	2.165758e-28
52	0x1184843f	2.090743e-28
53	0x115e686c	1.754489e-28
54	0x10f22429	9.5507883e-29
55	0x10e81671	9.154244e-29
56	0x1114f592	1.1750814e-28
57	0x10b65965	7.1924076e-29
58	0x10ce3108	8.132822e-29
59	0x11a44c1d	2.5921546e-28
60	0x11048fb7	1.045725e-28
61	0x1038b693	3.6428252e-29
62	0x100e1d1c	2.8026987e-29
63	0x10af37e4	6.911144e-29
64	0x119b82a3	2.45352e-28
65	0x10ef5c71	9.4411307e-29
66	0x108023cc	5.054225e-29
67	0x10518e68	4.1327688e-29
68	0x10423a9f	3.8304914e-29
69	0x114d7967	1.6209059e-28
70	0x115afcfb	1.7275123e-28
71	0x107f0200	5.0291423e-29
72	0x0fa3c0f2	1.6147361e-29
73	0x0f9a6e03	1.5227947e-29
74	0x10b9c685	7.32755e-29
75	0x15256a95	3.3405563e-26
76	0x1582d35f	5.2840067e-26
77	0x1489b648	1.3905362e-26
78	0x15066872	2.7143477e-26
79	0x153979c3	3.7456506e-26
80	0x15567659	4.3310316e-26
81	0x159e753b	6.400065e-26
82	0x1451e864	1.05976344e-26
83	0x1531834f	3.584845e-26
84	0x150581c8	2.6961515e-26
85	0x15470681	4.019286e-26
86	0x16052611	1.0755666e-25
87	0x150bf663	2.826519e-26
88	0x15f2ea86	9.8113034e-26
89	0x1593ab26	5.964285e-26
90	0x1523bf19	3.3068337e-26
91	0x15c90495	8.119048e-26
92	0x14cfb2d7	2.0972198e-26
93	0x15d64967	8.654972e-26
94	0x159d0fef	6.3436934e-26
95	0x141fed3b	8.074234e-27
96	0x1562e27b	4.5818998e-26
97	0x1511c6a3	2.9439214e-26
98	0x159f2030	6.427037e-26
99	0x15a8dc7a	6.820251e-26
100	0x14c79393	2.0152073e-26
101	0x14b7b1c9	1.8548402e-26
102	0x148c0b57	1.414086e-26
103	0x14622526	1.141741e-26
104	0x1488c50d	1.3810213e-26
105	0x14d1799c	2.1151573e-26
106	0x14cdb454	2.0770837e-26
107	0x1488d025	1.3814589e-26
108	0x1457355b	1.08652486e-26
109	0x14920bbf	1.4746866e-26
110	0x1303ad3c	1.6619936e-27
111	0x12a73194	1.0551404e-27
112	0x138086cd	3.2444667e-27
113	0x139f9527	4.028432e-27
114	0x131da8c5	1.9899396e-27
115	0x121916d5	4.830643e-28
116	0x124b5f11	6.4172684e-28
117	0x14022976	6.5714995e-27
118	0x142462e1	8.2993845e-27
119	0x13a31614	4.1168756e-27
120	0x132eea1b	2.207731e-27
121	0x12e69828	1.455255e-27
122	0x1318e49f	1.9297816e-27
123	0x132e781e	2.202111e-27
124	0x12651961	7.229094e-28
125	0x0d4cefa4	6.315081e-31
126	0x0cbb0318	2.8813774e-31
127	0x0c05e73d	1.0315533e-31
128	0x0e265c65	2.0505566e-30
129	0x0bb6df7f	7.044013e-32
130	0x0d4869ea	6.1757248e-31
131	0x0d1752a4	4.6629942e-31
132	0x0a4c2692	9.829497e-33
133	0x0dcd4007	1.2649514e-30
134	0x08dc9042	1.3274683e-33
135	0x0ab7a7a3	1.7685317e-32
136	0x0a297c05	8.1603795e-33
137	0x0c9845ab	2.3461238e-31
138	0x0e276b2d	2.0635943e-30
139	0x0c97e4d4	2.3402955e-31
140	0x0b419eec	3.7290007e-32
141	0x0c2c4389	1.3270721e-31
142	0x0d0bd841	4.309299e-31
143	0x0e358b11	2.237693e-30
144	0x0d12fd6f	4.5294783e-31
145	0x0d1faccc	4.9203654e-31
146	0x0d91c562	8.983833e-31
147	0x0d986421	9.391828e-31
148	0x0e9872b6	3.7581356e-30
149	0x0e1e57b3	1.951723e-30
150	0x15afebb1	7.105379e-26
151	0x14c0a101	1.945055e-26
152	0x15d5dba9	8.637658e-26
153	0x152d18f0	3.4956744e-26
154	0x154d7bd4	4.1497103e-26
155	0x15b2f4a6	7.2279615e-26
156	0x15091b3e	2.768842e-26
157	0x15c4bdad	7.9463025e-26
158	0x150bdfe9	2.824746e-26
159	0x15169713	3.0411435e-26
160	0x14ee8bb0	2.4086956e-26
161	0x157a09e9	5.0494916e-26
162	0x14b21307	1.7980912e-26
163	0x145ddc67	1.1201115e-26
164	0x14431200	9.848534e-27
165	0x1500d4f6	2.601739e-26
166	0x15aaf2a7	6.904529e-26
167	0x1506256f	2.7090614e-26
168	0x14f659fb	2.4875143e-26
169	0x14eb40c4	2.3754482e-26
170	0x1467ec1d	1.1709085e-26
171	0x1522f295	3.2907003e-26
172	0x14e6a99d	2.3290966e-26
173	0x140911bf	6.920232e-27
174	0x14cafa7f	2.0495591e-26
175	0x13c930f0	5.078779e-27
176	0x13e5a7b9	5.7973114e-27
177	0x13241e48	2.071464e-27
178	0x139eb3de	4.006217e-27
179	0x139d40ac	3.9696143e-27
180	0x13ce6a67	5.210663e-27
181	0x14056362	6.734384e-27
182	0x131fa421	2.0149543e-27
183	0x13abc7f2	4.336363e-27
184	0x13b82f87	4.6494996e-27
185	0x1338a6c7	2.3306293e-27
186	0x145b61d4	1.1075968e-26
187	0x13a85dc7	4.2501634e-27
188	0x143e76a8	9.6159494e-27
189	0x142a7ee3	8.607831e-27
190	0x13054cf3	1.6824899e-27
191	0x1462c111	1.144816e-26
192	0x13948d1b	3.7499593e-27
193	0x141aaf46	7.80958e-27
194	0x1434530b	9.104055e-27
195	0x12b7779e	1.1578412e-27
196	0x146cddee	1.1958723e-26
197	0x13daf83d	5.527572e-27
198	0x1444b02d	9.930216e-27
199	0x144e66a2	1.0420583e-26
200	0x1383f84f	3.33139e-27
201	0x13351ad0	2.2858631e-27
202	0x13c60c65	4.999445e-27
203	0x132ce8b3	2.1824182e-27
204	0x13b541cf	4.5755716e-27
205	0x1375fd71	3.1048304e-27
206	0x13861cd2	3.3854775e-27
207	0x13c039d6	4.8524645e-27
208	0x13500a4c	2.6258368e-27
209	0x138a96cc	3.4984795e-27
210	0x128d558a	8.919438e-28
211	0x13b95c46	4.6791554e-27
212	0x1304c1c7	1.6756282e-27
213	0x12fd6223	1.5990737e-27
214	0x12f94f0f	1.5733599e-27
215	0x12504af4	6.5725614e-28
216	0x13c841b9	5.0551905e-27
217	0x12eca5c5	1.4934559e-27
218	0x1310fa21	1.8298678e-27
219	0x130a5662	1.7460639e-27
220	0x12ccb9d1	1.2920017e-27
221	0x138307d5	3.3076772e-27
222	0x1364dc6f	2.8886328e-27
223	0x129e272b	9.9808575e-28
224	0x139fd6e4	4.034914e-27
225	0x14e89dfa	2.3488324e-26
226	0x140e022c	7.169596e-27
227	0x14cf10fa	2.0908355e-26
228	0x141c301a	7.885474e-27
229	0x149e6e30	1.5997384e-26
230	0x14f678ce	2.4887301e-26
231	0x143dd3c9	9.583829e-27
232	0x14f43128	2.4657093e-26
233	0x145ab9a2	1.1042797e-26
234	0x149a25a7	1.5564877e-26
235	0x143cc5a8	9.530555e-27
236	0x141c8c95	7.903712e-27
237	0x143ed627	9.634783e-27
238	0x1396a00d	3.8023146e-27
239	0x13776388	3.1224856e-27
240	0x1420263b	8.085475e-27
241	0x14378b3a	9.2665965e-27
242	0x14431304	9.848734e-27
243	0x13b3a7c5	4.5351386e-27
244	0x139ce76c	3.9608136e-27
245	0x13b648d2	4.6015065e-27
246	0x1422b272	8.214102e-27
247	0x140a8f12	6.995435e-27
248	0x12de3344	1.4022808e-27
249	0x13e1b008	5.6971565e-27
250	0x144089f4	9.720729e-27
251	0x14cadbd2	2.0483491e-26
252	0x1599245c	6.185357e-26
253	0x1571d881	4.8840354e-26
254	0x14bce001	1.9071503e-26
255	0x13094070	1.7323601e-27
